src/movement_models/head_tracker_model_18.pth (torch_old, 74008 bytes, 6 tensors)

lstm.weight_ih_l0 f4 [256, 4]
0.020863056 -0.0894206 0.06720324 -0.01758942 -0.1182739 -0.003867939 0.035425767 0.08688049
0.07248379 0.104747355 -0.11554541 -0.094853505 -0.01217863 -0.023237765 0.059641987 0.09188484
0.056826755 0.117271274 -0.10811652 -0.11533466 -0.05041164 0.034288555 0.02262786 0.07470943
0.05250135 0.013973996 -0.1103137 -0.021098867 0.021208465 0.05441667 0.006104186 -0.016730621
-0.04084693 -0.025479585 0.07593845 0.12296656 -0.009604707 0.025982544 0.070935264 0.10044198
0.048855558 -0.1193935 0.0020283163 -0.10520154 -0.066532865 -0.026378796 0.08714588 -0.020535901
-0.0030364841 -0.09786901 -0.044671908 -0.021209255 0.11679906 0.0260659 -0.06760432 -0.079197004
-0.0396021 0.05163294 -0.039969653 -0.005577162 -0.08870584 0.07644045 -0.035120636 -0.09891315
0.03958243 -0.04729466 0.03637968 0.018211797 0.089726105 -0.09400347 0.029673189 0.10872418
-0.0137346685 0.021023184 -0.06705114 0.083289415 0.008070841 0.12408993 -0.10260631 0.10346687
-0.017992735 -0.00020381808 -0.010484189 -0.055991337 -0.003097713 -0.09234209 0.03325291 -0.044048637
-0.09234357 -0.07586786 0.04335086 -0.05855611 0.00787285 -0.0016866475 0.057131365 -0.09217122
0.07386531 -0.1115326 -0.086607665 -0.056772158 0.08795163 -0.012749359 0.0020605028 0.10831347
0.05166477 0.012334481 -0.10565643 0.00057701766 -0.046671107 -0.006575465 -0.060922638 0.06743263
-0.11507127 0.031281054 -0.062470973 -0.0798558 0.0736319 -0.069074586 -0.12263192 -0.010932982
0.051640347 -0.0035952032 0.082840994 0.015804589 0.077982396 0.018466711 0.08738737 -0.027531102
0.122040376 0.07391301 -0.09713304 -0.022781163 0.058860183 0.016078994 0.11284809 0.015359536
0.045654774 0.078970715 0.022769794 0.0007558465 -0.06079468 0.0993388 0.11026189 0.069407925
0.118206695 0.08179556 -0.018037468 0.05647786 0.0404543 -0.0017169416 -0.01119189 0.04659176
-0.050034314 0.02517794 -0.06814189 -0.06362592 -0.005390376 -0.1051113 -0.09214303 0.11348648
0.120801374 0.03645456 -0.03664209 -0.04845737 0.06181279 0.02891469 -0.021431044 -0.030477315
-0.10130517 0.10876982 0.0408352 0.008670449 -0.019077837 0.116410315 0.12232858 0.11249234
-0.070087284 -0.11421208 -0.0044113696 0.050098643 0.0008017272 0.07385869 -0.026025623 0.047430962
0.10269983 0.079076216 0.011588573 0.07226813 0.090634406 0.11051494 0.08540581 -0.039168373
0.059018195 -0.019929215 0.11449273 -0.057779863 0.013397679 0.08646001 0.081676334 0.09917416
0.07810785 -0.091990754 0.015664712 -0.0011792928 0.0148527175 -0.06343368 0.0030737072 -0.1072315
0.119618595 -0.048251644 0.095461994 -0.010275856 -0.031271383 0.06196715 0.006642431 0.11747067
-0.03612961 -0.016419157 -0.013736248 -0.06717387 -0.050370336 -0.088093504 0.025780737 0.042051554
0.11172357 -0.042583913 -0.09692265 0.09788215 0.019406602 -0.10569045 -0.039373487 -0.037382156
0.05089076 0.08979006 0.07847646 0.07601032 -0.07509597 -0.017187089 0.067241505 -0.039399818
0.09890431 0.032333687 0.03637661 0.013014138 -0.10656808 -0.077467605 -0.06983116 0.006752327
0.06638543 -0.03429717 -0.057125434 -0.071075395 -0.029538989 0.022118986 0.04763876 -0.06271304
00000000: 00e9 aa3c 2622 b7bd daa1 893d b017 90bc
00000010: 9639 f2bd 407d 7dbb 9c1a 113d 66ee b13d
00000020: 6272 943d c885 d63d 12a3 ecbd 8e42 c2bd
00000030: e088 47bc 205d bebc 284b 743d 1e2e bc3d
00000040: 2cc3 683d ec2b f03d 326c ddbd 9434 ecbd
00000050: 707c 4ebd 2872 0c3d 105e b93c 4201 993d
00000060: a80b 573d 30f3 643c 26ec e1bd 88d7 acbc
00000070: 60bd ad3c 04e4 5e3d a005 c83b a80e 89bc
00000080: 1c4f 27bd 90ba d0bc 9e85 9b3d e4d5 fb3d
00000090: 105d 1dbc 58d9 d43c 8246 913d 86b4 cd3d
000000a0: c41c 483d 9484 f4bd 80ed 043b e873 d7bd
000000b0: 6242 88bd 5818 d8bc 8a79 b23d e83a a8bc
000000c0: c0ff 46bb 8c6f c8bd e4f9 36bd 08bf adbc
000000d0: 5834 ef3d 2888 d53c 2274 8abd 0a32 a2bd
000000e0: d035 22bd 107d 533d 38b7 23bd a0c0 b6bb
000000f0: 68ab b5bd d08c 9c3d a8da 0fbd fa92 cabd
00000100: 3021 223d 0cb8 41bd dc02 153d e830 953c
00000110: 52c2 b73d e484 c0bd 3015 f33c c8aa de3d
00000120: 6007 61bc d038 ac3c 1c52 89bd a493 aa3d
00000130: 903b 043c dc22 fe3d 4223 d2bd 70e6 d33d
00000140: 8065 93bc 00b8 55b9 e0c5 2bbc 2c57 65bd
00000150: 0003 4bbb da1d bdbd 3434 083d 586c 34bd
00000160: a01e bdbd 9c60 9bbd ac90 313d 88d8 6fbd
00000170: 20fd 003c 8012 ddba 9402 6a3d 44c4 bcbd
00000180: b246 973d 346b e4bd 5c5f b1bd ec89 68bd
00000190: fc1f b43d b0e2 50bc 8009 073b 74d3 dd3d
000001a0: 709e 533d 9016 4a3c 6662 d8bd 0043 173a
000001b0: 342a 3fbd 0077 d7bb 048a 79bd 1e1a 8a3d
000001c0: 7caa ebbd 9020 003d 90e1 7fbd 708b a3bd
000001d0: 52cc 963d fa76 8dbd 7226 fbbd 4020 33bc
000001e0: d484 533d 809d 6bbb 8aa8 a93d a078 813c
000001f0: 3cb5 9f3d 8047 973c 26f8 b23d e888 e1bc
00000200: 4ef0 f93d b45f 973d b0ed c6bd 909f babc
00000210: 6017 713d 18b8 833c e61c e73d 90a6 7b3c
00000220: 8000 3b3d 66bb a13d b887 ba3c 0024 463a
00000230: d803 79bd 2472 cb3d fcd0 e13d be25 8e3d
00000240: 5a16 f23d 6e84 a73d 50c3 93bc 5455 673d
00000250: 68b3 253d 000b e1ba 305e 37bc 00d7 3e3d
00000260: c8f0 4cbd f841 ce3c fa8d 8bbd 4e4e 82bd
00000270: c0a1 b0bb 9844 d7bd 7cb5 bcbd 9a6b e83d
00000280: b666 f73d 6051 153d 0416 16bd 3c7b 46bd
00000290: 682f 7d3d 80de ec3c 2890 afbc 90ab f9bc
000002a0: 1679 cfbd b6c2 de3d d042 273d 800e 0e3c
000002b0: 2049 9cbc 8868 ee3d 6887 fa3d 6262 e63d
000002c0: ec89 8fbd 06e8 e9bd 408d 90bb 3c34 4d3d
000002d0: 002b 523a 3a43 973d b033 d5bc f846 423d
000002e0: 4a54 d23d b6f2 a13d 00de 3d3c 5001 943d
000002f0: 889e b93d a855 e23d 3ee9 ae3d 046f 20bd
00000300: 10bd 713d 9842 a3bc 2a7b ea3d 94aa 6cbd
00000310: f081 5b3c f211 b13d ec45 a73d d21b cb3d
00000320: 02f7 9f3d a665 bcbd 4853 803c 8092 9aba
00000330: d058 733c 84e9 81bd 4070 493b 309c dbbd
00000340: 98fa f43d 84a3 45bd 9481 c33d 105c 28bc
00000350: 6c16 00bd 44d1 7d3d c0a8 d93b 7694 f03d
00000360: a4fc 13bd 7881 86bc 000e 61bc 7492 89bd
00000370: 2051 4ebd 5e6a b4bd 2032 d33c 403e 2c3d
00000380: 54cf e43d 786c 2ebd 627f c6bd 7076 c83d
00000390: 98fa 9e3c 3c74 d8bd 1846 21bd 081e 19bd
000003a0: d472 503d dae3 b73d 44b8 a03d 4cab 9b3d
000003b0: eacb 99bd f0cb 8cbc eab5 893d b461 21bd
000003c0: 588e ca3d 5470 043d a4ff 143d 4039 553c
000003d0: 5e40 dabd 56a7 9ebd a403 8fbd a042 dd3b
000003e0: 16f5 873d 307b 0cbd 5cfc 69bd fa8f 91bd
000003f0: c0fb f1bc e032 b53c dc20 433d b26f 80bd

lstm.weight_hh_l0 f4 [256, 64]
-0.10962944 0.08769156 -0.11257659 -0.09116739 0.0987858 -0.007709965 0.06797032 0.059179127
-0.06853098 0.085471734 -0.016015545 0.11911915 -0.04498151 0.040200964 0.09721547 0.10545954
0.10764891 -0.053161412 -0.020701021 0.020400062 -0.014152184 0.073048055 0.024259359 -0.123940006
-0.10298194 -0.04267387 -0.12259729 -0.071856186 0.07449652 0.0225773 0.08793481 -0.06302847
-0.10374145 -0.09155436 0.11397651 -0.044836402 0.074375 0.055820912 -0.0040404946 -0.07206513
0.002566576 -0.03179717 0.0306364 0.11142701 0.10530692 0.074829206 0.08394158 0.06763828
0.123564124 0.043557256 -0.111461625 0.05068615 -0.11131321 -0.050219744 0.039480656 0.08481948
0.11606735 0.0067751557 -0.074232265 -0.09323709 -0.0845429 0.09683411 -0.006685883 -0.013443232
0.10922463 -0.0070052 0.024704114 0.09130499 -0.0645943 0.08427641 0.043690756 -0.044461235
-0.0619507 0.061059013 -0.018557012 -0.039215595 -0.093471065 -0.0894496 -0.07081394 0.05785021
0.12382385 0.06754294 0.05804491 0.006620601 -0.016863868 0.09084602 -0.035772815 0.12393075
-0.004213184 0.11294651 0.00625661 0.029252425 -0.065439805 -0.06143135 -0.046196908 -0.054961964
0.0038539767 -0.025304064 -0.04624024 0.012520984 -0.07633135 -0.12443967 -0.07112642 0.031060219
0.09370278 -0.039125785 -0.12036914 0.027349532 0.04101716 -0.0025645941 -0.005913049 0.11438356
0.11987907 -0.034244165 -0.072411835 0.049076036 -0.10360269 0.03562157 -0.11235537 0.061289042
0.008966148 0.05326356 0.08555649 0.023956478 -0.062799275 0.08469561 -0.029661119 -0.08869921
0.0835374 0.0031698793 0.016615242 -0.09070258 -0.11215696 0.11689675 0.11644408 -0.054476067
-0.05929455 -0.034095183 0.04121037 -0.009469807 0.09854671 0.04838851 0.10555704 0.08990875
0.05462031 -0.05107917 -0.0009799898 0.029724672 -0.036226243 0.09749846 -0.049639165 0.10032317
-0.0071939677 -0.08677384 -0.11228183 0.10984641 -0.037892535 0.11018425 -0.037234277 -0.094208345
0.0487054 0.019344091 -0.09011313 -0.02289541 -0.09406246 0.030464679 0.073617 0.029329658
0.035739705 0.06950629 -0.0065980554 0.03953305 0.014028028 0.11428811 0.0117480755 0.0072934628
0.0534897 0.06455912 -0.041196898 0.06620857 -0.0603967 0.11141147 0.017734602 -0.023659483
-0.09819254 -0.049337924 -0.11470863 0.0033742338 0.11074449 0.023695186 0.108508214 -0.030296773
-0.031049013 -0.120186165 0.089251384 0.08190666 -0.004923716 0.11362459 0.10626347 -0.084904835
0.010710835 -0.04726702 0.08908777 0.08441219 -0.03836344 -0.098164394 -0.081119925 0.04659985
0.09659614 0.034556165 0.081753775 0.11031008 0.067453995 0.07371226 -0.115207195 -0.043858573
0.06670466 0.061654925 0.106364876 0.06446169 0.007218614 -0.022983298 0.11475046 -0.0060293376
-0.005890146 -0.059922144 -0.12256372 0.08525497 0.119436085 0.031033278 0.12481986 -0.08815023
-0.084701985 0.07801485 0.058877528 0.11863352 -0.025038674 0.040259555 -0.037243783 -9.921193e-05
-0.025572285 -0.041912675 -0.033135608 0.108300105 -0.03202772 0.030391946 0.08063318 0.1040865
-0.06912707 0.0036832541 0.003227666 -0.12432359 -0.047634184 0.03147836 0.014316708 0.122201145
00000000: 6685 e0bd a297 b33d 8e8e e6bd f8b5 babd
00000010: 3650 ca3d e0a3 fcbb 0634 8b3d d065 723d
00000020: f859 8cbd ce0b af3d 0833 83bc bef4 f33d
00000030: 883e 38bd c4a9 243d e818 c73d 2cfb d73d
00000040: 0877 dc3d c8bf 59bd 3095 a9bc 081e a73c
00000050: 90de 67bc 389a 953d 90bb c63c 42d4 fdbd
00000060: 32e8 d2bd ccca 2ebd 4a14 fbbd 5629 93bd
00000070: a291 983d 08f4 b83c 2a17 b43d 1215 81bd
00000080: 6676 d4bd da80 bbbd 846c e93d 60a6 37bd
00000090: ec51 983d 78a4 643d 2066 84bb e296 93bd
000000a0: 0034 283b c03d 02bd 30f9 fa3c d833 e43d
000000b0: 28ab d73d 0e40 993d 90e9 ab3d f085 8a3d
000000c0: 300f fd3d 1869 323d fe45 e4bd 489c 4f3d
000000d0: 2ef8 e3bd 38b3 4dbd 78b6 213d d6b5 ad3d
000000e0: b8b4 ed3d 2002 de3b 1607 98bd 16f3 bebd
000000f0: d424 adbd f650 c63d 4015 dbbb 0041 5cbc
00000100: 2ab1 df3d e08b e5bb 4860 ca3c 1cfe ba3d
00000110: 044a 84bd 1c99 ac3d 14f5 323d fc1c 36bd
00000120: 04c0 7dbd 0419 7a3d e004 98bc 88a0 20bd
00000130: c26d bfbd 5a31 b7bd e606 91bd 58f4 6c3d
00000140: 5c97 fd3d f453 8a3d 80c0 6d3d a0f1 d83b
00000150: 1826 8abc 7a0d ba3d 8486 12bd 68cf fd3d
00000160: c00e 8abb 8050 e73d 4004 cd3b c8a2 ef3c
00000170: 4e05 86bd 709f 7bbd f838 3dbd cc1f 61bd
00000180: 0093 7c3b 784a cfbc 6866 3dbd d024 4d3c
00000190: 9c53 9cbd 3ada febd baaa 91bd 0072 fe3c
000001a0: 3ee7 bf3d 5c42 20bd 1884 f6bd 200c e03c
000001b0: 9c01 283d c012 28bb 40c2 c1bb ee41 ea3d
000001c0: 2883 f53d 9c43 0cbd a84c 94bd f403 493d
000001d0: a62d d4bd ece7 113d 921a e6bd 380a 7b3d
000001e0: c0e6 123c e42a 5a3d 3e38 af3d 6040 c43c
000001f0: e89c 80bd e474 ad3d e0fb f2bc eea7 b5bd
00000200: a815 ab3d c0bd 4f3b b01c 883c 46c2 b9bd
00000210: 8cb2 e5bd 9067 ef3d 3c7a ee3d 4c22 5fbd
00000220: d8de 72bd 64a7 0bbd 34cc 283d 4027 1bbc
00000230: dcd2 c93d 0833 463d 4a2e d83d 1422 b83d
00000240: 8cb9 5f3d 6438 51bd 0073 80ba 2881 f33c
00000250: f861 14bd 46ad c73d 7052 4bbd 3c76 cd3d
00000260: 60bb ebbb 7cb6 b1bd 04f4 e5bd 28f7 e03d
00000270: 3435 1bbd 48a8 e13d f882 18bd 4ef0 c0bd
00000280: 507f 473d 8077 9e3c 3c8d b8bd 288f bbbc
00000290: d2a3 c0bd 1091 f93c 82c4 963d c044 f03c
000002a0: cc63 123d 5059 8e3d 8034 d8bb 68ed 213d
000002b0: d0d5 653c e20f ea3d 007b 403c 00fe ee3b
000002c0: 0418 5b3d 9237 843d 14be 28bd 5c98 873d
000002d0: 8862 77bd b22b e43d 2848 913c 88d1 c1bc
000002e0: 2c19 c9bd 9016 4abd 5cec eabd 4022 5d3b
000002f0: 02ce e23d 681c c23c 8e39 de3d f030 f8bc
00000300: 805a febc 2a24 f6bd 6ec9 b63d aebe a73d
00000310: 2057 a1bb 02b4 e83d aaa0 d93d 96e2 adbd
00000320: 807c 2f3c 109b 41bd a673 b63d 4ce0 ac3d
00000330: fc22 1dbd 6a0a c9bd 3422 a6bd 7cdf 3e3d
00000340: 32d4 c53d c48a 0d3d 866e a73d 40ea e13d
00000350: 5225 8a3d 74f6 963d c0f1 ebbd 0ca5 33bd
00000360: 749c 883d e089 7c3d d4d5 d93d 7e04 843d
00000370: 208a ec3b 7847 bcbc 4a02 eb3d c091 c5bb
00000380: 2002 c1bb ec70 75bd b002 fbbd 289a ae3d
00000390: e89a f43d 8039 fe3c 8ea1 ff3d 1c88 b4bd
000003a0: 3c78 adbd 40c6 9f3d 9029 713d 22f6 f23d
000003b0: e81d cdbc 34e7 243d f08c 18bd 0010 d0b8
000003c0: f87c d1bc a0ac 2bbd 34b9 07bd 72cc dd3d
000003d0: 802f 03bd 88f8 f83c 0223 a53d 4e2b d53d
000003e0: 7e92 8dbd c062 713b 4087 533b 5e9d febd
000003f0: 101c 43bd 74ef 003d a090 6a3c 9844 fa3d

lstm.bias_ih_l0 f4 [256]
0.08574186 0.09241797 -0.020852372 0.10248642 0.028796107 0.07492621 -0.037012264 0.017938673
-0.0071470737 -0.037149623 0.101775035 0.112287804 -0.040875345 0.049756914 0.053954974 -0.038712263
0.034913614 -0.09913953 0.07160668 -0.0342049 0.05077544 0.04977338 0.10242395 0.10321559
-0.09009832 -0.104431674 0.044573665 0.004340753 -0.10566907 -0.045987442 -0.05562079 -0.06754999
-0.023916483 0.04749079 -0.081518486 0.06253606 -0.07568012 0.11104827 -0.12226695 -0.06556393
0.08789687 -0.08312003 -0.048433587 0.04413481 -0.115816146 -0.09267302 0.09416783 -0.042353734
-0.0058913976 0.122341156 0.022284463 0.122505754 -0.06861983 0.10820612 0.027041271 -0.03150226
-0.0075960606 0.0009447932 0.050063178 0.057436705 0.018756956 0.002591908 0.11814414 -0.04878147
0.02574429 -0.06548065 -0.098538384 0.048737407 -0.11421502 -0.026429176 0.019867823 0.035571158
0.09961884 -0.05589451 0.09978525 -0.025306031 -0.041604534 0.04627797 -0.07624473 0.11661877
0.055881128 -0.013438761 -0.041320056 -0.031031564 0.04111728 -0.05099155 0.05512072 0.016683728
-0.08668089 0.10371439 0.112682045 0.058059365 0.08894779 -0.071192235 -0.09210275 -0.10796577
-0.017355219 -0.11251095 -0.08361974 0.052923694 0.02484411 0.042199478 0.10486132 0.039225042
0.09512566 -0.019201726 -0.09642017 -0.021900102 -0.011234552 -0.0013098568 0.07949494 -0.062187463
0.034761682 -0.112133265 -0.09843275 -0.11297497 -0.069199234 -0.0006427318 -0.00012920797 -0.049069062
-0.010181591 -0.12278484 0.079774275 -0.055012375 0.058484852 -0.00628978 0.008140624 0.012605414
0.053156763 -0.12045555 -0.050085634 0.11796552 0.040468857 -0.09165378 0.015249863 -0.02366431
0.097285524 -0.08864765 0.02004157 0.017506361 0.012013704 -0.050436452 0.04915555 -0.032193854
0.040108174 -0.11928035 -0.037925467 -0.060018778 0.08415043 0.103194386 0.019000173 -0.09157197
-0.022132143 0.022592977 -0.011797905 0.030166283 -0.086666316 -0.082476705 0.07934679 -0.004822135
-0.040094778 -0.01938285 -0.12404218 0.10177891 0.107421026 -0.10108173 0.09120168 -0.114474595
-0.055792183 0.044411615 -0.11381319 -0.08441664 -0.052148044 -0.10075982 -0.067235515 0.07866481
-0.039100945 -0.022073105 0.012551814 0.052382678 0.04277475 0.10872957 -0.10543494 -0.063198775
-0.03264503 -0.07454066 -0.03660564 0.10900697 -0.040816367 -0.07800813 -0.015979365 -0.10688853
0.011522099 -0.004260838 0.10103001 0.036469534 -0.026146173 -0.020605028 0.11093563 -0.10713963
0.066694975 0.10613562 -0.04510027 -0.007977024 0.029745817 -0.046840906 0.07996751 0.11065328
-0.06283277 0.053946912 0.09350708 0.119697705 -0.059809938 0.07543807 -0.1177858 0.0036737174
0.08037825 -0.117240086 0.033807278 -0.057814464 -0.060671896 -0.053348497 0.09172055 0.120046616
-0.025748655 0.06802814 -0.11376357 0.042748958 -0.103092045 -0.04449576 -0.051285774 0.11674374
0.0787504 -0.118196845 -0.004506156 -0.052353963 -0.11469258 0.064814225 0.0037710816 -0.10173932
-0.07904096 -0.0061808825 -0.01208505 0.020742163 0.07638171 0.013914108 0.082100585 0.019363344
-0.03968586 -0.039992258 0.104598 -0.06848532 0.05363582 0.12219253 0.085725814 0.10040344
00000000: 6e99 af3d a245 bd3d 98d2 aabc 66e4 d13d
00000010: d0e5 eb3c ea72 993d 2c9a 17bd 20f4 923c
00000020: 0032 eabb 342a 18bd 6e6f d03d 26f7 e53d
00000030: e86c 27bd e8cd 4b3d e4ff 5c3d c090 1ebd
00000040: 9401 0f3d aa09 cbbd 86a6 923d 701a 0cbd
00000050: e8f9 4f3d 2cdf 4b3d a6c3 d13d b262 d33d
00000060: 7885 b8bd 46e0 d5bd e092 363d e03c 8e3b
00000070: 0669 d8bd 545d 3cbd a0d2 63bd a657 8abd
00000080: 80ec c3bc b485 423d 2af3 a6bd e812 803d
00000090: 2efe 9abd 466d e33d 1867 fabd 6246 86bd
000000a0: 4603 b43d d63a aabd 4c62 46bd b4c6 343d
000000b0: 0431 edbd 5acb bdbd 10db c03d 1c7b 2dbd
000000c0: a00c c1bb 008e fa3d e88d b63c 4ce4 fa3d
000000d0: 8e88 8cbd 2c9b dd3d a885 dd3c 8408 01bd
000000e0: 60e8 f8bb 00ac 773a 0c0f 4d3d c042 6b3d
000000f0: 30a8 993c 00dd 293b 8ef5 f13d 14cf 47bd
00000100: b0e5 d23c b81a 86bd 7ece c9bd e0a0 473d
00000110: 90e9 e9bd 0082 d8bc d8c1 a23c 10b3 113d
00000120: f604 cc3d a4f1 64bd 365c cc3d 984e cfbc
00000130: 8469 2abd f88d 3d3d 3226 9cbd d2d5 ee3d
00000140: 9ce3 643d 402e 5cbc 383f 29bd e835 febc
00000150: 986a 283d 84dc 50bd 44c6 613d 50ac 883c
00000160: c085 b1bd 3668 d43d d8c5 e63d a8cf 6d3d
00000170: 422a b63d 3ccd 91bd 5ea0 bcbd 281d ddbd
00000180: 882c 8ebc 246c e6bd d440 abbd 84c6 583d
00000190: e085 cb3c 5cd9 2c3d 88c1 d63d 70aa 203d
000001a0: 3ed1 c23d f04c 9dbc f077 c5bd d867 b3bc
000001b0: 2011 38bc 80af abba 3ece a23d 48b8 7ebd
000001c0: 4462 0e3d 20a6 e5bd 1c97 c9bd 6c5f e7bd
000001d0: 54b8 8dbd 007d 28ba 007c 07b9 a4fc 48bd
000001e0: b0d0 26bc 9e76 fbbd b260 a33d a854 61bd
000001f0: d08d 6f3d 801a cebb 4060 053c f086 4e3c
00000200: e8ba 593d 66b1 f6bd 9826 4dbd e897 f13d
00000210: acc2 253d fab4 bbbd 90da 793c a8db c1bc
00000220: a23d c73d e68c b5bd 382e a43c 8069 8f3c
00000230: 20d5 443c 7496 4ebd 5457 493d b4dd 03bd
00000240: 7848 243d 4249 f4bd bc57 1bbd 40d6 75bd
00000250: 1057 ac3d 9457 d33d 40a6 9b3c 168a bbbd
00000260: 784e b5bc e814 b93c 004c 41bc 481f f73c
00000270: 1c7e b1bd 8ce9 a8bd 9280 a23d 0003 9ebb
00000280: 6c3a 24bd c8c8 9ebc d409 febd 7671 d03d
00000290: 8eff db3d f003 cfbd f2c7 ba3d a871 eabd
000002a0: 5886 64bd f4e8 353d e416 e9bd a2e2 acbd
000002b0: 3099 55bd 2a5b cebd c6b2 89bd 041b a13d
000002c0: 5028 20bd a8d2 b4bc 20a6 4d3c 388f 563d
000002d0: 9434 2f3d 9cad de3d 46ee d7bd 5c6e 81bd
000002e0: ccb6 05bd c6a8 98bd ccef 15bd 0c3f df3d
000002f0: 102f 27bd bac2 9fbd 28e7 82bc 60e8 dabd
00000300: 30c7 3c3c 809e 8bbb d2e8 ce3d 1461 153d
00000310: 8030 d6bc e0cb a8bc 3832 e33d 066c dbbd
00000320: 6097 883d a25d d93d 10bb 38bd 10b2 02bc
00000330: 80ad f33c 40dc 3fbd 02c6 a33d 309e e23d
00000340: 78ae 80bd 70f7 5c3d a480 bf3d 1224 f53d
00000350: 44fb 74bd 467f 9a3d ae39 f1bd c0c2 703b
00000360: 5a9d a43d 921b f0bd 8079 0a3d dcce 6cbd
00000370: 1883 78bd f483 5abd fcd7 bb3d 00db f53d
00000380: d8ee d2bc 5652 8b3d e0fc e8bd 8819 2f3d
00000390: ec21 d3bd 3041 36bd 0811 52bd 5817 ef3d
000003a0: e447 a13d 3011 f2bd 60a8 93bb 1c71 56bd
000003b0: f2e3 eabd 52bd 843d 4024 773b b45c d0bd
000003c0: 3ae0 a1bd 0089 cabb 6000 46bc 78eb a93c
000003d0: 046e 9c3d 00f8 633c 5a24 a83d e09f 9e3c
000003e0: a48d 22bd ecce 23bd 7a37 d63d 0842 8cbd
000003f0: 3cb1 5b3d 1440 fa3d 0491 af3d 52a0 cd3d

lstm.bias_hh_l0 f4 [256]
0.05471152 -0.12406236 -0.02285783 -0.081990436 0.10778679 -0.012493685 0.036285803 0.048881754
-0.10240731 -0.025763214 -0.035834625 -0.08338219 -0.09217444 -0.10274635 -0.11131039 -0.060422316
-0.0680546 0.07100785 0.0008945167 -0.04767242 -0.05158697 -0.0910576 -0.071555346 -0.036840722
0.071614414 0.109387815 0.10610996 0.022789687 0.08422518 -0.05690019 -0.08761951 -0.09642327
0.07344273 -0.01308696 -0.0008313358 -0.1060175 0.07884988 -0.07398185 0.09456237 -0.0662263
0.01162146 -0.03895873 -0.018017024 0.047223076 0.09051669 -0.019096762 0.0075186193 0.007194981
0.0522269 0.029536813 0.048959687 -0.09880413 0.09088142 -0.027093813 -0.123704344 -0.081453905
-0.063589364 0.055526063 0.0041371584 -0.05827123 0.09609577 -0.12165955 -0.019092366 0.02977109
0.074406 0.023512006 -0.11582215 0.064788446 -0.049391314 0.10777111 0.112232834 -0.05912617
-0.013786033 0.0015431345 -0.012628719 -0.086667806 -0.11348708 0.068640694 0.06952284 0.06367579
0.08847237 -0.108323365 0.12110585 -0.03895098 0.08681841 -0.06998232 0.018580914 0.1194101
-0.008288756 -0.028821945 -0.02355361 -0.09858066 0.062427387 0.05913362 -0.05744925 0.08162223
-0.09638077 -0.112387985 0.053443998 0.062149107 -0.08809321 0.046493784 -0.06940599 -0.08691877
-0.05300562 0.122495756 0.065127045 -0.017511487 -0.07042557 0.11631799 0.085668355 0.04707457
0.11647697 -0.023840278 -0.009468362 0.052842647 -0.060545817 -0.10611282 -0.11163081 0.049514785
-0.050189987 0.04424332 0.0019527376 0.059626654 -0.105373785 0.017073542 -0.013969287 -0.026849583
0.017374054 -0.03137438 0.071370095 -0.08433272 0.083027884 0.03261277 -0.108820856 -0.02677761
0.020532817 0.10509682 -0.07011147 -0.09540805 -0.1173978 -0.10693489 0.11840479 -0.07506405
0.0442978 -0.05525279 -0.015790358 0.10417649 0.021309614 -0.12395409 0.0865574 -0.06479509
-0.056687504 0.075347796 -0.06336866 0.086849734 0.11749965 -0.038988754 -0.00805746 -0.012016818
0.042128354 0.029347375 0.059481695 0.037603617 -0.0142418295 -0.05400054 0.121628225 0.07676034
0.023702726 -0.12333003 -0.02879262 -0.10548887 -0.07936379 -0.12246239 0.05038406 -0.045475185
-0.08952296 0.07653399 -0.0024068207 0.06477949 -0.090889186 0.07984565 0.033356234 0.064154625
-0.10955407 -0.07742545 -0.017520398 0.024964571 -0.086616725 0.111188024 0.09225458 0.039169803
-0.09293279 -0.118887976 0.029422238 -0.102188826 -0.06495473 0.12279242 -0.090085685 0.10244994
-0.0217866 -0.0722298 0.0070335865 0.020905003 -0.091796905 0.07449083 -0.040634483 -0.0020331591
0.10331021 -0.100851536 0.07627429 -0.080052346 -0.104191616 0.054740936 0.03399831 0.024393275
0.03019911 -0.030065551 0.10588768 -0.110297635 0.08992688 0.03888075 -0.1138145 0.033539996
-0.117252156 0.006272331 0.08247055 -0.071073204 0.02778183 -0.0581526 0.1029944 0.12045732
0.012000829 -0.06844178 -0.083488464 0.042248964 0.06297526 0.08639264 0.09768739 -0.11495918
-0.027882755 0.03890094 -0.09796503 -0.095594704 0.09192997 0.123357385 -0.01824765 -0.12241538
0.0441819 0.07894455 0.107969195 -0.089888826 0.064704955 -0.038725495 0.029716402 -0.056141615
00000000: 3019 603d 6814 febd 5840 bbbc 9aea a7bd
00000010: 52bf dc3d 50b2 4cbc 6ca0 143d 3c38 483d
00000020: ecba d1bd 600d d3bc 54c7 12bd 48c4 aabd
00000030: f4c5 bcbd ae6c d2bd b4f6 e3bd 647d 77bd
00000040: 3660 8bbd 906c 913d 007e 6a3a 2844 43bd
00000050: dc4c 53bd 687c babd 9c8b 92bd 4ce6 16bd
00000060: 94aa 923d b806 e03d 2e50 d93d 70b1 ba3c
00000070: 407e ac3d 2c10 69bd dc71 b3bd 9079 c5bd
00000080: 2469 963d b06a 56bc 00ee 59ba b41f d9bd
00000090: 0c7c a13d cc83 97bd eaa9 c13d a8a1 87bd
000000a0: f067 3e3c 3093 1fbd 7098 93bc fc6c 413d
000000b0: d060 b93d d070 9cbc c05e f63b e0c3 eb3b
000000c0: e0eb 553d 30f7 f13c f489 483d d259 cabd
000000d0: 0a20 ba3d d8f3 ddbc b458 fdbd 4ed1 a6bd
000000e0: 243b 82bd 4c6f 633d 0091 873b d0ad 6ebd
000000f0: dccd c43d a428 f9bd 9867 9cbc 80e2 f33c
00000100: 2c62 983d 409c c03c 2a34 edbd ceaf 843d
00000110: 8c4e 4abd 1ab7 dc3d 54da e53d 482e 72bd
00000120: d0de 61bc 0043 ca3a b0e8 4ebc e47e b1bd
00000130: ea6b e8bd 7e93 8c3d fe61 8e3d 7468 823d
00000140: 0031 b53d a4d8 ddbd 5806 f83d 108b 1fbd
00000150: dacd b13d e452 8fbd 0037 983c 488d f43d
00000160: 90cd 07bc 001c ecbc 80f3 c0bc a8e4 c9bd
00000170: dcb3 7f3d 1836 723d e84f 6bbd 8e29 a73d
00000180: 4863 c5bd ac2b e6bd 18e8 5a3d 1090 7e3d
00000190: 366a b4bd 4470 3e3d ba24 8ebd 7802 b2bd
000001a0: 6c1c 59bd 0edf fa3d 5461 853d 4074 8fbc
000001b0: 483b 90bd 2038 ee3d e472 af3d 44d1 403d
000001c0: 7a8b ee3d b04c c3bc 3021 1bbc 8871 583d
000001d0: e4fe 77bd ae51 d9bd b29e e4bd 04d0 4a3d
000001e0: 0494 4dbd 7c38 353d 00f3 ff3a 143b 743d
000001f0: 36ce d7bd d0dd 8b3c 70df 64bc a8f3 dbbc
00000200: 0854 8e3c 6c82 00bd 7c2a 923d a2b6 acbd
00000210: 860a aa3d f894 053d 78dd debd b85c dbbc
00000220: 7034 a83c 003d d73d 9a96 8fbd 4c65 c3bd
00000230: 426e f0bd ae00 dbbd 367e f23d 2ebb 99bd
00000240: 9c71 353d c050 62bd c85a 81bc 7c5a d53d
00000250: 8091 ae3c a4db fdbd 0245 b13d 4ab3 84bd
00000260: 2831 68bd f24f 9a3d 6ec7 81bd 46de b13d
00000270: a8a3 f03d acb2 1fbd 7003 04bc 30e2 44bc
00000280: c88e 2c3d e869 f03c 14a3 733d 4006 1a3d
00000290: 9056 69bc ac2f 5dbd 3818 f93d 8634 9d3d
000002a0: 382c c23c 7494 fcbd 80de ebbc 8c0a d8bd
000002b0: 7c89 a2bd 90cd fabd 845f 4e3d 3044 3abd
000002c0: d057 b7bd dabd 9c3d c0bb 1dbb 1cab 843d
000002d0: 1c24 babd 1e86 a33d 8ca0 083d 8063 833d
000002e0: e25d e0bd 3c91 9ebd f086 8fbc 8082 cc3c
000002f0: 1c64 b1bd 8cb6 e33d f8ef bc3d 8470 203d
00000300: 8c53 bebd 8a7b f3bd e806 f13c 6048 d1bd
00000310: fc06 85bd 987a fb3d d87e b8bd 46d1 d13d
00000320: d079 b2bc 38ed 93bd 007a e63b f840 ab3c
00000330: 0400 bcbd a68e 983d 5870 26bd c03e 05bb
00000340: 4e94 d33d 408b cebd b235 9c3d 7cf2 a3bd
00000350: 6a62 d5bd 0838 603d d041 0b3d 68d4 c73c
00000360: 2064 f73c 084c f6bc a4db d83d bae3 e1bd
00000370: 962b b83d 6c41 1f3d 9417 e9bd 3c61 093d
00000380: e621 f0bd 2088 cd3b 52e6 a83d d48e 91bd
00000390: b896 e33c 6c31 6ebd baee d23d 54b2 f63d
000003a0: 209f 443c 342b 8cbd 00fc aabd 400d 2d3d
000003b0: 2cf9 803d a0ee b03d 5410 c83d b86f ebbd
000003c0: 606a e4bc 9856 1f3d e4a1 c8bd 28c7 c3bd
000003d0: c845 bc3d cca2 fc3d 187c 95bc eab4 fabd
000003e0: 14f8 343d aead a13d f41e dd3d a217 b8bd
000003f0: 0884 843d a09e 1ebd d06f f33c c0f4 65bd

fc.weight f4 [2, 64]
0.06800613 0.030601948 -0.07552156 -0.016799524 -0.10309368 0.052906126 0.09048593 0.043281674
-0.0575988 -0.0067510307 -0.07033773 -0.0016397387 -0.040896043 -0.113360375 -0.014140382 -0.017828733
-0.09818815 -0.11046362 0.04724917 0.03511624 0.049889147 -0.03922753 0.10555749 -0.113465786
-0.09851262 -0.066258565 0.018081278 -0.12089689 0.026303649 -0.067649245 0.005481437 -0.03981
-0.06623888 -0.07207115 -0.07195149 -0.10364559 0.06741288 0.013948575 0.04504457 -0.10317713
0.109779984 0.0007928461 -0.0875984 -0.120524496 -0.053413957 -0.062248915 0.030215561 -0.10330728
-0.10012701 0.01164791 0.09830096 0.050658047 -0.05398698 0.059490517 0.014805004 0.050916597
0.009113699 -0.08328177 -0.052633137 -0.025154829 -0.121384025 0.015185967 -0.068716496 -0.08989641
0.036851868 -0.013332605 -0.0021229684 -0.025392503 0.053911746 -0.08175081 -0.062316984 0.05139008
0.0052346885 0.03803307 0.11148913 -0.030079648 0.03486839 -0.08699064 0.10908818 -0.08877574
0.082527205 0.049901426 -0.046580985 -0.0058207363 -0.09084372 -0.12090379 -0.01584521 0.093585014
6.15716e-05 0.07419564 0.025833577 0.07910246 0.0776322 0.0033081323 0.05954796 0.10169344
-0.04132384 -0.025259018 -0.06079656 0.05321136 -0.0037905872 -0.06284277 0.030500993 -0.07423025
0.060170546 0.03705959 0.07117972 0.050095394 0.067086354 0.066183925 0.027081683 -0.08187693
0.003428802 0.04808691 0.108737856 -0.0401956 0.072604895 -0.10687862 0.0093100965 0.07313371
0.024459645 0.007421732 -0.093794286 -0.1163705 0.089329585 0.06875688 -0.11692242 0.010271281
00000000: cc46 8b3d f0b0 fa3c 0cab 9abd 289f 89bc
00000010: c822 d3bd 18b4 583d b050 b93d 2048 313d
00000020: b8ec 6bbd c037 ddbb 3a0d 90bd 80ec d6ba
00000030: 9c82 27bd 7c29 e8bd 10ad 67bc 900d 92bc
00000040: de16 c9bd c03a e2bd 5888 413d 0cd6 0f3d
00000050: 9058 4c3d 0cad 20bd 862e d83d c060 e8bd
00000060: fcc0 c9bd 92b2 87bd 301f 943c ca98 f7bd
00000070: c07a d73c b08b 8abd a09d b33b d00f 23bd
00000080: 40a8 87bd 0a9a 93bd 4e5b 93bd 2444 d4bd
00000090: c40f 8a3d 9088 643c a880 383d 884e d3bd
000000a0: 54d4 e03d 00d7 4f3a ca66 b3bd 8cd5 f6bd
000000b0: 98c8 5abd b8f8 7ebd a086 f73c c492 d3bd
000000c0: 640f cdbd e0d6 3e3c 0452 c93d d07e 4f3d
000000d0: 7421 5dbd 54ac 733d b090 723c ec8d 503d
000000e0: a051 153c a28f aabd d895 57bd 8011 cebc
000000f0: 3098 f8bd 90ce 783c 3cbb 8cbd 9c1b b8bd
00000100: fcf1 163d 0071 5abc 8021 0bbb f003 d0bc
00000110: 90d2 5c3d f86c a7bd 1840 7fbd 687e 523d
00000120: c087 ab3b 90c8 1b3d 6a54 e43d 9869 f6bc
00000130: 28d2 0e3d 2628 b2bd a069 df3d 0ed0 b5bd
00000140: 0604 a93d 7065 4c3d b4cb 3ebd e0bb bebb
00000150: 460c babd 689c f7bd d0cd 81bc 80a9 bf3d
00000160: 0020 8138 e2f3 973d f0a0 d33c 7800 a23d
00000170: a2fd 9e3d 40cd 583b 90e8 733d a644 d03d
00000180: 3043 29bd 00ec cebc d005 79bd 28f4 593d
00000190: 806b 78bb b6b3 80bd 38dd f93c 0806 98bd
000001a0: 6475 763d cccb 173d acc6 913d d430 4d3d
000001b0: 9264 893d 708b 873d 68da dd3c 18af a7bd
000001c0: c0b5 603b c8f6 443d f4b1 de3d 24a4 24bd
000001d0: e0b1 943d 2ee3 dabd 6089 183c 20c7 953d
000001e0: 985f c83c 0032 f33b 3817 c0bd a853 eebd
000001f0: 6ef2 b63d 68d0 8c3d 0675 efbd e048 283c

fc.bias f4 [2]
0.07406828 0.036576822
00000000: 1cb1 973d 94d1 153d
