src/movement_models/model_samplesize_325_20241108_130016.pth (torch_old, 226465 bytes, 18 tensors)

exp_avg_sq f4 [256]
00000000: c5b5 3731 8c7d 0532 919e b42e fd59 8231
00000010: a20e 8431 f1a4 2e31 362a 8330 e977 0f2e
00000020: 7329 c32d da1f c52e dc1a 162f bf13 c131
00000030: 419a e22f 15a3 db2e c4bf d62f 75e7 4c31
00000040: 1677 b02e fc06 7e2f 888c 812f 3f20 fb2f
00000050: dc93 102e d1a7 b430 2149 b12d 7518 ac31
00000060: c25e 422f f0b2 4c30 f23f 2331 04e9 8630
00000070: 176f 9031 86e3 a32f a3ae b730 9581 262e
00000080: c608 ad2d fdb4 6c30 f55f 372f 4321 062f
00000090: 8f93 e42d 32cc 8130 1e32 8730 d73b 442f
000000a0: c53e ef31 be09 8830 e580 6831 1741 232f
000000b0: 0330 ae2e 279a f330 429e bd2f fee8 872e
000000c0: ca09 9c2f 3e8c 7331 7a8a d531 c33c 9f32
000000d0: b0d7 d930 f76b 522f 4371 bb31 3fe1 7631
000000e0: d167 7d32 e043 8b30 0c76 ba2f ddcc a331
000000f0: c16f 2131 7954 cc30 699b cf2d 0186 1d32
00000100: da9c 9830 0490 2732 e2ad ad2e 0e6d 6431
00000110: c399 4731 fe09 0731 388f dc30 c743 c62d
00000120: bf7f f02d 1b2d fc2e c8cc eb2e 70b5 ba31
00000130: 0071 4d30 4aae 092f a316 882f 3c1a 5431
00000140: e2bf d92e d988 192f fcc7 972f 4dee df2f
00000150: 6724 7d2d 61a5 9830 7be2 272d d6b5 ed31
00000160: a036 f42e e447 7730 7fe8 fa30 73f5 8730
00000170: 5ed3 8a31 034a c62f efa5 9e30 689d a02d
00000180: 2108 bd2d 17a5 8c30 0379 422f 2dd8 fe2e
00000190: 8639 b02d fa69 8d30 17a3 3630 bfb7 cf2e
000001a0: d861 dc31 0fed 8130 ff5f 7631 68d8 bf2e
000001b0: 7f19 122e 231c d030 72fb ba2f 2cad a12e
000001c0: 54c0 c52f d954 6731 e792 a431 3cef 5332
000001d0: 1b83 8530 7820 cf2f a413 a731 4fb8 5a31
000001e0: 61dc 9d32 5674 8c30 b989 c02f f0ec a731
000001f0: b957 0031 c125 bc30 b5c2 6f2d e5eb 3932
00000200: f226 0535 f62c 9635 5464 af34 02c5 8535
00000210: 48a5 3c35 d574 0035 479c 2d36 b056 1934
00000220: 501a 2633 dff8 2d34 2ed6 7534 434c db35
00000230: 6c67 c935 491d 8633 6ece 8b34 d1e8 b235
00000240: d14d 9533 1d8e 0933 090d 1935 1426 8b33
00000250: 19cf 4a33 e7f9 c334 efda d231 a9c4 9e35
00000260: 10fb 1d35 8f10 ba35 b522 8335 412d 7134
00000270: 7184 7335 2ac7 8a35 e7d8 3f34 3a15 d633
00000280: 2e17 d333 3b6a b134 87a1 5033 f83e 4c34
00000290: 82a9 1934 d910 a734 ce6a 0635 1338 de33
000002a0: 2980 6f35 ed3c 1a35 7a18 ef34 fde9 9e34
000002b0: 06f3 3533 85da e734 f28d 0e35 f1ef 8134
000002c0: ab87 a835 8714 8c34 b4b3 6435 a146 3335
000002d0: e0a1 6835 6d54 7f35 33a2 cb35 6f23 8d35
000002e0: 50b8 bd35 6d3e af33 506a 1c34 097d 3635
000002f0: 4257 f234 30af f534 4098 1c33 13a2 4a35
00000300: ea5d f430 e720 ce31 15fb d62e 120a 5c31
00000310: 008b 3c31 8401 f530 4084 8f30 6f0f 252e
00000320: 1346 f22d 1563 a32e a251 2b2f 2e58 a131
00000330: e467 ad2f 649f 292f 8eea da2f 9a50 8131
00000340: f87c d72e b91f 422f 0995 6b2f 986f 4930
00000350: b56f 102e 4595 9e30 5590 b62d 07b3 1532
00000360: a86b 2d2f c1f5 7530 657d 2631 d897 a630
00000370: d2a4 7f31 cb23 7c2f b166 f330 3df2 262e
00000380: 890d f12d 7432 8130 9ff8 792f b157 d22e
00000390: cae2 082e a3f4 9130 9296 5e30 ab82 472f
000003a0: f1ce d831 3048 6d30 5f78 4f31 63d1 182f
000003b0: 9ae4 a62e 809d 1031 756e d72f 4371 b62e
000003c0: 180d 532f a9fa 9d31 61df dd31 1c31 a832
000003d0: 81a7 9e30 bed2 692f 51ea a931 778a 3e31
000003e0: 970e 9632 e5d2 8d30 6c59 0130 6c1b 0632
000003f0: a482 2f31 7a50 aa30 28ac fc2d 6aa8 2f32
2.6733329e-09 7.770165e-09 8.2136194e-11 3.7937284e-09 3.843369e-09 2.541409e-09 9.543502e-10 3.2620937e-11
2.218734e-11 8.964181e-11 1.3651963e-10 5.619284e-09 4.1218765e-10 9.987936e-11 3.906263e-10 2.9817475e-09
8.024707e-11 2.3103647e-10 2.3564817e-10 4.5679546e-10 3.2873135e-11 1.314442e-09 2.0155046e-11 5.0086393e-09
1.7677862e-10 7.4469053e-10 2.375597e-09 9.81601e-10 4.203581e-09 2.9811192e-10 1.3364637e-09 3.7859122e-11
1.9671719e-11 8.61135e-10 1.6677844e-10 1.2199046e-10 2.5986128e-11 9.444021e-10 9.836787e-10 1.7847356e-10
6.9629515e-09 9.898071e-10 3.3833711e-09 1.4847888e-10 7.9211325e-11 1.772439e-09 3.449135e-10 6.180477e-11
2.838319e-10 3.5440872e-09 6.214859e-09 1.8537667e-08 1.585013e-09 1.9137746e-10 5.4552927e-09 3.592575e-09
1.4750143e-08 1.0132872e-09 3.391708e-10 4.7672146e-09 2.3492108e-09 1.4866962e-09 2.3602191e-11 9.169072e-09
1.1104035e-09 9.753425e-09 7.898017e-11 3.3240357e-09 2.9045715e-09 1.9650765e-09 1.6047812e-09 2.2540093e-11
2.7341572e-11 1.14676456e-10 1.0722939e-10 5.4339395e-09 7.473915e-10 1.2521997e-10 2.475434e-10 3.0864973e-09
9.902103e-11 1.3963887e-10 2.7608837e-10 4.0732787e-10 1.4389468e-11 1.1106459e-09 9.54314e-12 6.91828e-09
1.1105539e-10 8.996024e-10 1.8255973e-09 9.892304e-10 4.0403583e-09 3.606858e-10 1.1543174e-09 1.8259796e-11
2.1490422e-11 1.0233262e-09 1.7687189e-10 1.1588983e-10 2.0034429e-11 1.0289221e-09 6.644298e-10 9.44591e-11
6.4139662e-09 9.453361e-10 3.585228e-09 8.724116e-11 3.32192e-11 1.5141989e-09 3.4011866e-10 7.352194e-11
3.5970749e-10 3.3663154e-09 4.789729e-09 1.2336212e-08 9.714286e-10 3.767615e-10 4.8625726e-09 3.1827943e-09
1.8377422e-08 1.0219405e-09 3.5022454e-10 4.8872764e-09 1.8676316e-09 1.3689531e-09 1.3628811e-11 1.08220535e-08
4.9603034e-07 1.1188956e-06 3.2669288e-07 9.966609e-07 7.0275973e-07 4.785373e-07 2.5869974e-06 1.4280772e-07
3.8673818e-08 1.620242e-07 2.2895321e-07 1.6338967e-06 1.5005767e-06 6.245188e-08 2.6040965e-07 1.3329792e-06
6.952508e-08 3.202705e-08 5.701591e-07 6.479618e-08 4.7220144e-08 3.6503408e-07 6.1366943e-09 1.1829153e-06
5.88524e-07 1.3862899e-06 9.770362e-07 2.2461337e-07 9.071728e-07 1.0339766e-06 1.786717e-07 9.9690126e-08
9.8296695e-08 3.3046112e-07 4.8575682e-08 1.9021888e-07 1.4310902e-07 3.1118432e-07 5.007431e-07 1.03478804e-07
8.9220936e-07 5.745813e-07 4.4535028e-07 2.9600042e-07 4.2363375e-08 4.3186097e-07 5.310568e-07 2.4202703e-07
1.255646e-06 2.6091968e-07 8.519812e-07 6.6785475e-07 8.6662294e-07 9.511776e-07 1.5171885e-06 1.0515631e-06
1.4135239e-06 8.160428e-08 1.4567308e-07 6.7982234e-07 4.51395e-07 4.5762272e-07 3.646005e-08 7.5486713e-07
1.7780029e-09 5.9991296e-09 9.7761944e-11 3.2019938e-09 2.7436613e-09 1.7826527e-09 1.0442207e-09 3.7530364e-11
2.7543334e-11 7.429982e-11 1.5581361e-10 4.6957416e-09 3.1542335e-10 1.5427087e-10 3.982063e-10 3.7635575e-09
9.799267e-11 1.7655467e-10 2.1426073e-10 7.328196e-10 3.2841025e-11 1.1538438e-09 2.07551e-11 8.713648e-09
1.5772506e-10 8.947972e-10 2.4227458e-09 1.2121246e-09 3.7201073e-09 2.2931983e-10 1.7709764e-09 3.795918e-11
2.7404539e-11 9.400325e-10 2.2734746e-10 9.5652715e-11 3.112425e-11 1.0619668e-09 8.0977103e-10 1.8145367e-10
6.309954e-09 8.632268e-10 3.0190888e-09 1.3898709e-10 7.589414e-11 2.1044286e-09 3.9186757e-10 8.296521e-11
1.919499e-10 4.597798e-09 6.4573418e-09 1.9580106e-08 1.154362e-09 2.1266097e-10 4.945186e-09 2.7727347e-09
1.7468933e-08 1.031904e-09 4.7057e-10 7.806062e-09 2.5540112e-09 1.2392001e-09 2.8725536e-11 1.0224634e-08

exp_avg f4 [256]
00000000: 7eca 3b36 2f76 0e38 5902 1fb6 15b6 0db7
00000010: ec54 9736 0877 ca36 d81b 16b8 3724 df34
00000020: ead0 a5b5 db4a c3b6 7eb5 89b6 8dd2 1db8
00000030: faa0 07b7 41c9 5533 8613 0435 e45d 0c38
00000040: fe1b 4bb5 0b68 0034 d4b0 50b7 b6c1 9bb4
00000050: d9b6 23b6 ab65 f536 ab41 4635 e232 18b7
00000060: 083e 9eb6 1705 9f36 aeb1 0eb7 46bb 5236
00000070: 1da3 d137 8681 fdb7 2046 1037 8487 7e35
00000080: d4d9 b634 da0c d136 b1c7 b0b4 6b24 adb6
00000090: b16b 4935 7a7b c8b6 6e19 1cb6 936f 3735
000000a0: 9726 9637 d37a 94b7 feec 3837 4c9b 8eb6
000000b0: 331f 4bb6 ddf4 99b5 1c01 d7b6 b8d3 3ab6
000000c0: d7fc cbb3 a21e 9c37 fed2 b0b7 394b 88b7
000000d0: 3ee4 b0b7 7e9a 9eb5 0753 7bb6 a5de 3a37
000000e0: aa3f 1638 177b b0b5 12e3 c435 797b d1b5
000000f0: 82b2 a137 de5a 0d37 fac4 93b5 dccd 0c38
00000100: 51ab cf35 584c 0d38 dd9e 04b6 f453 f1b6
00000110: 449b 8d36 cbc9 a336 cf58 19b8 92c1 9a34
00000120: 922e d4b5 9e79 a8b6 0073 52b6 6f1c 07b8
00000130: 45f5 45b7 7a46 1d34 9037 e035 0743 0138
00000140: af4b 92b4 74d2 6033 2bca 42b7 d30d 8db4
00000150: 0af8 03b6 1eed cd36 b449 0c35 7d36 11b7
00000160: bc4b b0b6 ad80 9a36 8dfb e4b6 a87e 1136
00000170: 843a b537 d797 e0b7 9bf7 0837 0a23 4135
00000180: d500 a534 ac91 c036 381f bfb4 d5ca 75b6
00000190: c242 4a35 c8b4 b4b6 912c 1ab6 ebde 6734
000001a0: 7409 8437 6e0d 5ab7 58c8 3437 0db6 85b6
000001b0: dc34 8eb5 49ad 8eb5 471d b5b6 7c92 15b6
000001c0: 994b bb33 7f94 8f37 3d63 8ab7 fdc9 59b7
000001d0: 9442 6eb7 273a 85b5 a0b5 63b6 681c 1737
000001e0: 56c4 1638 5526 deb4 05a3 a735 b659 beb5
000001f0: 40f3 8937 7246 0237 0bb2 90b5 4b8b 0c38
00000200: 6448 fdb7 5d03 04ba da38 1339 7cbf b739
00000210: 0161 5bb8 0ea5 6639 ffbd 973a 8af8 1e37
00000220: c251 9d38 2575 4db9 bec6 2d39 3a1e 1bba
00000230: a96e 443a 8cf2 dab7 7f50 65b7 ea6c e2b9
00000240: 19cb 04b9 0c91 7c38 94b5 fd39 c2d7 d337
00000250: f6e9 cdb8 81b6 fd38 b6ad 1a38 93e9 9cb9
00000260: 9e92 9839 e933 8239 1add 3439 c5a3 0339
00000270: eadd b3b9 7aac 603a 27da b438 ef2b a9b8
00000280: 70e4 2037 889e 5739 7558 be38 c4d1 45b9
00000290: be7e edb7 89b1 a2b8 9856 b138 370d 9738
000002a0: 2796 bdb9 7efd cf39 cc80 8c39 f457 5639
000002b0: b4cd deb8 45e6 0e38 68af dab9 847c d4b8
000002c0: 3e24 c8b9 d6e5 8139 80cf b839 edde f038
000002d0: 31a4 c439 eb98 e939 2741 1939 0727 a4b9
000002e0: cf69 063a 51e8 10b9 1e55 9bb8 955e 6cb8
000002f0: fd6b 3939 5ed3 9fb9 e329 9938 959d e5b9
00000300: b64a 1f36 e8d9 0238 a44f 28b6 54c8 f7b6
00000310: d273 7536 6751 a136 7226 1ab8 1030 f534
00000320: fbc5 b4b5 501e b0b6 1c78 92b6 d994 0eb8
00000330: 1e3a e2b6 5a41 9633 3f30 0a35 e127 1c38
00000340: b56d 57b5 f6d0 d633 8590 43b7 4128 a7b4
00000350: 4dd3 22b6 58ba e236 68fa 4c35 09a8 3bb7
00000360: 8483 95b6 d707 ae36 f5cf 0ab7 3644 6436
00000370: 138c c137 f57d dab7 c2b1 2337 a4bc 7735
00000380: 9b10 d434 6063 d636 f756 c6b4 e4dc 9ab6
00000390: e0da 5c35 bddd cab6 0cfc 0eb6 af26 3735
000003a0: 4917 9b37 8708 8ab7 0929 2437 3b90 88b6
000003b0: f548 49b6 de96 aeb5 964b d7b6 e591 52b6
000003c0: 1139 8bb2 9f4d b237 cc2b b3b7 af71 86b7
000003d0: 4c6d 96b7 d0e4 b5b5 8b51 74b6 56bd 1f37
000003e0: 2ef8 1538 68ff b8b5 e491 e035 ec92 e1b5
000003f0: c7d3 ad37 2ed1 0337 c35f a3b5 ce92 0738
2.7983037e-06 3.3965505e-05 -2.3694213e-06 -8.446649e-06 4.510037e-06 6.033926e-06 -3.578872e-05 4.1563337e-07
-1.235426e-06 -5.820167e-06 -4.1040466e-06 -3.7627808e-05 -8.084107e-06 4.9775966e-08 4.920224e-07 3.3466044e-05
-7.5664127e-07 1.195878e-07 -1.2438937e-05 -2.9011943e-07 -2.4395324e-06 7.3134047e-06 7.385631e-07 -9.071753e-06
-4.7159883e-06 4.739162e-06 -8.505229e-06 3.1401446e-06 2.4990697e-05 -3.0220264e-05 8.599396e-06 9.4819575e-07
3.4058633e-07 6.2301815e-06 -3.292785e-07 -5.1600414e-06 7.5035047e-07 -5.974839e-06 -2.3260613e-06 6.8335174e-07
1.7899363e-05 -1.770017e-05 1.1022434e-05 -4.2500087e-06 -3.0267518e-06 -1.1470653e-06 -6.4076285e-06 -2.7839396e-06
-9.4989154e-08 1.8610914e-05 -2.1079086e-05 -1.6247492e-05 -2.1087119e-05 -1.181688e-06 -3.7450243e-06 1.1138302e-05
3.582208e-05 -1.3148846e-06 1.4669224e-06 -1.5607649e-06 1.927582e-05 8.425412e-06 -1.1009681e-06 3.3570323e-05
1.5472561e-06 3.368812e-05 -1.9762003e-06 -7.192133e-06 4.2202028e-06 4.8812703e-06 -3.6560752e-05 2.8825576e-07
-1.5808785e-06 -5.0209483e-06 -3.1359377e-06 -3.221299e-05 -1.1799221e-05 1.4647404e-07 1.6705471e-06 3.081842e-05
-2.7249686e-07 5.234547e-08 -1.1610372e-05 -2.6273355e-07 -1.96649e-06 6.13708e-06 5.2261316e-07 -8.65536e-06
-5.2540254e-06 4.6045375e-06 -6.824214e-06 2.1680407e-06 2.160413e-05 -2.6773587e-05 8.163882e-06 7.194909e-07
3.073425e-07 5.7390043e-06 -3.5599237e-07 -3.6625909e-06 7.534801e-07 -5.3854637e-06 -2.297373e-06 2.1594649e-07
1.5740028e-05 -1.2996939e-05 1.0775482e-05 -3.9849024e-06 -1.0595209e-06 -1.0630257e-06 -5.3976287e-06 -2.2287995e-06
8.721617e-08 1.7116077e-05 -1.6497093e-05 -1.2981237e-05 -1.4201407e-05 -9.926197e-07 -3.3931356e-06 9.006915e-06
3.594564e-05 -4.1378613e-07 1.2489915e-06 -1.4182212e-06 1.6444945e-05 7.765006e-06 -1.0780653e-06 3.3508328e-05
-3.019366e-05 -0.00050359016 0.00014040191 0.00035047147 -5.230401e-05 0.00021995997 0.0011577009 9.475401e-06
7.501572e-05 -0.00019593963 0.00016572603 -0.0005917285 0.0007493296 -2.610057e-05 -1.3668206e-05 -0.00043187226
-0.00012664161 6.0216567e-05 0.00048391207 2.525363e-05 -9.81874e-05 0.00012097974 3.6878242e-05 -0.00029928665
0.00029100938 0.00024834208 0.00017248504 0.00012554142 -0.0003430688 0.0008570623 8.623703e-05 -8.066731e-05
9.58993e-06 0.00020563055 9.0763824e-05 -0.00018865528 -2.831162e-05 -7.7578305e-05 8.456147e-05 7.2027025e-05
-0.0003616076 0.00039670983 0.00026798842 0.00020441395 -0.000106241 3.4069893e-05 -0.00041710888 -0.000101321406
-0.00038173975 0.00024776038 0.00035249814 0.00011485615 0.00037506365 0.00044555156 0.00014615488 -0.00031309595
0.0005127461 -0.00013819455 -7.40683e-05 -5.635487e-05 0.00017683204 -0.00030484324 7.3034105e-05 -0.0004379569
2.3736334e-06 3.1197356e-05 -2.5080308e-06 -7.384495e-06 3.6575261e-06 4.8076504e-06 -3.6752266e-05 4.5669776e-07
-1.3468665e-06 -5.2487376e-06 -4.3651216e-06 -3.3994063e-05 -6.7420906e-06 6.996807e-08 5.1479213e-07 3.723044e-05
-8.0253386e-07 1.0003161e-07 -1.1656554e-05 -3.1135463e-07 -2.4262874e-06 6.757018e-06 7.636031e-07 -1.1185192e-05
-4.4558565e-06 5.186517e-06 -8.27386e-06 3.4014352e-06 2.307262e-05 -2.6046278e-05 9.756945e-06 9.228918e-07
3.950016e-07 6.3892658e-06 -3.694365e-07 -4.6152727e-06 8.227489e-07 -6.045883e-06 -2.130636e-06 6.8229104e-07
1.8488283e-05 -1.6454853e-05 9.784716e-06 -4.0699065e-06 -2.99938e-06 -1.3007918e-06 -6.4162987e-06 -3.137736e-06
-1.620768e-08 2.1255399e-05 -2.1358857e-05 -1.6026983e-05 -1.7932289e-05 -1.3552144e-06 -3.6406298e-06 9.521222e-06
3.5755504e-05 -1.3783401e-06 1.673176e-06 -1.6806566e-06 2.0721824e-05 7.856912e-06 -1.2172317e-06 3.232323e-05

exp_avg_sq f4 [2]
00000000: 7891 c239 8ddf 8d39
0.00037110946 0.00027060174

exp_avg f4 [2]
00000000: a7a7 20bc 7e20 413b
-0.009805596 0.002946883

exp_avg_sq f4 [2, 64]
00000000: 8881 2735 494c 5236 e75a 3633 8fb2 7535
00000010: ec60 0d36 df2b d535 48f9 2034 9771 4e33
00000020: 5237 ec34 2fdc 6d34 d86c 0934 efb9 b535
00000030: 0856 0534 f23c 9e34 8fd4 a533 949c 9a35
00000040: 3641 9234 163e 6635 ac59 ef33 f7bb b035
00000050: 5990 7033 6c28 6235 36fb 6434 cc04 0336
00000060: 77d0 9333 fc0c 7a34 ec3e 7c35 5ba7 8335
00000070: ce44 c635 3e98 9c33 6842 0e36 d0eb 9133
00000080: 691b 2e34 9b16 8c35 82d0 4735 14e0 9e33
00000090: 0ce4 0233 1372 c135 50a4 9d34 0780 2c34
000000a0: b2bf 2636 f353 8134 3d97 4d36 2ad5 8633
000000b0: 062d 7234 f9aa 6935 7bcd 4e34 8624 5533
000000c0: 77e2 8434 51e6 3a36 19c9 0836 de41 8536
000000d0: 2414 9434 dc02 de33 4a9a 9f35 285a a035
000000e0: 90b7 8836 873b 1936 a513 2235 781a 3736
000000f0: ae8d 8335 24b2 1535 5789 9f33 afda 8436
00000100: 87c8 7734 0d79 1336 7b00 0e33 e09e 0035
00000110: a7ed 3935 d6a1 2735 9e01 5034 e203 0733
00000120: dff3 1534 20d7 4e33 f77f 9a34 b467 5735
00000130: 88e8 5f34 c851 9234 2a87 5b34 8562 8f35
00000140: a082 d434 a090 a134 5144 8333 aa49 d634
00000150: a263 3432 6d42 c934 e9bd be33 5751 9c35
00000160: c6b7 1334 69ab 6034 098b 9534 6db6 bb34
00000170: f172 9735 9e6a cd33 0d3b 8435 93df 3533
00000180: 0dcd 1933 72ca ac34 bd04 4334 fad6 9b33
00000190: 2a16 f531 7089 e734 373c 0d34 77fb 6633
000001a0: a6c0 f435 dd2a 0934 493a e135 4f77 c533
000001b0: d85d 2634 1066 a834 753c 5334 20f4 cd33
000001c0: 1bff 1434 b6b3 e735 4c90 8435 37c0 2936
000001d0: 5505 5a34 c3ed 5a33 3cfa 0835 86f3 e234
000001e0: 8f6e 4236 a7e9 5735 f439 6234 3e05 a935
000001f0: debf 2435 2624 ce34 4f88 ed32 12e6 2e36
6.240084e-07 3.1336842e-06 4.2457852e-08 9.152945e-07 2.1067053e-06 1.5882505e-06 1.4991849e-07 4.8066422e-08
4.3998676e-07 2.2152447e-07 1.2798716e-07 1.3539665e-06 1.2417888e-07 2.9474137e-07 7.7220754e-08 1.1519464e-06
2.7242066e-07 8.5772024e-07 1.1145616e-07 1.3167727e-06 5.6010638e-08 8.425038e-07 2.1325545e-07 1.9523313e-06
6.8831405e-08 2.3287788e-07 9.396888e-07 9.808967e-07 1.4772174e-06 7.292009e-08 2.1198302e-06 6.794983e-08
1.6214985e-07 1.0437392e-06 7.4436696e-07 7.398208e-08 3.047539e-08 1.441282e-06 2.9363082e-07 1.6065324e-07
2.484751e-06 2.4089204e-07 3.0635413e-06 6.2786356e-08 2.2554386e-07 8.704806e-07 1.9259998e-07 4.9626145e-08
2.475169e-07 2.7850222e-06 2.0382633e-06 3.971377e-06 2.7581802e-07 1.0338201e-07 1.1891327e-06 1.1947168e-06
4.0744853e-06 2.2833426e-06 6.037829e-07 2.7284532e-06 9.801495e-07 5.5766054e-07 7.4289964e-08 3.9593647e-06
2.3076619e-07 2.1975168e-06 3.306239e-08 4.791491e-07 6.92637e-07 6.244785e-07 1.9372098e-07 3.143567e-08
1.3965426e-07 4.8158768e-08 2.8777842e-07 8.024465e-07 2.0853088e-07 2.7254123e-07 2.0445137e-07 1.0683003e-06
3.958312e-07 3.0093815e-07 6.1125895e-08 3.9914204e-07 1.0500033e-08 3.74875e-07 8.882109e-08 1.1646579e-06
1.3757298e-07 2.0923984e-07 2.7854574e-07 3.4964197e-07 1.1283829e-06 9.56545e-08 9.851952e-07 4.2345686e-08
3.580958e-08 3.2184795e-07 1.8162514e-07 7.256854e-08 7.1329582e-09 4.3127102e-07 1.3153554e-07 5.3779754e-08
1.8235485e-06 1.2774713e-07 1.678077e-06 9.1952295e-08 1.5494095e-07 3.13667e-07 1.96729e-07 9.5904625e-08
1.3876381e-07 1.7263144e-06 9.876762e-07 2.5294846e-06 2.0304772e-07 5.0973323e-08 5.1028087e-07 4.2272967e-07
2.8972606e-06 8.043375e-07 2.1068973e-07 1.2593007e-06 6.1373964e-07 3.8396792e-07 2.7652417e-08 2.606194e-06

exp_avg f4 [2, 64]
00000000: 8cf0 8b38 b36d 1f3a cf19 f038 3c53 2d39
00000010: 5792 103a d95e 0cb9 8825 e739 4358 fdb8
00000020: f101 6b39 343d 8ab9 f10d 5539 a8b6 16ba
00000030: dd4e 0939 f1b9 b2b8 ffa0 e1b9 e1fa 503a
00000040: 8171 3ab9 e5a6 66b7 07ea 6a39 48f5 0139
00000050: 4c3d 01b9 5aea e3b9 3197 03b9 0190 98b9
00000060: aa03 3d39 a597 2db9 4bd2 cc39 d1b8 f2b8
00000070: 95ab 123a 723c f439 5db0 32ba 1163 9e37
00000080: 84fa 61b9 f5df 3fb9 9d10 0837 a02f 58b9
00000090: 7412 4a38 b293 1bba c104 d837 d57b 06b8
000000a0: 55df eb39 0b69 ac39 d2b9 a7b9 e8e2 2439
000000b0: b4fe 79b9 1033 b139 c2b2 14b9 bd48 80b9
000000c0: 950e 2db7 9835 11ba 9655 d439 9fb4 6c3a
000000d0: 6954 a839 13de b037 38da 8639 7439 9039
000000e0: 7d9c 1fba 171b b5b8 748a 0239 88a0 b0b9
000000f0: eeb3 22ba c53f 5039 2560 5238 e793 2c3a
00000100: cb40 07b7 0bf5 53b9 29a0 23b8 b850 30b8
00000110: 8f3c 2fb9 ecb9 6338 2e2c 09b9 2d83 0138
00000120: 899b c4b8 2676 ac38 6bfe 8db8 647b 2f39
00000130: 83c5 03b8 f007 1938 f565 1339 66a1 86b9
00000140: 0595 9b38 cf39 ab37 0b20 83b8 6cd1 30b8
00000150: 74a0 1d38 e654 fe38 6842 2a38 d000 ae38
00000160: 7067 5db8 df82 7838 591c 00b9 48aa 3938
00000170: 6785 38b9 9cb5 27b9 b258 6239 36c1 21b5
00000180: e815 7138 4a56 8a38 f936 e6b5 b2b4 9038
00000190: 372d 9cb7 73ad 4039 a8f1 1bb7 99af 8e37
000001a0: 0769 0bb9 8da0 edb8 c16c e538 f24d 4eb8
000001b0: 255a b338 fc65 f5b8 f7e0 2538 2852 b038
000001c0: 8ded f134 d2ae 3539 ad19 fbb8 65d5 98b9
000001d0: 5755 bcb8 4c89 36b7 a7eb c8b8 692b bbb8
000001e0: 2828 6539 6d83 1838 f88b 27b8 03e6 0639
000001f0: f929 3b39 d187 84b8 96d3 d6b6 1207 5eb9
6.672842e-05 0.0006081715 0.00011448899 0.00016529573 0.00055149704 -0.00013386774 0.00044087716 -0.0001208042
0.0002241207 -0.0002636701 0.00020318457 -0.0005749264 0.00013094717 -8.522336e-05 -0.00043035296 0.0007971954
-0.00017780626 -1.37479265e-05 0.00022403161 0.00012393773 -0.00012325234 -0.0004347142 -0.00012549457 -0.0002909899
0.0001802581 -0.00016555058 0.00039066593 -0.00011573884 0.0005595026 0.00046584342 -0.00068164413 1.88812e-05
-0.00021550996 -0.0001829861 8.1101e-06 -0.00020617107 4.817774e-05 -0.0005934789 2.575142e-05 -3.2063417e-05
0.00044989088 0.0003288466 -0.0003199117 0.00015724788 -0.00023841375 0.00033798115 -0.00014180972 -0.00024468257
-1.0314999e-05 -0.0005539297 0.00040499558 0.00090296 0.00032106347 2.1084246e-05 0.00025721057 0.00027508626
-0.0006088687 -8.6357984e-05 0.00012449344 -0.0003368894 -0.0006206621 0.00019860182 5.0157443e-05 0.00065833185
-8.061713e-06 -0.00020213814 -3.901139e-05 -4.2036845e-05 -0.0001671186 5.429417e-05 -0.00013081796 3.0878164e-05
-9.374979e-05 8.223606e-05 -6.770793e-05 0.00016735267 -3.141678e-05 3.6485435e-05 0.00014056994 -0.00025678723
7.418733e-05 2.0411708e-05 -6.252535e-05 -4.215671e-05 3.758115e-05 0.000121274774 4.0593004e-05 8.297118e-05
-5.278684e-05 5.924969e-05 -0.00012217592 4.4266024e-05 -0.00017597304 -0.00015994016 0.00021586081 -6.025833e-07
5.747928e-05 6.5964254e-05 -1.7152335e-06 6.900112e-05 -1.8617704e-05 0.00018375162 -9.294985e-06 1.7009488e-05
-0.00013295199 -0.000113309456 0.00010939828 -4.918682e-05 8.552176e-05 -0.000117015064 3.954858e-05 8.407637e-05
4.506259e-07 0.00017326631 -0.00011973395 -0.0002915069 -8.980434e-05 -1.0880012e-05 -9.580637e-05 -8.9249406e-05
0.00021854101 3.6362024e-05 -3.994626e-05 0.00012864922 0.00017849346 -6.319548e-05 -6.402329e-06 -0.00021174204

exp_avg_sq f4 [256]
00000000: c6b5 3731 8c7d 0532 919e b42e fd59 8231
00000010: a10e 8431 f2a4 2e31 362a 8330 e777 0f2e
00000020: 7429 c32d da1f c52e dd1a 162f bf13 c131
00000030: 429a e22f 15a3 db2e c3bf d62f 75e7 4c31
00000040: 1677 b02e f806 7e2f 878c 812f 4320 fb2f
00000050: de93 102e d3a7 b430 2149 b12d 7518 ac31
00000060: c35e 422f f0b2 4c30 f23f 2331 04e9 8630
00000070: 176f 9031 87e3 a32f a1ae b730 9481 262e
00000080: c708 ad2d feb4 6c30 f55f 372f 4421 062f
00000090: 9193 e42d 31cc 8130 1d32 8730 d73b 442f
000000a0: c53e ef31 be09 8830 e480 6831 1741 232f
000000b0: 0430 ae2e 279a f330 439e bd2f fee8 872e
000000c0: ca09 9c2f 3f8c 7331 7c8a d531 c33c 9f32
000000d0: b0d7 d930 f56b 522f 4371 bb31 3ee1 7631
000000e0: d167 7d32 de43 8b30 0d76 ba2f dccc a331
000000f0: c16f 2131 7954 cc30 699b cf2d 0286 1d32
00000100: da9c 9830 0290 2732 e2ad ad2e 106d 6431
00000110: c399 4731 fd09 0731 378f dc30 c843 c62d
00000120: bf7f f02d 192d fc2e c8cc eb2e 70b5 ba31
00000130: 0171 4d30 4bae 092f a216 882f 3a1a 5431
00000140: e2bf d92e d888 192f fdc7 972f 4dee df2f
00000150: 6724 7d2d 61a5 9830 7ce2 272d d6b5 ed31
00000160: 9f36 f42e e447 7730 7fe8 fa30 73f5 8730
00000170: 5fd3 8a31 034a c62f efa5 9e30 689d a02d
00000180: 2208 bd2d 15a5 8c30 0079 422f 2dd8 fe2e
00000190: 8639 b02d fa69 8d30 17a3 3630 c0b7 cf2e
000001a0: d761 dc31 10ed 8130 ff5f 7631 69d8 bf2e
000001b0: 7e19 122e 231c d030 73fb ba2f 2cad a12e
000001c0: 55c0 c52f d754 6731 e892 a431 3cef 5332
000001d0: 1c83 8530 7820 cf2f a413 a731 4fb8 5a31
000001e0: 63dc 9d32 5774 8c30 ba89 c02f f0ec a731
000001f0: b957 0031 c125 bc30 b5c2 6f2d e5eb 3932
00000200: f226 0535 f72c 9635 5464 af34 02c5 8535
00000210: 48a5 3c35 d574 0035 489c 2d36 b056 1934
00000220: 501a 2633 dff8 2d34 2ed6 7534 434c db35
00000230: 6b67 c935 4a1d 8633 6ece 8b34 d2e8 b235
00000240: d04d 9533 1d8e 0933 080d 1935 1226 8b33
00000250: 19cf 4a33 e5f9 c334 efda d231 a9c4 9e35
00000260: 10fb 1d35 8f10 ba35 b522 8335 432d 7134
00000270: 6f84 7335 2ac7 8a35 e7d8 3f34 3a15 d633
00000280: 3017 d333 3c6a b134 87a1 5033 f63e 4c34
00000290: 82a9 1934 da10 a734 ce6a 0635 1338 de33
000002a0: 2980 6f35 ec3c 1a35 7b18 ef34 fce9 9e34
000002b0: 06f3 3533 84da e734 f38d 0e35 f1ef 8134
000002c0: ac87 a835 8814 8c34 b4b3 6435 a146 3335
000002d0: e1a1 6835 6d54 7f35 33a2 cb35 6e23 8d35
000002e0: 51b8 bd35 6e3e af33 4f6a 1c34 087d 3635
000002f0: 4357 f234 33af f534 3f98 1c33 14a2 4a35
00000300: ea5d f430 e620 ce31 16fb d62e 130a 5c31
00000310: 018b 3c31 8501 f530 3e84 8f30 700f 252e
00000320: 1346 f22d 1563 a32e a151 2b2f 2d58 a131
00000330: e467 ad2f 659f 292f 8dea da2f 9a50 8131
00000340: f87c d72e b91f 422f 0a95 6b2f 976f 4930
00000350: b56f 102e 4495 9e30 5690 b62d 07b3 1532
00000360: a86b 2d2f c1f5 7530 657d 2631 d897 a630
00000370: d2a4 7f31 cb23 7c2f b366 f330 3df2 262e
00000380: 880d f12d 7432 8130 9ff8 792f b357 d22e
00000390: c9e2 082e a4f4 9130 9296 5e30 aa82 472f
000003a0: efce d831 3048 6d30 5f78 4f31 63d1 182f
000003b0: 99e4 a62e 819d 1031 766e d72f 4371 b62e
000003c0: 170d 532f a8fa 9d31 61df dd31 1c31 a832
000003d0: 81a7 9e30 bfd2 692f 51ea a931 798a 3e31
000003e0: 970e 9632 e5d2 8d30 6b59 0130 6c1b 0632
000003f0: a482 2f31 7a50 aa30 28ac fc2d 6ca8 2f32
2.673333e-09 7.770165e-09 8.2136194e-11 3.7937284e-09 3.8433687e-09 2.5414093e-09 9.543502e-10 3.262093e-11
2.2187342e-11 8.964181e-11 1.3651964e-10 5.619284e-09 4.1218767e-10 9.987936e-11 3.9062628e-10 2.9817475e-09
8.024707e-11 2.3103641e-10 2.3564814e-10 4.5679557e-10 3.287314e-11 1.3144422e-09 2.0155046e-11 5.0086393e-09
1.7677863e-10 7.4469053e-10 2.375597e-09 9.81601e-10 4.203581e-09 2.9811195e-10 1.3364635e-09 3.785912e-11
1.967172e-11 8.6113505e-10 1.6677844e-10 1.2199047e-10 2.5986132e-11 9.44402e-10 9.836786e-10 1.7847356e-10
6.9629515e-09 9.898071e-10 3.383371e-09 1.4847888e-10 7.921133e-11 1.772439e-09 3.4491351e-10 6.180477e-11
2.838319e-10 3.5440875e-09 6.2148597e-09 1.8537667e-08 1.585013e-09 1.9137743e-10 5.4552927e-09 3.5925747e-09
1.4750143e-08 1.013287e-09 3.3917083e-10 4.767214e-09 2.3492108e-09 1.4866962e-09 2.3602191e-11 9.169073e-09
1.1104035e-09 9.753423e-09 7.898017e-11 3.3240362e-09 2.9045715e-09 1.9650763e-09 1.6047811e-09 2.2540095e-11
2.7341572e-11 1.1467644e-10 1.0722939e-10 5.4339395e-09 7.4739154e-10 1.2521999e-10 2.4754337e-10 3.0864968e-09
9.902103e-11 1.3963886e-10 2.760884e-10 4.0732787e-10 1.4389468e-11 1.1106459e-09 9.543141e-12 6.91828e-09
1.1105538e-10 8.996024e-10 1.8255973e-09 9.892304e-10 4.0403587e-09 3.606858e-10 1.1543174e-09 1.8259796e-11
2.1490424e-11 1.023326e-09 1.7687185e-10 1.1588983e-10 2.0034429e-11 1.0289221e-09 6.644298e-10 9.445911e-11
6.413966e-09 9.453363e-10 3.585228e-09 8.7241166e-11 3.3219198e-11 1.5141989e-09 3.4011868e-10 7.352194e-11
3.597075e-10 3.366315e-09 4.7897295e-09 1.2336212e-08 9.714287e-10 3.767615e-10 4.8625726e-09 3.1827943e-09
1.8377426e-08 1.0219406e-09 3.5022457e-10 4.8872764e-09 1.8676316e-09 1.3689531e-09 1.3628811e-11 1.08220535e-08
4.9603034e-07 1.1188957e-06 3.2669288e-07 9.966609e-07 7.0275973e-07 4.785373e-07 2.5869977e-06 1.4280772e-07
3.8673818e-08 1.620242e-07 2.2895321e-07 1.6338967e-06 1.5005766e-06 6.245189e-08 2.6040965e-07 1.3329793e-06
6.952507e-08 3.202705e-08 5.7015905e-07 6.479617e-08 4.7220144e-08 3.6503403e-07 6.1366943e-09 1.1829153e-06
5.88524e-07 1.3862899e-06 9.770362e-07 2.246134e-07 9.071727e-07 1.0339766e-06 1.786717e-07 9.9690126e-08
9.829671e-08 3.3046115e-07 4.8575682e-08 1.9021886e-07 1.4310902e-07 3.1118435e-07 5.007431e-07 1.03478804e-07
8.9220936e-07 5.7458124e-07 4.453503e-07 2.960004e-07 4.2363375e-08 4.3186094e-07 5.3105686e-07 2.4202703e-07
1.2556461e-06 2.609197e-07 8.519812e-07 6.6785475e-07 8.66623e-07 9.511776e-07 1.5171885e-06 1.051563e-06
1.413524e-06 8.1604284e-08 1.4567307e-07 6.798223e-07 4.5139504e-07 4.576228e-07 3.6460047e-08 7.548672e-07
1.7780029e-09 5.999129e-09 9.776195e-11 3.201994e-09 2.7436615e-09 1.7826528e-09 1.0442205e-09 3.7530368e-11
2.7543334e-11 7.429982e-11 1.558136e-10 4.695741e-09 3.1542335e-10 1.5427089e-10 3.9820627e-10 3.7635575e-09
9.799267e-11 1.7655467e-10 2.1426075e-10 7.328195e-10 3.2841025e-11 1.1538437e-09 2.0755102e-11 8.713648e-09
1.5772506e-10 8.947972e-10 2.4227458e-09 1.2121246e-09 3.7201073e-09 2.2931983e-10 1.7709766e-09 3.795918e-11
2.7404537e-11 9.400325e-10 2.2734746e-10 9.565273e-11 3.1124246e-11 1.061967e-09 8.0977103e-10 1.8145366e-10
6.309953e-09 8.632268e-10 3.0190888e-09 1.3898709e-10 7.589413e-11 2.1044289e-09 3.918676e-10 8.296521e-11
1.9194989e-10 4.5977977e-09 6.4573418e-09 1.9580106e-08 1.154362e-09 2.1266099e-10 4.945186e-09 2.7727352e-09
1.7468933e-08 1.031904e-09 4.7056997e-10 7.806062e-09 2.5540112e-09 1.2392001e-09 2.8725536e-11 1.0224635e-08

exp_avg f4 [256]
00000000: 7eca 3b36 2f76 0e38 5902 1fb6 15b6 0db7
00000010: ed54 9736 0a77 ca36 d81b 16b8 3424 df34
00000020: ead0 a5b5 db4a c3b6 7eb5 89b6 90d2 1db8
00000030: f9a0 07b7 3dc9 5533 8813 0435 e45d 0c38
00000040: 001c 4bb5 0968 0034 d4b0 50b7 b6c1 9bb4
00000050: dab6 23b6 ab65 f536 a841 4635 e132 18b7
00000060: 073e 9eb6 1705 9f36 aeb1 0eb7 46bb 5236
00000070: 1ea3 d137 8881 fdb7 2046 1037 8487 7e35
00000080: d3d9 b634 d90c d136 b1c7 b0b4 6b24 adb6
00000090: b36b 4935 7b7b c8b6 6c19 1cb6 916f 3735
000000a0: 9726 9637 d37a 94b7 ffec 3837 4c9b 8eb6
000000b0: 331f 4bb6 ddf4 99b5 1a01 d7b6 b8d3 3ab6
000000c0: bafc cbb3 a31e 9c37 fed2 b0b7 374b 88b7
000000d0: 3ee4 b0b7 7e9a 9eb5 0753 7bb6 a5de 3a37
000000e0: aa3f 1638 1a7b b0b5 12e3 c435 797b d1b5
000000f0: 82b2 a137 de5a 0d37 fac4 93b5 dccd 0c38
00000100: 51ab cf35 584c 0d38 de9e 04b6 f453 f1b6
00000110: 439b 8d36 cac9 a336 cf58 19b8 91c1 9a34
00000120: 902e d4b5 9d79 a8b6 0273 52b6 6f1c 07b8
00000130: 45f5 45b7 7a46 1d34 8d37 e035 0743 0138
00000140: ac4b 92b4 75d2 6033 2bca 42b7 d30d 8db4
00000150: 0af8 03b6 1eed cd36 b449 0c35 7c36 11b7
00000160: bd4b b0b6 ad80 9a36 8bfb e4b6 a87e 1136
00000170: 843a b537 d597 e0b7 9af7 0837 0a23 4135
00000180: d500 a534 ac91 c036 391f bfb4 d7ca 75b6
00000190: c342 4a35 c6b4 b4b6 922c 1ab6 ebde 6734
000001a0: 7309 8437 6e0d 5ab7 59c8 3437 0db6 85b6
000001b0: dc34 8eb5 4bad 8eb5 471d b5b6 7c92 15b6
000001c0: 884b bb33 7f94 8f37 3d63 8ab7 fdc9 59b7
000001d0: 9442 6eb7 283a 85b5 a3b5 63b6 691c 1737
000001e0: 56c4 1638 5926 deb4 05a3 a735 b259 beb5
000001f0: 40f3 8937 7346 0237 0bb2 90b5 4a8b 0c38
00000200: 6848 fdb7 5d03 04ba da38 1339 7bbf b739
00000210: 0361 5bb8 0ea5 6639 ffbd 973a 8af8 1e37
00000220: c251 9d38 2575 4db9 bec6 2d39 3a1e 1bba
00000230: a96e 443a 8ef2 dab7 8750 65b7 e86c e2b9
00000240: 1acb 04b9 0c91 7c38 92b5 fd39 c1d7 d337
00000250: f8e9 cdb8 81b6 fd38 b7ad 1a38 92e9 9cb9
00000260: 9e92 9839 e833 8239 1add 3439 c5a3 0339
00000270: eadd b3b9 7aac 603a 28da b438 ef2b a9b8
00000280: 72e4 2037 889e 5739 7558 be38 c4d1 45b9
00000290: c07e edb7 89b1 a2b8 9a56 b138 360d 9738
000002a0: 2796 bdb9 7efd cf39 cc80 8c39 f457 5639
000002b0: b4cd deb8 45e6 0e38 68af dab9 847c d4b8
000002c0: 3d24 c8b9 d6e5 8139 7fcf b839 edde f038
000002d0: 2fa4 c439 ec98 e939 2741 1939 0827 a4b9
000002e0: cf69 063a 51e8 10b9 1e55 9bb8 965e 6cb8
000002f0: fd6b 3939 5ed3 9fb9 e229 9938 949d e5b9
00000300: b64a 1f36 e8d9 0238 a44f 28b6 54c8 f7b6
00000310: d473 7536 6651 a136 7326 1ab8 1230 f534
00000320: fac5 b4b5 501e b0b6 1c78 92b6 d994 0eb8
00000330: 1e3a e2b6 5241 9633 4430 0a35 e127 1c38
00000340: b56d 57b5 ffd0 d633 8590 43b7 4128 a7b4
00000350: 4dd3 22b6 59ba e236 69fa 4c35 08a8 3bb7
00000360: 8683 95b6 d707 ae36 f5cf 0ab7 3a44 6436
00000370: 138c c137 f57d dab7 c3b1 2337 a4bc 7735
00000380: 9910 d434 5f63 d636 f756 c6b4 e4dc 9ab6
00000390: e0da 5c35 bddd cab6 0bfc 0eb6 af26 3735
000003a0: 4817 9b37 8708 8ab7 0a29 2437 3a90 88b6
000003b0: f548 49b6 d996 aeb5 964b d7b6 e791 52b6
000003c0: 8d38 8bb2 9f4d b237 cc2b b3b7 af71 86b7
000003d0: 4c6d 96b7 d0e4 b5b5 8d51 74b6 56bd 1f37
000003e0: 2df8 1538 68ff b8b5 e491 e035 eb92 e1b5
000003f0: c7d3 ad37 2ed1 0337 c25f a3b5 cd92 0738
2.7983037e-06 3.3965505e-05 -2.3694213e-06 -8.446649e-06 4.5100373e-06 6.033927e-06 -3.578872e-05 4.1563328e-07
-1.235426e-06 -5.820167e-06 -4.1040466e-06 -3.762782e-05 -8.084106e-06 4.9775952e-08 4.9202254e-07 3.3466044e-05
-7.566414e-07 1.1958777e-07 -1.2438937e-05 -2.9011943e-07 -2.4395326e-06 7.3134047e-06 7.385629e-07 -9.071752e-06
-4.715988e-06 4.739162e-06 -8.505229e-06 3.1401446e-06 2.4990699e-05 -3.0220268e-05 8.599396e-06 9.4819575e-07
3.405863e-07 6.230181e-06 -3.292785e-07 -5.1600414e-06 7.503506e-07 -5.9748395e-06 -2.326061e-06 6.8335163e-07
1.7899363e-05 -1.770017e-05 1.1022435e-05 -4.2500087e-06 -3.0267518e-06 -1.1470653e-06 -6.4076276e-06 -2.7839396e-06
-9.498895e-08 1.8610916e-05 -2.1079086e-05 -1.6247488e-05 -2.1087119e-05 -1.181688e-06 -3.7450243e-06 1.1138302e-05
3.582208e-05 -1.3148849e-06 1.4669224e-06 -1.5607649e-06 1.927582e-05 8.425412e-06 -1.1009681e-06 3.3570323e-05
1.5472561e-06 3.368812e-05 -1.9762006e-06 -7.192133e-06 4.2202023e-06 4.88127e-06 -3.6560752e-05 2.8825573e-07
-1.5808782e-06 -5.020948e-06 -3.1359382e-06 -3.221299e-05 -1.1799221e-05 1.4647404e-07 1.6705468e-06 3.081842e-05
-2.7249678e-07 5.2345474e-08 -1.1610372e-05 -2.6273355e-07 -1.96649e-06 6.13708e-06 5.2261316e-07 -8.655359e-06
-5.254026e-06 4.6045375e-06 -6.824213e-06 2.1680407e-06 2.160413e-05 -2.6773583e-05 8.163881e-06 7.194909e-07
3.073425e-07 5.7390043e-06 -3.559924e-07 -3.6625913e-06 7.5348015e-07 -5.385463e-06 -2.2973732e-06 2.1594649e-07
1.5740026e-05 -1.2996939e-05 1.0775483e-05 -3.9849024e-06 -1.0595209e-06 -1.0630259e-06 -5.3976287e-06 -2.2287995e-06
8.721605e-08 1.7116077e-05 -1.6497093e-05 -1.2981237e-05 -1.4201407e-05 -9.926198e-07 -3.3931362e-06 9.006916e-06
3.594564e-05 -4.1378624e-07 1.2489915e-06 -1.4182208e-06 1.6444945e-05 7.765007e-06 -1.0780653e-06 3.3508324e-05
-3.0193667e-05 -0.00050359016 0.00014040191 0.00035047144 -5.2304018e-05 0.00021995997 0.0011577009 9.475401e-06
7.501572e-05 -0.00019593963 0.00016572603 -0.0005917285 0.0007493296 -2.6100573e-05 -1.3668213e-05 -0.0004318722
-0.00012664162 6.0216567e-05 0.000483912 2.5253628e-05 -9.818742e-05 0.00012097974 3.6878246e-05 -0.00029928662
0.00029100938 0.00024834205 0.00017248504 0.00012554142 -0.0003430688 0.0008570623 8.6237036e-05 -8.066731e-05
9.589932e-06 0.00020563055 9.0763824e-05 -0.00018865528 -2.8311624e-05 -7.7578305e-05 8.4561485e-05 7.202702e-05
-0.0003616076 0.00039670983 0.00026798842 0.00020441395 -0.000106241 3.4069893e-05 -0.00041710888 -0.000101321406
-0.00038173972 0.00024776038 0.00035249811 0.00011485615 0.0003750636 0.0004455516 0.00014615488 -0.00031309598
0.0005127461 -0.00013819455 -7.40683e-05 -5.6354875e-05 0.00017683204 -0.00030484324 7.30341e-05 -0.00043795689
2.3736334e-06 3.1197356e-05 -2.5080308e-06 -7.384495e-06 3.6575266e-06 4.80765e-06 -3.675227e-05 4.5669782e-07
-1.3468664e-06 -5.2487376e-06 -4.3651216e-06 -3.3994063e-05 -6.7420906e-06 6.996801e-08 5.147924e-07 3.723044e-05
-8.0253386e-07 1.0003168e-07 -1.1656554e-05 -3.1135463e-07 -2.4262874e-06 6.7570186e-06 7.6360317e-07 -1.1185191e-05
-4.4558574e-06 5.186517e-06 -8.27386e-06 3.401436e-06 2.307262e-05 -2.6046278e-05 9.7569455e-06 9.228918e-07
3.9500154e-07 6.3892653e-06 -3.694365e-07 -4.6152727e-06 8.227489e-07 -6.045883e-06 -2.1306357e-06 6.8229104e-07
1.8488281e-05 -1.6454853e-05 9.784717e-06 -4.069906e-06 -2.99938e-06 -1.3007913e-06 -6.4162987e-06 -3.1377365e-06
-1.6207446e-08 2.1255399e-05 -2.1358857e-05 -1.6026983e-05 -1.7932289e-05 -1.3552144e-06 -3.6406302e-06 9.521222e-06
3.57555e-05 -1.3783401e-06 1.673176e-06 -1.6806565e-06 2.0721824e-05 7.856912e-06 -1.2172316e-06 3.2323227e-05

exp_avg_sq f4 [256, 64]
00000000: a008 cf2c 2e84 ee2d fb13 f22a d75b 122d
00000010: ad43 832d de59 632d 2038 b22b add7 6c2a
00000020: fcb2 952c de1c e22b c8a9 ae2b 28c5 452d
00000030: fbc8 a12b b9a3 362c b753 3b2b 1a90 292d
00000040: 03f6 0e2c 9e49 1c2d 6aa6 822b 5bfb 5e2d
00000050: 6a3a 262a 7810 6f2c a7cc 832b 2cd2 922d
00000060: c1ca 3e2b 5c4c ce2b 20d7 0a2d 8373 102d
00000070: 25c6 312d a519 2e2b b103 852d e46b 282b
00000080: 5df0 752b f680 192d eaca c42c 84b8 7e2b
00000090: 2532 242a 8fd6 392d e9b0 632c 8347 4e2b
000000a0: 59ec a82d d5c8 f82b 6c52 ea2d c2fe fe2a
000000b0: 4eff 952b b535 152d 651e 0b2c be7e 372b
000000c0: ea7c 3b2c d0d4 ba2d 448a a52d 8075 1c2e
000000d0: c26d 172c 086a 792b fc82 582d 0fe7 052d
000000e0: 9307 1e2e b11c 9b2d 1309 c82c 5621 f62d
000000f0: 657b b82c d0f8 912c 0b8f 2e2b 878f 072e
00000100: d67c 322d 2e63 ab2e cf3a 9f2b 8513 9f2d
00000110: c62f 192e 3e0a 0f2e 28e8 962c 65d9 6c2b
00000120: 0bf6 362d 65fc 782c 75fb 9a2c bd0d d42d
00000130: 1fc9 d12c 7c97 412d bbd7 692c 899d e92d
00000140: 68a2 412d 407a 922d 92e5 a12c 2126 d42d
00000150: ff62 252b c4d2 782d 908d 022d 7f78 3c2e
00000160: a5c1 002c 64b3 da2c e62c 622d cb47 b72d
00000170: ba3d 292e 8c70 482c 4fd9 2b2e 7738 442b
00000180: f963 0e2c 19a8 aa2d f08a 982d 6e9a 132c
00000190: cc74 dd2a 7042 b62d 7701 bd2c a420 632c
000001a0: d23b 8e2e b39b f92c e2e5 942e 9d46 0a2c
000001b0: b856 672c 6a6a 612d a2c1 0b2d 891e 0d2c
000001c0: e4bb c32c a441 862e fb7f 1f2e 19e3 a62e
000001d0: d136 992c 9cee 792c 7932 9e2d 868c ce2d
000001e0: ffbb d62e ef19 692e a480 7b2d 4ded 482e
000001f0: bda5 a02d 1276 872d 9fb6 822b 1b71 ca2e
00000200: 5631 052a eea6 322b 742b f728 eb56 a42a
00000210: a41c 0e2b 06b7 902a 9c4d c729 2054 7428
00000220: 2002 ef29 6d0d 152a 82e1 1429 714f 022b
00000230: 168a 9729 ae55 f529 b2f4 ee28 f33c a12a
00000240: ffbb 9a29 a75f 9a2a ac40 9e28 e2d2 f12a
00000250: 66bb 4028 e636 2a2a d0a5 ba28 f4a5 122b
00000260: 5146 d628 20c3 1a29 ab2b ba2a 18ac 952a
00000270: 5c9e 892a 071b 2e29 152d 192b 84a7 6328
00000280: 6429 2429 500d 902a 9dc0 582a ce84 8229
00000290: d8ed 0e28 00f1 002b 1f9b 042a 4fdf 3f29
000002a0: 8a05 0d2b 94f5 7929 217b 1f2b 04bb 0128
000002b0: 7106 de29 3a09 a72a d0fe 2f29 f148 1129
000002c0: 48f5 1029 bdd2 192b 694a 322b f958 862b
000002d0: 6bca 1c2a ac36 9228 4f33 c02a 4d63 8f2a
000002e0: bae5 502b 8ba7 082b 1ca5 332a c7b0 342b
000002f0: 59b3 822a b224 d329 9b37 b628 9ef7 522b
00000300: 06f4 a62c 98a5 0e2e 21cc 492b 6262 652d
00000310: 3a81 ac2d 8d49 792d 5489 4c2c fd9b 132b
00000320: d36f b32c 5bd3 682c 1ba5 f62b 07b1 9f2d
00000330: e579 622c 2da2 db2c 4726 8b2b a408 2f2d
00000340: 824b af2c 9955 472d fb53 042c b94f 9b2d
00000350: 0711 ed2a b4e0 e92c 6234 672c 4334 e42d
00000360: 2b03 8f2b 15a0 bd2b 95d6 282d 3086 6c2d
00000370: 5739 712d c96d b72b 8cec b02d 825e c72a
00000380: c87c b42b f48d 3b2d c1b2 282d 5544 c42b
00000390: e1a2 862a 4965 842d f9ea ae2c 420c 0d2c
000003a0: dca8 032e a938 5a2c a0f9 f92d 3397 3d2b
000003b0: 4aae 362c 0efc 212d cfc2 342c 96a9 592b
000003c0: ca67 de2b d898 e32d eb9a e32d aa11 282e
000003d0: 6988 9a2c 8a29 9a2b 815e 402d cbc8 492d
000003e0: 1da2 252e 81f1 e82d 50a1 1c2d b374 ce2d
000003f0: 9ec9 222d 3c6d b22c 923d 0f2b 9547 262e
5.8842514e-12 2.7116167e-11 4.30017e-13 8.319532e-12 1.492303e-11 1.2923411e-11 1.2663239e-12 2.1035838e-13
4.254706e-12 1.6066278e-12 1.2410567e-12 1.1241931e-11 1.1495521e-12 2.595464e-12 6.6551923e-13 9.638535e-12
2.0315978e-12 8.88392e-12 9.283245e-13 1.2675051e-11 1.4764028e-13 3.3973085e-12 9.364912e-13 1.6691613e-11
6.778294e-13 1.4658374e-12 7.892159e-12 8.211101e-12 1.0105282e-11 6.1852807e-13 1.5121989e-11 5.983532e-13
8.7375056e-13 8.725678e-12 5.593183e-12 9.0494994e-13 1.4583523e-13 1.0563674e-11 3.2356845e-12 7.3285144e-13
1.9204348e-11 1.7677202e-12 2.6639323e-11 4.5296237e-13 1.0657948e-12 8.481595e-12 1.976996e-12 6.519055e-13
2.664364e-12 2.124026e-11 1.881973e-11 3.5574654e-11 2.1519318e-12 8.860972e-13 1.2307263e-11 7.61148e-12
3.5931768e-11 1.7634201e-11 5.6853493e-12 2.7981766e-11 5.243294e-12 4.1487716e-12 6.201573e-13 3.0822924e-11
1.0145848e-11 7.7937976e-11 1.1313952e-12 1.8084876e-11 3.4830604e-11 3.2523532e-11 4.289031e-12 8.414574e-13
1.0400135e-11 3.5383027e-12 4.4048606e-12 2.410771e-11 5.962466e-12 1.1004416e-11 3.3231046e-12 2.6558993e-11
1.1006841e-11 1.6652568e-11 4.6013826e-12 2.4118542e-11 5.875716e-13 1.4143967e-11 7.421078e-12 4.2853273e-11
1.8297388e-12 6.215849e-12 1.2856582e-11 2.0836574e-11 3.8480975e-11 2.8484185e-12 3.9073907e-11 6.971155e-13
2.023491e-12 1.9401413e-11 1.73421e-11 2.0975682e-12 3.933853e-13 2.0720509e-11 5.3718657e-12 3.227676e-12
6.4680386e-11 7.0942917e-12 6.771096e-11 1.9650178e-12 3.2875213e-12 1.2813398e-11 7.94423e-12 2.0054256e-12
5.5630934e-12 6.1052746e-11 3.6266084e-11 7.589147e-11 4.3546074e-12 3.5517483e-12 1.7984935e-11 2.3481894e-11
9.764988e-11 5.30011e-11 1.4296262e-11 4.56855e-11 1.8263497e-11 1.5400157e-11 9.287743e-13 9.205988e-11
1.182989e-13 6.3469965e-13 2.7441353e-14 2.9192564e-13 5.048828e-13 2.5706537e-13 8.8508384e-14 1.3562963e-14
1.0614101e-13 1.3238516e-13 3.30582e-14 4.6295525e-13 6.729701e-14 1.0895049e-13 2.6529428e-14 2.8641637e-13
6.871586e-14 2.7422267e-13 1.756957e-14 4.295653e-13 1.0698777e-14 1.511808e-13 2.0722058e-14 5.2099926e-13
2.3789268e-14 3.4364113e-14 3.3070538e-13 2.658713e-13 2.4445973e-13 3.8659204e-14 5.4419083e-13 1.26373555e-14
3.6451216e-14 2.5588776e-13 1.925148e-13 5.796198e-14 7.934158e-15 4.580919e-13 1.1777774e-13 4.260421e-14
5.010095e-13 5.5502112e-14 5.6659023e-13 7.201491e-15 9.859898e-14 2.9671561e-13 3.907882e-14 3.2259734e-14
3.218717e-14 5.464898e-13 6.334157e-13 9.545968e-13 1.3925811e-13 1.6232966e-14 3.4141654e-13 2.5470807e-13
7.4215254e-13 4.854942e-13 1.5955678e-13 6.4194174e-13 2.3217086e-13 9.376648e-14 2.0230174e-14 7.4950625e-13
4.745096e-12 3.243414e-11 7.169283e-13 1.3038988e-11 1.9611524e-11 1.4170343e-11 2.9066376e-12 5.244137e-13
5.099901e-12 3.3086509e-12 1.7525177e-12 1.8154823e-11 3.2184197e-12 6.2423595e-12 9.887168e-13 9.949517e-12
4.982182e-12 1.1330847e-11 1.8804947e-12 1.7656864e-11 4.2111472e-13 6.6472054e-12 3.2856153e-12 2.5943808e-11
1.016164e-12 1.3473689e-12 9.597341e-12 1.34448425e-11 1.3711996e-11 1.3033404e-12 2.0113931e-11 3.541508e-13
1.2824403e-12 1.0661239e-11 9.589386e-12 1.3945604e-12 2.3916202e-13 1.5051642e-11 4.9714646e-12 2.004411e-12
2.993593e-11 3.1011116e-12 2.8418878e-11 6.735612e-13 2.5960505e-12 9.207758e-12 2.568768e-12 7.7329235e-13
1.5802856e-12 2.5874788e-11 2.587571e-11 3.8214466e-11 4.392088e-12 1.0953888e-12 1.09349205e-11 1.1470112e-11
3.7660642e-11 2.6482596e-11 8.903392e-12 2.3471313e-11 9.253402e-12 5.0711917e-12 5.088925e-13 3.7807608e-11

exp_avg f4 [256, 64]
00000000: 74e7 0334 5f15 7bb4 1959 e732 9a87 afb3
00000010: 6637 a2b3 a87b 4234 63b6 f333 2ff7 4033
00000020: bcb8 c933 1a90 f4b2 578e 9c33 a737 5433
00000030: 4168 13b2 e661 9eb3 56e0 95b2 3b5d c2b3
00000040: 82ed 16b4 59a1 47b2 39a8 4c31 c23d e3b3
00000050: a91d 9732 23a3 b5b2 ac36 8133 f3bc 1a34
00000060: f9e5 b833 ef47 c432 f40e 5bb3 d0fb 85b3
00000070: 7314 0ab4 3a0b ab33 bcbf b633 fd2c 95b3
00000080: c39f 6b33 2c23 0934 a5b2 0c33 c190 deb2
00000090: ffa2 da32 d05a bd33 de1c 5833 d771 12b2
000000a0: 4265 22b4 ac41 5a33 bf4b 7034 c43f aa33
000000b0: 4665 80b3 77a0 c9b3 bcb6 53b2 6b03 48b3
000000c0: e9a4 d6b3 0de5 7134 848e 9fb3 6f55 87b4
000000d0: 96f5 4b33 c176 6a33 d5f0 a9b3 2187 ffb3
000000e0: aaad 8734 eb0d d9b3 6e27 bd32 080a 2634
000000f0: ef0a 1833 7d45 48b3 abef 42b2 0d07 79b4
00000100: 4c92 bbb3 c5d7 0fb6 332c d0b4 3a2b 17b5
00000110: ca2e 05b6 223e 2435 3748 c4b5 dbc3 d334
00000120: a417 29b5 767c 7c35 9603 2ab5 c04d 0036
00000130: 1afc 12b5 0938 c834 11f0 bd35 231a 33b6
00000140: 309b 1d35 9ff4 6e33 070f 59b5 311b f6b4
00000150: 0f26 ed34 b133 bc35 942a be34 bd19 8335
00000160: 7ac9 17b5 ef07 2235 d762 c0b5 87b4 a234
00000170: 0c28 06b6 af7c d2b5 4bbd 1e36 e3e1 40b3
00000180: c57d 3835 1a7f 2e35 45fe ccb3 4cf0 4a35
00000190: 51ba 2cb4 fd92 0936 f6bb 6233 a5f8 b833
000001a0: 4378 c9b5 d917 91b5 b4f8 af35 a78e 09b5
000001b0: 3055 5d35 d21f 9bb5 55d5 f134 404e 5d35
000001c0: e31f abb3 dd98 0436 306c b3b5 5079 55b6
000001d0: 5f3f 8ab5 ba71 2bb2 6d1c 84b5 850d 85b5
000001e0: 79cf 1536 cde5 3d34 76ae c1b4 adf5 ac35
000001f0: 2057 0936 b9b5 4ab5 f454 7db4 6c65 1fb6
00000200: 02d3 0eb3 9809 2b34 0015 9230 6362 7133
00000210: 1aa1 dc33 eb8e b2b3 3bbe b632 d0a9 1bb3
00000220: 1f3c 50b2 a6a4 e2b2 86bc c9b1 49f5 d4b3
00000230: ed3b 1733 a7a0 e132 8127 3bb3 24fb 0834
00000240: 806f 3433 0ae6 6e32 614c 1d33 2b45 6033
00000250: bc94 eeb2 de57 56b3 5448 41b3 412a c7b3
00000260: d3bf 84b1 9667 b6b2 cd69 9833 8f93 6b32
00000270: 2d66 0134 eb44 1333 c271 fab3 1415 0633
00000280: ca66 64b3 1796 90b3 4754 15b2 6b77 81b2
00000290: aaeb 7cb1 ce2e f6b3 8dd7 b1b2 b953 4c31
000002a0: 24fa f433 ce58 af32 a48c 02b4 0669 efb1
000002b0: c7c3 d3b1 5631 a033 3e64 a6b2 0e09 2cb2
000002c0: c135 0c33 aa87 24b4 3ad1 ae33 fd40 6134
000002d0: 2e53 f232 630f 7ab2 f5a5 6e33 e8ab a833
000002e0: aa5f 2bb4 aea9 f132 47d5 ee31 7ec3 c2b3
000002f0: 6fdb d1b3 1cdc 2533 aaad b932 4127 3434
00000300: 780e b933 587b 0935 3f8c 0b34 88a8 ff33
00000310: 0061 1135 f3a9 bdb3 bc09 0235 03c1 c2b3
00000320: 82cf 7f34 e3c2 9ab4 1a28 7434 9e90 0eb5
00000330: 2d7f 2134 af28 24b4 63af e4b4 aedc 4635
00000340: 3271 86b4 d6c0 efb2 2986 7c34 00f4 ac33
00000350: e2d9 fcb3 1379 e1b4 add4 9ab3 5854 61b4
00000360: 483c 5e34 fb18 35b4 83fe d234 077d 06b4
00000370: dd61 0b35 0b1e 0735 17be 2eb5 f78e b6b2
00000380: 309a 37b4 e3b1 07b4 8790 4033 8213 7db4
00000390: c292 8033 9f84 14b5 8bb2 5332 a1f7 0fb3
000003a0: 8687 c234 ad14 bb34 7214 92b4 15cb 4c34
000003b0: e283 92b4 177a 9d34 002c 11b4 9b9d 90b4
000003c0: 3b6f d7b2 2729 f9b4 a9b8 bd34 bb15 5835
000003d0: bdca ad34 a51c 0933 6adf 8734 8c5e 7534
000003e0: bf91 0fb5 b944 e6b3 2652 ff33 36e6 a4b4
000003f0: 3c10 1bb5 0578 5534 ec30 7233 95ad 1b35
1.2284528e-07 -2.3383971e-07 2.6932456e-08 -8.173738e-08 -7.55379e-08 1.8112644e-07 1.1348745e-07 4.4928296e-08
9.393395e-08 -2.8470868e-08 7.2902075e-08 4.9410712e-08 -8.580231e-09 -7.375256e-08 -1.74479e-08 -9.0507875e-08
-1.4056243e-07 -1.1620011e-08 2.978153e-09 -1.0581745e-07 1.7592201e-08 -2.114536e-08 6.0169754e-08 1.4411107e-07
8.6099995e-08 2.2850115e-08 -5.100351e-08 -6.2390995e-08 -1.2859691e-07 7.96485e-08 8.509912e-08 -6.9465365e-08
5.4860504e-08 1.2771915e-07 3.2758766e-08 -2.5910028e-08 2.5452662e-08 8.817517e-08 5.0317674e-08 -8.524203e-09
-1.5124263e-07 5.081681e-08 2.2379298e-07 7.927841e-08 -5.978886e-08 -9.38898e-08 -1.2323365e-08 -4.6569237e-08
-9.9951485e-08 2.2528202e-07 -7.429938e-08 -2.520787e-07 4.748798e-08 5.4590377e-08 -7.913483e-08 -1.18989426e-07
2.5272067e-07 -1.01073816e-07 2.2020426e-08 1.5463604e-07 3.5400202e-08 -4.6629328e-08 -1.134678e-08 -2.3192497e-07
-8.734477e-08 -2.1434255e-06 -3.8775178e-07 -5.6314786e-07 -1.984578e-06 6.1185176e-07 -1.4624155e-06 3.9444316e-07
-6.299181e-07 9.405843e-07 -6.3335153e-07 1.9118743e-06 -5.4756094e-07 3.7293674e-07 1.4151466e-06 -2.6688292e-06
5.8712885e-07 5.5636175e-08 -8.0860667e-07 -4.5840855e-07 4.417238e-07 1.4022136e-06 3.5421237e-07 9.767751e-07
-5.654507e-07 6.036125e-07 -1.4333881e-06 3.0306202e-07 -1.9990866e-06 -1.5682507e-06 2.3654018e-06 -4.4908926e-08
6.872836e-07 6.500501e-07 -9.5457416e-08 7.560054e-07 -1.608653e-07 2.050015e-06 5.2790675e-08 8.613396e-08
-1.5010668e-06 -1.0810282e-06 1.3110898e-06 -5.1244064e-07 8.245288e-07 -1.1557661e-06 4.5044968e-07 8.2442784e-07
-7.968608e-08 1.975851e-06 -1.3368026e-06 -3.1810087e-06 -1.0300245e-06 -9.979368e-09 -9.843039e-07 -9.913207e-07
2.2323495e-06 1.7685598e-07 -3.6075988e-07 1.28865e-06 2.0465304e-06 -7.5515305e-07 -2.3593367e-07 -2.3751882e-06
-3.3253862e-08 1.5929106e-07 1.0628867e-09 5.6201667e-08 1.02738525e-07 -8.3147675e-08 2.1274095e-08 -3.6243193e-08
-1.2120863e-08 -2.6384736e-08 -5.8713026e-09 -9.9166364e-08 3.521193e-08 2.6266504e-08 -4.357526e-08 1.2757351e-07
4.2010925e-08 1.3905728e-08 3.6623877e-08 5.2216972e-08 -2.7774483e-08 -4.9905672e-08 -4.5002096e-08 -9.2743456e-08
-3.8635135e-09 -2.1234694e-08 7.0972966e-08 1.3712351e-08 1.2051233e-07 3.4288785e-08 -1.16622246e-07 3.1218477e-08
-5.3178873e-08 -6.732824e-08 -8.692104e-09 -1.5071882e-08 -3.6804786e-09 -1.14637814e-07 -2.0703533e-08 2.9733498e-09
1.1407636e-07 2.0413065e-08 -1.2158358e-07 -6.9677553e-09 -6.1631655e-09 7.459555e-08 -1.9370528e-08 -1.00137765e-08
3.264518e-08 -1.5323045e-07 8.1405645e-08 2.09784e-07 2.8210334e-08 -1.4555414e-08 5.556463e-08 7.854379e-08
-1.5960418e-07 2.8133254e-08 6.9509585e-09 -9.069389e-08 -9.7722356e-08 3.8617245e-08 2.1615808e-08 1.6778087e-07
8.617366e-08 5.1215966e-07 1.2996405e-07 1.19050185e-07 5.4157863e-07 -8.831912e-08 4.844294e-07 -9.0689376e-08
2.3824217e-07 -2.8826534e-07 2.273886e-07 -5.310957e-07 1.504056e-07 -1.5288491e-07 -4.259592e-07 7.408188e-07
-2.5041805e-07 -2.7910954e-08 2.3518136e-07 8.0537575e-08 -1.1774297e-07 -4.199761e-07 -7.209869e-08 -2.0985442e-07
2.0697291e-07 -1.6866026e-07 3.930073e-07 -1.2525207e-07 5.1923945e-07 5.033514e-07 -6.509667e-07 -2.1252601e-08
-1.7099296e-07 -1.263757e-07 4.483493e-08 -2.3569558e-07 5.9871596e-08 -5.5327286e-07 1.2322412e-08 -3.352e-08
3.6233922e-07 3.4846508e-07 -2.7209495e-07 1.9072861e-07 -2.7290577e-07 2.933236e-07 -1.3520184e-07 -2.6936763e-07
-2.5079876e-08 -4.6409806e-07 3.533835e-07 8.049789e-07 3.2371273e-07 3.192385e-08 2.5308265e-07 2.2851799e-07
-5.348374e-07 -1.072271e-07 1.18893055e-07 -3.071488e-07 -5.7765624e-07 1.9880834e-07 5.638951e-08 5.7994595e-07
