src/movement_models/model_samplesize_852_20241108_133628.pth (torch_old, 239326 bytes, 18 tensors)

exp_avg_sq f4 [256, 4]
0	0x2fcd37b2	3.7328857e-10
1	0x2f8b8c5a	2.5383678e-10
2	0x00000000	0.0
3	0x00000000	0.0
4	0x2f8ea4d8	2.5946778e-10
5	0x2fdc5042	4.0074793e-10
6	0x00000000	0.0
7	0x00000000	0.0
8	0x3124e9d2	2.3998052e-09
9	0x3101d894	1.889508e-09
10	0x00000000	0.0
11	0x00000000	0.0
12	0x31191912	2.2278681e-09
13	0x31abe930	5.0032654e-09
14	0x00000000	0.0
15	0x00000000	0.0
16	0x30ac615d	1.2542319e-09
17	0x309f0d4d	1.1572553e-09
18	0x00000000	0.0
19	0x00000000	0.0
20	0x30a58cc3	1.2045337e-09
21	0x309e799e	1.1530579e-09
22	0x00000000	0.0
23	0x00000000	0.0
24	0x311ea52b	2.3085913e-09
25	0x3179aebc	3.6333594e-09
26	0x00000000	0.0
27	0x00000000	0.0
28	0x30f31427	1.7686305e-09
29	0x31133406	2.1420887e-09
30	0x00000000	0.0
31	0x00000000	0.0
32	0x32c4675d	2.2864407e-08
33	0x3290987c	1.6833148e-08
34	0x00000000	0.0
35	0x00000000	0.0
36	0x2f572ca2	1.9569993e-10
37	0x2fd19cf2	3.8128395e-10
38	0x00000000	0.0
39	0x00000000	0.0
40	0x31ee16da	6.9293096e-09
41	0x3202e5f7	7.619284e-09
42	0x00000000	0.0
43	0x00000000	0.0
44	0x3047086b	7.240774e-10
45	0x30deb043	1.6202722e-09
46	0x00000000	0.0
47	0x00000000	0.0
48	0x31cc3b4f	5.943924e-09
49	0x319f29e5	4.632272e-09
50	0x00000000	0.0
51	0x00000000	0.0
52	0x2e72fa69	5.524684e-11
53	0x2e66e774	5.2501517e-11
54	0x00000000	0.0
55	0x00000000	0.0
56	0x32116a08	8.4642195e-09
57	0x32273494	9.732634e-09
58	0x00000000	0.0
59	0x00000000	0.0
60	0x2f11a191	1.3245073e-10
61	0x2ed98702	9.892e-11
62	0x00000000	0.0
63	0x00000000	0.0
64	0x30116386	5.2892124e-10
65	0x3058a39c	7.8812845e-10
66	0x00000000	0.0
67	0x00000000	0.0
68	0x2eb4caf5	8.221505e-11
69	0x2e80393b	5.830932e-11
70	0x00000000	0.0
71	0x00000000	0.0
72	0x333090c7	4.1109868e-08
73	0x332455ca	3.826225e-08
74	0x00000000	0.0
75	0x00000000	0.0
76	0x2fd3b746	3.85109e-10
77	0x306272cc	8.2381457e-10
78	0x00000000	0.0
79	0x00000000	0.0
80	0x2f45f1cd	1.800295e-10
81	0x2ee0ff35	1.02316745e-10
82	0x00000000	0.0
83	0x00000000	0.0
84	0x2fd4bd39	3.8697026e-10
85	0x2fa67678	3.02794e-10
86	0x00000000	0.0
87	0x00000000	0.0
88	0x31d3d2b5	6.164863e-09
89	0x31cc4fe5	5.9462644e-09
90	0x00000000	0.0
91	0x00000000	0.0
92	0x31b49a29	5.2562155e-09
93	0x3194237f	4.3114023e-09
94	0x00000000	0.0
95	0x00000000	0.0
96	0x2ffc49b9	4.5890916e-10
97	0x3071ab6d	8.79189e-10
98	0x00000000	0.0
99	0x00000000	0.0
100	0x30ab776c	1.2475829e-09
101	0x30828ad5	9.498203e-10
102	0x00000000	0.0
103	0x00000000	0.0
104	0x3037f482	6.692248e-10
105	0x3028ad04	6.1363914e-10
106	0x00000000	0.0
107	0x00000000	0.0
108	0x31086a0c	1.9850885e-09
109	0x31756e8e	3.5715035e-09
110	0x00000000	0.0
111	0x00000000	0.0
112	0x2e9b5b22	7.0647724e-11
113	0x2ed956d0	9.8834385e-11
114	0x00000000	0.0
115	0x00000000	0.0
116	0x3064de8e	8.3262186e-10
117	0x303da8c4	6.899763e-10
118	0x00000000	0.0
119	0x00000000	0.0
120	0x31b405b2	5.239337e-09
121	0x318a3c2c	4.0231694e-09
122	0x00000000	0.0
123	0x00000000	0.0
124	0x31a499b0	4.7905004e-09
125	0x31a5187d	4.804916e-09
126	0x00000000	0.0
127	0x00000000	0.0
128	0x31a0325b	4.6623376e-09
129	0x3193bfe4	4.3000785e-09
130	0x00000000	0.0
131	0x00000000	0.0
132	0x30b780f9	1.3351659e-09
133	0x3034a049	6.57114e-10
134	0x00000000	0.0
135	0x00000000	0.0
136	0x3148089b	2.9108722e-09
137	0x30f14ef1	1.7557494e-09
138	0x00000000	0.0
139	0x00000000	0.0
140	0x32073b66	7.87154e-09
141	0x3209e7dd	8.027169e-09
142	0x00000000	0.0
143	0x00000000	0.0
144	0x3121d1bc	2.3547804e-09
145	0x313a905c	2.7148621e-09
146	0x00000000	0.0
147	0x00000000	0.0
148	0x32635aff	1.3233829e-08
149	0x32589dac	1.2608705e-08
150	0x00000000	0.0
151	0x00000000	0.0
152	0x3030b890	6.4290706e-10
153	0x300d8620	5.1486104e-10
154	0x00000000	0.0
155	0x00000000	0.0
156	0x312cec2c	2.5163542e-09
157	0x30b82f56	1.3401216e-09
158	0x00000000	0.0
159	0x00000000	0.0
160	0x2d07939f	7.70664e-12
161	0x2d267368	9.461633e-12
162	0x00000000	0.0
163	0x00000000	0.0
164	0x330363a1	3.0591426e-08
165	0x32dce6b0	2.5716275e-08
166	0x00000000	0.0
167	0x00000000	0.0
168	0x31194b8b	2.2307372e-09
169	0x31109529	2.1039546e-09
170	0x00000000	0.0
171	0x00000000	0.0
172	0x315ef7ad	3.244604e-09
173	0x31114a54	2.1142528e-09
174	0x00000000	0.0
175	0x00000000	0.0
176	0x2e3ad37d	4.2479343e-11
177	0x2e9d49fb	7.152675e-11
178	0x00000000	0.0
179	0x00000000	0.0
180	0x2ee3d979	1.0361396e-10
181	0x2ee4729e	1.03886e-10
182	0x00000000	0.0
183	0x00000000	0.0
184	0x311765a5	2.203117e-09
185	0x30f74e5e	1.7993889e-09
186	0x00000000	0.0
187	0x00000000	0.0
188	0x2f6c20fc	2.1475793e-10
189	0x2fcca059	3.7221318e-10
190	0x00000000	0.0
191	0x00000000	0.0
192	0x2f77784c	2.2507257e-10
193	0x2f4b3dfa	1.8484761e-10
194	0x00000000	0.0
195	0x00000000	0.0
196	0x312c7168	2.5093758e-09
197	0x3160f75f	3.2736904e-09
198	0x00000000	0.0
199	0x00000000	0.0
200	0x306f7405	8.7112567e-10
201	0x3030b048	6.427894e-10
202	0x00000000	0.0
203	0x00000000	0.0
204	0x328d952c	1.6482396e-08
205	0x32871d16	1.5729295e-08
206	0x00000000	0.0
207	0x00000000	0.0
208	0x332a85b6	3.970282e-08
209	0x3327420f	3.8942797e-08
210	0x00000000	0.0
211	0x00000000	0.0
212	0x3271f211	1.4083086e-08
213	0x32924bac	1.7031049e-08
214	0x00000000	0.0
215	0x00000000	0.0
216	0x2fb317c5	3.25768e-10
217	0x3031ecc2	6.472868e-10
218	0x00000000	0.0
219	0x00000000	0.0
220	0x305fbd8d	8.1396295e-10
221	0x30a94a80	1.2317543e-09
222	0x00000000	0.0
223	0x00000000	0.0
224	0x2ff804c9	4.5114337e-10
225	0x308c46a2	1.0206416e-09
226	0x00000000	0.0
227	0x00000000	0.0
228	0x2f6b7e77	2.1418055e-10
229	0x2f31cce2	1.6170845e-10
230	0x00000000	0.0
231	0x00000000	0.0
232	0x2f1766a6	1.3769838e-10
233	0x2f049012	1.2056514e-10
234	0x00000000	0.0
235	0x00000000	0.0
236	0x2de62a6b	2.616681e-11
237	0x2dc7c8f9	2.271293e-11
238	0x00000000	0.0
239	0x00000000	0.0
240	0x31eb49fe	6.847812e-09
241	0x3167cd0f	3.3731486e-09
242	0x00000000	0.0
243	0x00000000	0.0
244	0x2f2c8dea	1.5693727e-10
245	0x2f7144e0	2.1943292e-10
246	0x00000000	0.0
247	0x00000000	0.0
248	0x310e7cc6	2.0734645e-09
249	0x310bcde2	2.0344193e-09
250	0x00000000	0.0
251	0x00000000	0.0
252	0x308a3547	1.0055964e-09
253	0x311f0b59	2.3143996e-09
254	0x00000000	0.0
255	0x00000000	0.0

exp_avg f4 [256, 4]
0	0x36bfed5f	5.719877e-06
1	0x36807dfe	3.8293647e-06
2	0x00000000	0.0
3	0x00000000	0.0
4	0x374ddb70	1.2270044e-05
5	0x36cf0334	6.1694536e-06
6	0x00000000	0.0
7	0x00000000	0.0
8	0x37f0c197	2.8700377e-05
9	0x377e4792	1.51562435e-05
10	0x00000000	0.0
11	0x00000000	0.0
12	0x37bce565	2.2518167e-05
13	0x37434fc6	1.1641479e-05
14	0x00000000	0.0
15	0x00000000	0.0
16	0x362d8c6d	2.5860747e-06
17	0x35f37ff9	1.8142156e-06
18	0x00000000	0.0
19	0x00000000	0.0
20	0xb758e4e3	-1.2927895e-05
21	0xb6f47ffb	-7.2866656e-06
22	0x00000000	0.0
23	0x00000000	0.0
24	0x37996397	1.8285396e-05
25	0x3725e52b	9.888124e-06
26	0x00000000	0.0
27	0x00000000	0.0
28	0x34d6429a	3.9909065e-07
29	0x34632406	2.1154128e-07
30	0x00000000	0.0
31	0x00000000	0.0
32	0x38d02350	9.92479e-05
33	0x3852c59d	5.0251943e-05
34	0x00000000	0.0
35	0x00000000	0.0
36	0x35b256b6	1.328727e-06
37	0x34d72fc6	4.008163e-07
38	0x00000000	0.0
39	0x00000000	0.0
40	0x3808a2ed	3.2576663e-05
41	0x3796bc5f	1.796911e-05
42	0x00000000	0.0
43	0x00000000	0.0
44	0x35a507c4	1.2295718e-06
45	0x35324ff8	6.642654e-07
46	0x00000000	0.0
47	0x00000000	0.0
48	0x38235721	3.8943374e-05
49	0x37a63840	1.9814936e-05
50	0x00000000	0.0
51	0x00000000	0.0
52	0x36804227	3.8223984e-06
53	0x35e54c8f	1.7084111e-06
54	0x00000000	0.0
55	0x00000000	0.0
56	0x37a81f6b	2.004179e-05
57	0x37555d61	1.2717531e-05
58	0x00000000	0.0
59	0x00000000	0.0
60	0x36e80c68	6.915583e-06
61	0x3680dde3	3.8405283e-06
62	0x00000000	0.0
63	0x00000000	0.0
64	0x355c62f8	8.2100405e-07
65	0xb3595ebd	-5.0610414e-08
66	0x00000000	0.0
67	0x00000000	0.0
68	0x36fee297	7.5961684e-06
69	0x366ab4ed	3.497403e-06
70	0x00000000	0.0
71	0x00000000	0.0
72	0x38d8b533	0.000103334336
73	0x38741a25	5.8198482e-05
74	0x00000000	0.0
75	0x00000000	0.0
76	0x358a4883	1.0302905e-06
77	0x34e372b0	4.236549e-07
78	0x00000000	0.0
79	0x00000000	0.0
80	0x36553fc6	3.1776594e-06
81	0x35d113b2	1.5577446e-06
82	0x00000000	0.0
83	0x00000000	0.0
84	0x3622ec61	2.4277472e-06
85	0x35b626c5	1.357134e-06
86	0x00000000	0.0
87	0x00000000	0.0
88	0x35c49f3e	1.4649484e-06
89	0xb46de870	-2.2156905e-07
90	0x00000000	0.0
91	0x00000000	0.0
92	0x383ae270	4.4556742e-05
93	0x37cd5eb7	2.448201e-05
94	0x00000000	0.0
95	0x00000000	0.0
96	0xb68ac88a	-4.1360663e-06
97	0xb60b9bc7	-2.0803288e-06
98	0x00000000	0.0
99	0x00000000	0.0
100	0x36cdb40a	6.1304354e-06
101	0x365ee6b1	3.3214858e-06
102	0x00000000	0.0
103	0x00000000	0.0
104	0x378324b3	1.5633506e-05
105	0x36e5ba83	6.8464446e-06
106	0x00000000	0.0
107	0x00000000	0.0
108	0xb554c0df	-7.925682e-07
109	0xb5a4eb6a	-1.2287467e-06
110	0x00000000	0.0
111	0x00000000	0.0
112	0x368a6e7e	4.1255835e-06
113	0x35d73678	1.6034601e-06
114	0x00000000	0.0
115	0x00000000	0.0
116	0x36ccf0d4	6.10771e-06
117	0xb3b4588b	-8.398009e-08
118	0x00000000	0.0
119	0x00000000	0.0
120	0xb79d9e58	-1.8789593e-05
121	0xb733700b	-1.0695318e-05
122	0x00000000	0.0
123	0x00000000	0.0
124	0x370a6c57	8.250666e-06
125	0x3662b85a	3.378393e-06
126	0x00000000	0.0
127	0x00000000	0.0
128	0x36c47944	5.8553724e-06
129	0x36244f58	2.4484088e-06
130	0x00000000	0.0
131	0x00000000	0.0
132	0x37933b43	1.7551361e-05
133	0x37234434	9.731437e-06
134	0x00000000	0.0
135	0x00000000	0.0
136	0x384e58d2	4.9196948e-05
137	0x37e10145	2.6822681e-05
138	0x00000000	0.0
139	0x00000000	0.0
140	0xb777bc14	-1.4766138e-05
141	0xb6ed42c0	-7.070921e-06
142	0x00000000	0.0
143	0x00000000	0.0
144	0xb5f6f63e	-1.8400094e-06
145	0xb639034d	-2.756907e-06
146	0x00000000	0.0
147	0x00000000	0.0
148	0x38331e1c	4.2704967e-05
149	0x37940895	1.7646971e-05
150	0x00000000	0.0
151	0x00000000	0.0
152	0xb44d3cfe	-1.9114302e-07
153	0xb44d5ae0	-1.9125173e-07
154	0x00000000	0.0
155	0x00000000	0.0
156	0x384ebcde	4.9290124e-05
157	0x37d71b5c	2.5642737e-05
158	0x00000000	0.0
159	0x00000000	0.0
160	0x3334de0b	4.2111463e-08
161	0x338c6f55	6.539509e-08
162	0x00000000	0.0
163	0x00000000	0.0
164	0x38d850ed	0.00010314756
165	0x38594fb4	5.181106e-05
166	0x00000000	0.0
167	0x00000000	0.0
168	0xb70c8bf2	-8.377234e-06
169	0xb6828bf3	-3.890594e-06
170	0x00000000	0.0
171	0x00000000	0.0
172	0x3781deba	1.5481713e-05
173	0x36f6cb28	7.355022e-06
174	0x00000000	0.0
175	0x00000000	0.0
176	0x364c2633	3.0420604e-06
177	0x35e1605a	1.6791848e-06
178	0x00000000	0.0
179	0x00000000	0.0
180	0xb5c60d47	-1.4756014e-06
181	0xb53da4b0	-7.064764e-07
182	0x00000000	0.0
183	0x00000000	0.0
184	0xb7a69490	-1.9857922e-05
185	0xb7248ac7	-9.807473e-06
186	0x00000000	0.0
187	0x00000000	0.0
188	0x37768283	1.469313e-05
189	0x36f8407d	7.3984834e-06
190	0x00000000	0.0
191	0x00000000	0.0
192	0xb6ad2e2f	-5.1611783e-06
193	0xb68cfef5	-4.202006e-06
194	0x00000000	0.0
195	0x00000000	0.0
196	0xb686401a	-4.0009736e-06
197	0xb6b49ee6	-5.3829162e-06
198	0x00000000	0.0
199	0x00000000	0.0
200	0x3819d4b3	3.6676134e-05
201	0x3795012e	1.7762733e-05
202	0x00000000	0.0
203	0x00000000	0.0
204	0x37a4b431	1.9634232e-05
205	0x36b5bb0f	5.415997e-06
206	0x00000000	0.0
207	0x00000000	0.0
208	0x38ea1d3a	0.000111634334
209	0x386a6788	5.588637e-05
210	0x00000000	0.0
211	0x00000000	0.0
212	0x3831166f	4.222098e-05
213	0x37acf2bd	2.0617032e-05
214	0x00000000	0.0
215	0x00000000	0.0
216	0x36000819	1.90782e-06
217	0x353678cd	6.797607e-07
218	0x00000000	0.0
219	0x00000000	0.0
220	0xb640547f	-2.8659413e-06
221	0xb61b7e45	-2.3170298e-06
222	0x00000000	0.0
223	0x00000000	0.0
224	0x363f24cf	2.8482643e-06
225	0x35c74fde	1.48499e-06
226	0x00000000	0.0
227	0x00000000	0.0
228	0xb5b00c45	-1.3116593e-06
229	0xb55bea94	-8.1925214e-07
230	0x00000000	0.0
231	0x00000000	0.0
232	0xb715e749	-8.934942e-06
233	0xb6b502bb	-5.394538e-06
234	0x00000000	0.0
235	0x00000000	0.0
236	0x348102c7	2.4030143e-07
237	0x347083f6	2.2399749e-07
238	0x00000000	0.0
239	0x00000000	0.0
240	0x38b2a0db	8.517663e-05
241	0x383c9c75	4.4968405e-05
242	0x00000000	0.0
243	0x00000000	0.0
244	0xb67e2206	-3.7868754e-06
245	0xb6473dd7	-2.9689306e-06
246	0x00000000	0.0
247	0x00000000	0.0
248	0x37740499	1.4544604e-05
249	0x37078044	8.076491e-06
250	0x00000000	0.0
251	0x00000000	0.0
252	0x35eda082	1.770459e-06
253	0x355c989d	8.217847e-07
254	0x00000000	0.0
255	0x00000000	0.0

exp_avg_sq f4 [256, 64]
0	0x2a11a3ed	1.293546e-13
1	0x2b1c74bd	5.558434e-13
2	0x2a2744f6	1.4856505e-13
3	0x29225eb2	3.605336e-14
4	0x2aa16cb9	2.8674787e-13
5	0x2aa8e829	3.0003888e-13
6	0x2a847250	2.352723e-13
7	0x2abcb390	3.3520105e-13
8	0x2bf15255	1.7146932e-12
9	0x29981a3a	6.7547056e-14
10	0x2bf37328	1.7298151e-12
11	0x294e3280	4.578499e-14
12	0x2ab8a0d9	3.2796576e-13
13	0x28f5c79d	2.7287033e-14
14	0x2c3d3ad6	2.6891176e-12
15	0x296e97b9	5.2978214e-14
16	0x2ac6f565	3.5342142e-13
17	0x297455bc	5.4253246e-14
18	0x2c455913	2.804483e-12
19	0x29e19bf7	1.0019063e-13
20	0x294752e5	4.4258776e-14
21	0x29f17bc2	1.07240185e-13
22	0x2b3db185	6.7392646e-13
23	0x2b031385	4.656764e-13
24	0x29a32ba0	7.246222e-14
25	0x2ad60084	3.8014394e-13
26	0x29e9b225	1.0378182e-13
27	0x2adc2763	3.910718e-13
28	0x28fc7afc	2.8030956e-14
29	0x2a6f481b	2.1252481e-13
30	0x2adb2b38	3.8932204e-13
31	0x2b1a3694	5.4787533e-13
32	0x2bf108df	1.7126542e-12
33	0x2aea3888	4.1605976e-13
34	0x2a3452b0	1.60159e-13
35	0x2b3b7f43	6.6612357e-13
36	0x2acd02f3	3.6417362e-13
37	0x2c329091	2.5375572e-12
38	0x28d7bbac	2.3951185e-14
39	0x2a89f6b6	2.450728e-13
40	0x27f0052c	6.661899e-15
41	0x2c03577a	1.866478e-12
42	0x2b07d85e	4.8261904e-13
43	0x2b0c13c2	4.976541e-13
44	0x29776d45	5.4939794e-14
45	0x299bc133	6.9168975e-14
46	0x2ae40e5c	4.05109e-13
47	0x29c721e0	8.8432517e-14
48	0x2a171376	1.3418246e-13
49	0x2ad1158c	3.714081e-13
50	0x29c4e985	8.744658e-14
51	0x2bf40c9e	1.7340745e-12
52	0x2c4f2249	2.9435501e-12
53	0x2bfd8948	1.8014834e-12
54	0x28a558e7	1.8357235e-14
55	0x2b73016f	8.633293e-13
56	0x2a02c6b6	1.1615261e-13
57	0x296a96ff	5.2089406e-14
58	0x2a1296dc	1.3019745e-13
59	0x28718952	1.3407964e-14
60	0x2ac5f5ab	3.5164696e-13
61	0x294d9908	4.5651877e-14
62	0x2a5cbd1b	1.9605534e-13
63	0x2952a94b	4.6776205e-14
64	0x2a0d2b66	1.2538373e-13
65	0x2bc9a255	1.4326965e-12
66	0x299da15b	7.000191e-14
67	0x29453295	4.378666e-14
68	0x2abb6900	3.329073e-13
69	0x2b046956	4.7042004e-13
70	0x2b0e00f3	5.044985e-13
71	0x2b3c8293	6.6972225e-13
72	0x2b988c5c	1.0839207e-12
73	0x2a119586	1.2930463e-13
74	0x2bfde7f8	1.8041115e-12
75	0x29a6a3ed	7.4003175e-14
76	0x2a38d49d	1.6416248e-13
77	0x288abdb8	1.5403355e-14
78	0x2c4795ba	2.8362716e-12
79	0x293e35cd	4.223514e-14
80	0x2ae96ac5	4.14632e-13
81	0x2945a399	4.3884686e-14
82	0x2c0f32d4	2.0349738e-12
83	0x2a0f4c71	1.2727472e-13
84	0x298a072a	6.129674e-14
85	0x297e91cd	5.652579e-14
86	0x2b9576af	1.0620028e-12
87	0x2a5820e6	1.9196068e-13
88	0x29ddca4b	9.849464e-14
89	0x2a535dbe	1.8773088e-13
90	0x29ca923a	8.995968e-14
91	0x2b2ae136	6.0708675e-13
92	0x28e93918	2.5892957e-14
93	0x29fdc1c3	1.1269069e-13
94	0x2b14dfb2	5.28906e-13
95	0x2b4db725	7.3084795e-13
96	0x2c31cf21	2.5268192e-12
97	0x2a88b8c2	2.4286655e-13
98	0x29e564cf	1.01871304e-13
99	0x2ba24b09	1.1531619e-12
100	0x2b10d4bd	5.145431e-13
101	0x2c4ca34e	2.9080796e-12
102	0x28fd0db5	2.8094587e-14
103	0x29e1b234	1.00229205e-13
104	0x2850c2ba	1.1588544e-14
105	0x2bd2b3cf	1.4971304e-12
106	0x2b7edb79	9.0543507e-13
107	0x2b0b6993	4.9529234e-13
108	0x29ebb074	1.0466706e-13
109	0x29747966	5.428418e-14
110	0x2ae58b4b	4.0775226e-13
111	0x2a313510	1.5739168e-13
112	0x2997ed73	6.746938e-14
113	0x2b0b0971	4.9395823e-13
114	0x29de47cd	9.871236e-14
115	0x2c1bdb0b	2.2148418e-12
116	0x2c5fb75a	3.1791987e-12
117	0x2c1fdd09	2.2717958e-12
118	0x28b2cd56	1.985102e-14
119	0x2bb907dc	1.3147222e-12
120	0x2a4ceba0	1.8200589e-13
121	0x287b647e	1.395509e-14
122	0x2987fe64	6.039334e-14
123	0x28a0309f	1.7784654e-14
124	0x2a19f48b	1.3673973e-13
125	0x291a5f82	3.427771e-14
126	0x2ae4c894	4.0640115e-13
127	0x29ee2eac	1.05774195e-13
128	0x2ae5b717	4.0805616e-13
129	0x2bab9987	1.2192893e-12
130	0x2c1a0b5f	2.1891028e-12
131	0x2af0f398	4.280159e-13
132	0x2c49f9f5	2.8702572e-12
133	0x2c708794	3.4181312e-12
134	0x2bbf4af4	1.359217e-12
135	0x2bdc6815	1.5660829e-12
136	0x2d90e4eb	1.6472565e-11
137	0x2b04174e	4.692816e-13
138	0x2d88b10c	1.5540035e-11
139	0x2b42ff16	6.927665e-13
140	0x2ca97d49	4.8171783e-12
141	0x2a0b712e	1.2384947e-13
142	0x2df2119a	2.7520031e-11
143	0x2b32e5e2	6.355733e-13
144	0x2cd1a484	5.958402e-12
145	0x2a9b4e4a	2.7587855e-13
146	0x2dc94057	2.2879627e-11
147	0x2b6e7f12	8.473093e-13
148	0x2ad0d105	3.709326e-13
149	0x2b907bb4	1.026615e-12
150	0x2d1c9e7b	8.902763e-12
151	0x2cb27610	5.072172e-12
152	0x2b80e464	9.158338e-13
153	0x2cbf8925	5.4437726e-12
154	0x2b1df783	5.6121096e-13
155	0x2c9b3e62	4.412291e-12
156	0x2a8f1c95	2.5421736e-13
157	0x2c29997f	2.4101552e-12
158	0x2c868945	3.823749e-12
159	0x2ce4afca	6.4996663e-12
160	0x2dbc2398	2.1388932e-11
161	0x2bf994d8	1.7733827e-12
162	0x2b74d4d7	8.698159e-13
163	0x2cbd809a	5.3859807e-12
164	0x2cb523a7	5.1482876e-12
165	0x2dc42b36	2.230181e-11
166	0x2b61cd34	8.0220834e-13
167	0x2c507a03	2.9626308e-12
168	0x2972b08d	5.3887928e-14
169	0x2d98da70	1.7377405e-11
170	0x2c88105f	3.86717e-12
171	0x2cd5e47a	6.07919e-12
172	0x2a16191b	1.3331387e-13
173	0x2baf16c9	1.2440822e-12
174	0x2c5d56c6	3.1454158e-12
175	0x2abffcca	3.4103823e-13
176	0x2b38831e	6.5551893e-13
177	0x2c0d79dd	2.0104953e-12
178	0x2ade7e77	3.9522874e-13
179	0x2d8eb90a	1.6225705e-11
180	0x2dd27325	2.392537e-11
181	0x2da731b1	1.900777e-11
182	0x2a96963b	2.6749596e-13
183	0x2d4b865c	1.1569048e-11
184	0x2ba8a7f7	1.1983738e-12
185	0x2af39d49	4.327461e-13
186	0x2b662290	8.176038e-13
187	0x2a1fc659	1.4190853e-13
188	0x2c793c18	3.5418387e-12
189	0x2ab73278	3.254235e-13
190	0x2c005f0e	1.824266e-12
191	0x2af18846	4.2904759e-13
192	0x2a877d14	2.4067608e-13
193	0x2d1e5968	9.001112e-12
194	0x2c8c45ce	3.986789e-12
195	0x2cc76f39	5.6682684e-12
196	0x2d432ca0	1.1094375e-11
197	0x2d9a2992	1.7526234e-11
198	0x2d20eb28	9.147162e-12
199	0x2c7a7198	3.5590194e-12
200	0x2dcb1e8c	2.3091994e-11
201	0x2c76025c	3.4960012e-12
202	0x2e31970d	4.03793e-11
203	0x2cf77eb2	7.0342282e-12
204	0x2d0976f7	7.813964e-12
205	0x2ad0b377	3.707275e-13
206	0x2e8a8e7d	6.3008244e-11
207	0x2b28fea1	6.003896e-13
208	0x2e01377b	2.938048e-11
209	0x2abf0d74	3.393775e-13
210	0x2e70102c	5.4584046e-11
211	0x2c99e19f	4.3735705e-12
212	0x2a9ff5f2	2.8414733e-13
213	0x2c2b6c5c	2.4360713e-12
214	0x2dc03088	2.1849425e-11
215	0x2d63b788	1.2944208e-11
216	0x2ca2e97b	4.6302385e-12
217	0x2dc43fd0	2.2310959e-11
218	0x2b31c888	6.3161325e-13
219	0x2dade37f	1.9768851e-11
220	0x2c28102e	2.3883217e-12
221	0x2ca02775	4.551854e-12
222	0x2d786803	1.4120263e-11
223	0x2d60970b	1.2766464e-11
224	0x2e7558ec	5.578553e-11
225	0x2b2c0460	6.1112747e-13
226	0x2b485153	7.1167134e-13
227	0x2dc861a9	2.2780737e-11
228	0x2d50a042	1.18590155e-11
229	0x2e4a5395	4.6003718e-11
230	0x2b6c04c0	8.3850635e-13
231	0x2c4b73ee	2.891239e-12
232	0x2a68df3f	2.0683193e-13
233	0x2de8f243	2.6482932e-11
234	0x2dac4363	1.9584062e-11
235	0x2d13cd0a	8.40151e-12
236	0x2b29e449	6.035767e-13
237	0x2bef3ec6	1.6999395e-12
238	0x2cf2ef8c	6.9046487e-12
239	0x2bfeba0f	1.8099427e-12
240	0x2b26ce15	5.9261043e-13
241	0x2c8c4bcf	3.9874558e-12
242	0x2ac3108b	3.4650437e-13
243	0x2e145631	3.3727857e-11
244	0x2e407766	4.3761793e-11
245	0x2e64e993	5.2048654e-11
246	0x2c11d73f	2.0725225e-12
247	0x2e541335	4.822028e-11
248	0x2d3ebed7	1.08426245e-11
249	0x2a5cbab4	1.9604701e-13
250	0x2ab6d56c	3.2477786e-13
251	0x2b3f3135	6.792512e-13
252	0x2caed7c8	4.969334e-12
253	0x2b92ffa3	1.0444877e-12
254	0x2c66e689	3.2812939e-12
255	0x2c84a16d	3.7695875e-12

exp_avg f4 [256, 64]
0	0xb417d7c9	-1.4141473e-07
1	0xb3d742ac	-1.0023845e-07
2	0xb371546e	-5.6188973e-08
3	0xb3a50678	-7.684588e-08
4	0xb3c3dd97	-9.120702e-08
5	0xb2c25f13	-2.2627807e-08
6	0x32da1a9e	2.5390644e-08
7	0xb3679a5d	-5.392427e-08
8	0x34a4c29b	3.0688975e-07
9	0xb2d9c75c	-2.5352783e-08
10	0x34a21050	3.018672e-07
11	0xb351cda7	-4.8848644e-08
12	0x340cd15e	1.3114683e-07
13	0x329c7283	1.8212864e-08
14	0x34ae84ed	3.2506742e-07
15	0x32fdbe82	2.953971e-08
16	0x33479cc8	4.647589e-08
17	0xb3a61798	-7.734269e-08
18	0x34be4538	3.544062e-07
19	0x33767678	5.7384085e-08
20	0xb366caf6	-5.373564e-08
21	0x337771d6	5.7612702e-08
22	0x33587a98	5.0402917e-08
23	0x34345ce2	1.6797597e-07
24	0x33129e28	3.4137116e-08
25	0x33db9242	1.0224586e-07
26	0xb3ecb117	-1.1021819e-07
27	0x3389350f	6.389211e-08
28	0x329779e5	1.7634145e-08
29	0x33dc7991	1.0266661e-07
30	0x33389a67	4.2981267e-08
31	0x33d9e2c7	1.01461005e-07
32	0xb40c9184	-1.3091454e-07
33	0x342a1e5f	1.5843533e-07
34	0x340f0669	1.3320245e-07
35	0x33a896c0	7.850531e-08
36	0xb32a8334	-3.9700538e-08
37	0xb4b14ad8	-3.3023275e-07
38	0xb25c7efe	-1.283456e-08
39	0x340ff8cb	1.3408423e-07
40	0x32862c24	1.5619726e-08
41	0xb4b98f8b	-3.4563377e-07
42	0x33e216c8	1.0528089e-07
43	0x33ec4ec7	1.1003936e-07
44	0x32826725	1.5180897e-08
45	0x338aad84	6.457688e-08
46	0xb414706c	-1.3824473e-07
47	0x33608495	5.2274647e-08
48	0x32bfcddd	2.2328942e-08
49	0x32498e5a	1.1732107e-08
50	0xb3dc11f6	-1.02478154e-07
51	0x34861fac	2.498249e-07
52	0xb4db958d	-4.090074e-07
53	0x346662b3	2.1456326e-07
54	0x3295d539	1.7442845e-08
55	0xb181587e	-3.7644545e-09
56	0x3388f1bb	6.376964e-08
57	0x33c83a85	9.3238704e-08
58	0x32b4086a	2.0958584e-08
59	0xb2ef0fe2	-2.7830485e-08
60	0xb447a414	-1.859301e-07
61	0xb30c89c4	-3.2721587e-08
62	0x33aad946	7.955764e-08
63	0xb2964284	-1.7492546e-08
64	0xb478b355	-2.316204e-07
65	0xb46b044f	-2.1887648e-07
66	0xb424e455	-1.5356757e-07
67	0xb40a5c8d	-1.2885921e-07
68	0xb44f8d36	-1.932975e-07
69	0xb406df99	-1.2561067e-07
70	0x339b33d2	7.227176e-08
71	0xb3fd32e1	-1.17904854e-07
72	0x352faac4	6.5441077e-07
73	0x31d9e906	6.342023e-09
74	0x3513a8d9	5.5007473e-07
75	0xb3983538	-7.087732e-08
76	0x348742de	2.5194362e-07
77	0x330b79cc	3.2474233e-08
78	0x352d323b	6.4520617e-07
79	0x33bc174d	8.7586706e-08
80	0x337746ae	5.7573452e-08
81	0xb4060388	-1.2481007e-07
82	0x355a2a02	8.127246e-07
83	0x33b15d4d	8.259176e-08
84	0xb399e5b6	-7.166402e-08
85	0x3417d467	1.4140242e-07
86	0x33d5d4f1	9.957319e-08
87	0x34bee07e	3.5553597e-07
88	0x33aad6b4	7.955296e-08
89	0x3469b6fe	2.1766388e-07
90	0xb40a933a	-1.2905812e-07
91	0x338044a4	5.97295e-08
92	0x323008f4	1.0246584e-08
93	0x33ad9a91	8.084056e-08
94	0x3426f085	1.5547455e-07
95	0x344b6def	1.8945842e-07
96	0xb4a86721	-3.1367475e-07
97	0x34bce826	3.518664e-07
98	0x348f947c	2.6743862e-07
99	0x3426b0a6	1.5524219e-07
100	0xb328a585	-3.9266087e-08
101	0xb52db9a2	-6.4717653e-07
102	0xb2e26665	-2.6356426e-08
103	0x348953b9	2.5579155e-07
104	0x32c06e34	2.2401856e-08
105	0xb5318cfc	-6.61428e-07
106	0x34466bf0	1.8479454e-07
107	0x346e031e	2.2166611e-07
108	0xb2f07499	-2.79927e-08
109	0x33e82fed	1.08120595e-07
110	0xb4a14727	-3.0040357e-07
111	0x340caea9	1.3102057e-07
112	0xb36ad839	-5.4679024e-08
113	0x340d06cd	1.3134122e-07
114	0xb42724d8	-1.556649e-07
115	0x34ee0f28	4.4341982e-07
116	0xb55b529f	-8.1704087e-07
117	0x34f3534d	4.5322886e-07
118	0x32c898c9	2.3352543e-08
119	0x33940116	6.8919846e-08
120	0x33bd0d48	8.803414e-08
121	0x3398ace5	7.109501e-08
122	0x33f7cf98	1.1539595e-07
123	0xb291183d	-1.6891244e-08
124	0xb4cd4bc3	-3.823935e-07
125	0x30012f53	4.699718e-10
126	0x3431798a	1.6528625e-07
127	0xb25ec652	-1.29671935e-08
128	0xb507faf1	-5.0656587e-07
129	0xb51b9d8a	-5.797125e-07
130	0xb4e68bd8	-4.2942588e-07
131	0xb4a2d290	-3.0328056e-07
132	0xb504a4d4	-4.941369e-07
133	0xb4b1e737	-3.313705e-07
134	0x3471422f	2.2468951e-07
135	0xb4ad8758	-3.2322237e-07
136	0x35e2f283	1.6908892e-06
137	0x33b278a8	8.310718e-08
138	0x35b36016	1.3364504e-06
139	0xb4201b74	-1.4911149e-07
140	0x352d4f4d	6.456292e-07
141	0x33ed7d86	1.1059005e-07
142	0x35d50e85	1.5873962e-06
143	0x34944182	2.761481e-07
144	0x3417dc90	1.4143211e-07
145	0xb4aca919	-3.216053e-07
146	0x360f22b8	2.132887e-06
147	0x344721cf	1.8545619e-07
148	0xb4355fc8	-1.6891784e-07
149	0x34bd9c90	3.5317908e-07
150	0x34759098	2.2870006e-07
151	0x35786b5e	9.254344e-07
152	0x344911f4	1.8726115e-07
153	0x35151547	5.553779e-07
154	0xb4a2e363	-3.0340297e-07
155	0x33caecb7	9.449416e-08
156	0xb3856ead	-6.213427e-08
157	0x3478db87	2.3176663e-07
158	0x34db25f5	4.0819546e-07
159	0x34f014ad	4.4718527e-07
160	0xb557f13b	-8.044478e-07
161	0x35712f30	8.9848163e-07
162	0x3536e2e8	6.8130475e-07
163	0x34bb8981	3.4931512e-07
164	0xb39bf38f	-7.262053e-08
165	0xb5d62869	-1.5956003e-06
166	0xb32ba75d	-3.9966256e-08
167	0x35348e48	6.726227e-07
168	0x33313b20	4.1264798e-08
169	0xb5dada84	-1.6305862e-06
170	0x34d0dd31	3.8903957e-07
171	0x35138a18	5.496272e-07
172	0xb416ef89	-1.4056981e-07
173	0x3469dda2	2.1780446e-07
174	0xb53e8c7b	-7.098494e-07
175	0x34c85cd1	3.7320436e-07
176	0xb4340ab7	-1.6767704e-07
177	0x34dae458	4.0771806e-07
178	0xb4e0d3ac	-4.1877263e-07
179	0x358b7964	1.0391636e-06
180	0xb60707d0	-2.0121115e-06
181	0x35995f51	1.1427129e-06
182	0x339b7263	7.238557e-08
183	0x34774e3e	2.3032132e-07
184	0x345bec0d	2.0481839e-07
185	0x336bbef7	5.4888883e-08
186	0x34ab6ed6	3.1931876e-07
187	0xafa7faad	-3.055524e-10
188	0xb586c649	-1.0041487e-06
189	0x32d6969a	2.4981365e-08
190	0x34ef488f	4.4570012e-07
191	0x32131b49	8.56273e-09
192	0xb4badfcd	-3.4808036e-07
193	0xb4c1ac19	-3.607427e-07
194	0xb49ee5ac	-2.9596902e-07
195	0xb4766ca9	-2.2950066e-07
196	0xb4bdd905	-3.5361896e-07
197	0xb44fe219	-1.9360631e-07
198	0x340d6006	1.3166581e-07
199	0xb44fca16	-1.9351896e-07
200	0x35a913d6	1.2597254e-06
201	0x32f1b1af	2.8136894e-08
202	0x358852fc	1.0156941e-06
203	0xb3e2d6f8	-1.0563048e-07
204	0x350292f1	4.86426e-07
205	0x33b8c43d	8.603863e-08
206	0x35a20047	1.2070021e-06
207	0x34447d68	1.8299545e-07
208	0x3406c0a2	1.2549802e-07
209	0xb483bf83	-2.4539995e-07
210	0x35cf9f77	1.5469112e-06
211	0x342e95b8	1.625948e-07
212	0xb4098731	-1.2808302e-07
213	0x348130fb	2.406376e-07
214	0x345df948	2.0672917e-07
215	0x352eb1be	6.50787e-07
216	0x3406ae41	1.2543116e-07
217	0x34c5a29c	3.6812423e-07
218	0xb486704a	-2.5041146e-07
219	0x34048cdc	1.2344702e-07
220	0xb36d38ee	-5.523264e-08
221	0x34694824	2.172606e-07
222	0x348b8f16	2.5994876e-07
223	0x34c6e5fe	3.7047715e-07
224	0xb5224e83	-6.046395e-07
225	0x351f7654	5.9404306e-07
226	0x34fbb62a	4.6884935e-07
227	0x3492cb7b	2.734267e-07
228	0xb3de130e	-1.03411466e-07
229	0xb5a86614	-1.2546684e-06
230	0xb2b5fc0d	-2.1185793e-08
231	0x35040be1	4.919112e-07
232	0x3306a51f	3.1349483e-08
233	0xb5a9ad27	-1.2641875e-06
234	0x349ef07d	2.9604772e-07
235	0x34db550d	4.085381e-07
236	0xb3a68497	-7.754095e-08
237	0x341dcc5a	1.4696107e-07
238	0xb5054b84	-4.965625e-07
239	0x34774d8f	2.3031883e-07
240	0xb386d9bf	-6.279469e-08
241	0x346362ea	2.1177007e-07
242	0xb4ac8f1e	-3.2141628e-07
243	0x3564c3c9	8.5221524e-07
244	0xb5d130a7	-1.5585873e-06
245	0x356bc585	8.783175e-07
246	0x338b8aae	6.4979176e-08
247	0x33e011a6	1.0434023e-07
248	0x341e9ca2	1.477188e-07
249	0x33aee870	8.1447865e-08
250	0x342ff926	1.6388785e-07
251	0xb24aa229	-1.17948185e-08
252	0xb542e73e	-7.2607133e-07
253	0xb28a54e5	-1.610392e-08
254	0x34a322e8	3.0386514e-07
255	0xb2044f17	-7.701394e-09

exp_avg_sq f4 [2, 64]
0	0x338b4cf2	6.486688e-08
1	0x34d56c22	3.975302e-07
2	0x34c97a09	3.752796e-07
3	0x34332b6d	1.6686472e-07
4	0x351a8c78	5.757388e-07
5	0x3535c0ee	6.7708504e-07
6	0x34cd5a50	3.8249937e-07
7	0x34e0e633	4.1890743e-07
8	0x36716303	3.596943e-06
9	0x33fb32b9	1.1697325e-07
10	0x366caff9	3.526917e-06
11	0x34437487	1.8203183e-07
12	0x35717d8f	8.996221e-07
13	0x333946f0	4.3138186e-08
14	0x36c48d72	5.8577216e-06
15	0x33f7cdf6	1.1539298e-07
16	0x359a8b75	1.1514481e-06
17	0x33a825e0	7.829999e-08
18	0x36ab3bb5	5.103148e-06
19	0x34834cc2	2.44565e-07
20	0x33f9159a	1.15988954e-07
21	0x342595bd	1.5421297e-07
22	0x35f4b01b	1.823067e-06
23	0x3561c6e1	8.410844e-07
24	0x34446044	1.8288944e-07
25	0x35708fdf	8.961633e-07
26	0x343e280b	1.7709696e-07
27	0x35866a41	1.0014702e-06
28	0x33a81b78	7.828106e-08
29	0x350d2c78	5.2591304e-07
30	0x355a7624	8.1383246e-07
31	0x35b4cf1f	1.3471325e-06
32	0x368c572d	4.1824737e-06
33	0x346a8901	2.184279e-07
34	0x3458bc2f	2.0185028e-07
35	0x35b7342d	1.3649748e-06
36	0x35898d6d	1.0248456e-06
37	0x36b164e4	5.2867563e-06
38	0x3414200f	1.3795237e-07
39	0x35010b32	4.8072536e-07
40	0x320c0058	8.149151e-09
41	0x36837588	3.9177867e-06
42	0x35854aab	9.931003e-07
43	0x35a8a556	1.2565094e-06
44	0x335c3660	5.1272195e-08
45	0x34346289	1.6799653e-07
46	0x3522e23a	6.0678906e-07
47	0x33d73ab6	1.0022397e-07
48	0x344f1db6	1.9289186e-07
49	0x35068e0f	5.012561e-07
50	0x34310fe9	1.6490198e-07
51	0x367c8266	3.7626828e-06
52	0x36bee424	5.6890003e-06
53	0x368d8832	4.2179827e-06
54	0x33a369d9	7.6095326e-08
55	0x362793ad	2.4970898e-06
56	0x34ad615b	3.2294597e-07
57	0x3412fdd2	1.3689649e-07
58	0x34266ce5	1.549957e-07
59	0x331ee236	3.699298e-08
60	0x3532eb0e	6.6652217e-07
61	0x33d44431	9.884423e-08
62	0x34c2ecd9	3.6307645e-07
63	0x341fea0f	1.4893179e-07
64	0x3420c4ba	1.497273e-07
65	0x356af22c	8.75242e-07
66	0x34e27746	4.2182563e-07
67	0x349691c0	2.8045724e-07
68	0x3551fa39	7.822269e-07
69	0x3561f2ad	8.417217e-07
70	0x351162e6	5.4160625e-07
71	0x35317ebd	6.6122067e-07
72	0x36a2b6fa	4.8492775e-06
73	0x34425b35	1.8100839e-07
74	0x369f4b40	4.7473295e-06
75	0x348dcbe8	2.6411658e-07
76	0x3579fb31	9.312526e-07
77	0x337e86d4	5.926161e-08
78	0x3704b405	7.909727e-06
79	0x340696de	1.2534608e-07
80	0x35a6fef9	1.2442171e-06
81	0x33e8d548	1.08421375e-07
82	0x3703f26e	7.8646535e-06
83	0x34b021be	3.2807105e-07
84	0x33c91af2	9.364693e-08
85	0x345dd872	2.0660971e-07
86	0x3616ca57	2.246952e-06
87	0x3595f0fe	1.1171503e-06
88	0x34908114	2.6916007e-07
89	0x358c5d2f	1.0457933e-06
90	0x34424301	1.8092034e-07
91	0x35a7036c	1.2443465e-06
92	0x33e6e3ca	1.0751644e-07
93	0x34eb3e19	4.3817343e-07
94	0x358b68bf	1.0386792e-06
95	0x35df9bce	1.666014e-06
96	0x36b3d176	5.359e-06
97	0x351e892e	5.905921e-07
98	0x349eca11	2.9576816e-07
99	0x35e5c33c	1.711865e-06
100	0x3597a52e	1.129845e-06
101	0x3700a520	7.667841e-06
102	0x33b22918	8.296246e-08
103	0x350e75e0	5.3070653e-07
104	0x3271b1b7	1.4068454e-08
105	0x36aece9e	5.2096575e-06
106	0x35b3e7c6	1.3403994e-06
107	0x35b41cb9	1.3419404e-06
108	0x33d6570c	9.980985e-08
109	0x346af099	2.1880477e-07
110	0x35888b6f	1.017337e-06
111	0x3470adab	2.2414922e-07
112	0x3485e8e4	2.494263e-07
113	0x353a9faa	6.952274e-07
114	0x344633e4	1.8459065e-07
115	0x36ac2fd4	5.1315674e-06
116	0x370fde76	8.57526e-06
117	0x36c0cbb2	5.745759e-06
118	0x33b57080	8.448933e-08
119	0x36382950	2.7442184e-06
120	0x34fd1e3f	4.714693e-07
121	0x33c8c60a	9.349249e-08
122	0x3486dc7a	2.5119863e-07
123	0x330521dc	3.099727e-08
124	0x3550b24a	7.7745483e-07
125	0x34081480	1.2673445e-07
126	0x34e8a2c9	4.333181e-07
127	0x3483861a	2.4498223e-07

exp_avg f4 [2, 64]
0	0xb8d3a571	-0.0001009208
1	0xb923262f	-0.00015559116
2	0xb8dab0b6	-0.00010427965
3	0xb827e4dc	-4.0029045e-05
4	0xb8b6d054	-8.7172404e-05
5	0xb912868f	-0.00013973772
6	0x38a35e05	7.789958e-05
7	0xb8f02db2	-0.00011452603
8	0x398eaa5f	0.00027211287
9	0x388fe491	6.861345e-05
10	0x392dc9d1	0.00016573748
11	0xb7e36803	-2.7108943e-05
12	0x38c0123e	9.158671e-05
13	0x37878acd	1.6157888e-05
14	0x395fbf55	0.00021338214
15	0x38a55d87	7.885234e-05
16	0xb777c4a0	-1.4768128e-05
17	0xb835ea56	-4.3372005e-05
18	0x39d3483e	0.0004029888
19	0xb7615e25	-1.3432965e-05
20	0xb78ccccd	-1.6784668e-05
21	0x38c867e6	9.556096e-05
22	0xb671d16a	-3.6033694e-06
23	0x39423ffb	0.00018525116
24	0x38451e34	4.699659e-05
25	0x3913ef18	0.00014108082
26	0x37092dfa	8.176541e-06
27	0xb8888078	-6.5089145e-05
28	0xb72d5bfd	-1.0333021e-05
29	0xb85112d9	-4.9847036e-05
30	0x39083c93	0.00012992536
31	0x37d01b11	2.4808136e-05
32	0xb91034c5	-0.00013752568
33	0x39738d56	0.00023226938
34	0x3922557f	0.00015481374
35	0x381fab57	3.8068127e-05
36	0x387677f8	5.87627e-05
37	0xb92597e5	-0.00015792211
38	0xb7208e13	-9.569822e-06
39	0x38f25d3a	0.00011556824
40	0x35ffa144	1.9045915e-06
41	0xb93dacb2	-0.00018088779
42	0x3831b9bc	4.2373067e-05
43	0x38b7eb10	8.769904e-05
44	0xb895af59	-7.137535e-05
45	0x384691f0	4.7342794e-05
46	0xb9206d52	-0.00015299514
47	0x38f09382	0.00011471567
48	0xb8f16527	-0.000115106166
49	0x395153fd	0.00019963081
50	0xb80d0a90	-3.3626857e-05
51	0x38652515	5.463239e-05
52	0xb97d552d	-0.0002415969
53	0x39186e4a	0.00014536935
54	0xb72c5dcc	-1.0273838e-05
55	0x39187c51	0.00014542161
56	0x37fdb501	3.0244237e-05
57	0xb8563d8f	-5.1078907e-05
58	0x391ffe12	0.0001525807
59	0x37ad408f	2.065327e-05
60	0xb947de55	-0.00019060944
61	0x388c0680	6.676931e-05
62	0x38cc1195	9.730753e-05
63	0x38098ab3	3.279252e-05
64	0x39ba2190	0.0003550169
65	0x39e9e220	0.000446097
66	0x39b2435c	0.00034000992
67	0x3951b6ff	0.00019999965
68	0x39c64130	0.0003781407
69	0x399ab83d	0.00029510437
70	0xb9437eed	-0.00018643933
71	0x39924042	0.00027895166
72	0xbaa417fe	-0.0012519357
73	0xb8ce92fb	-9.850223e-05
74	0xba7e12b2	-0.0009692117
75	0x38ce8124	9.8469e-05
76	0xb9f851d5	-0.00047363216
77	0xb8b6b154	-8.711466e-05
78	0xba981fe6	-0.0011606186
79	0xb976552c	-0.00023492117
80	0xb8b39c63	-8.5645144e-05
81	0x3975ac13	0.00023429123
82	0xbad746e2	-0.0016424323
83	0xb8ffe438	-0.000122018566
84	0x38f1992e	0.000115203075
85	0xb990ab65	-0.0002759352
86	0xb9221b31	-0.00015459654
87	0xba3b5a36	-0.00071469264
88	0xb91c7ae4	-0.000149231
89	0xb9e13112	-0.00042951904
90	0x393f15cd	0.00018223301
91	0xb81482ca	-3.5407757e-05
92	0x387c52e3	6.0158676e-05
93	0xb9124f24	-0.00013953127
94	0xb9affbfd	-0.00033566347
95	0xb9a1c55d	-0.0003085536
96	0x3a210495	0.00061423454
97	0xba37eb32	-0.0007015943
98	0xba0829c1	-0.000519421
99	0xb977045c	-0.0002355738
100	0x378b052b	1.6572498e-05
101	0x3a9653c8	0.001146906
102	0x379eec5b	1.894513e-05
103	0xba03038d	-0.00049977825
104	0xb7ab5d2b	-2.0428173e-05
105	0x3a97e720	0.0011589266
106	0xb98bd583	-0.00026671225
107	0xb9cc2bc0	-0.00038942508
108	0x3919b447	0.00014658376
109	0xb91e9e97	-0.00015127134
110	0x3a0e47f8	0.00054275943
111	0xb99f9162	-0.00030435162
112	0x392ca7e6	0.00016465745
113	0xb9c6818d	-0.00037862026
114	0x399b2bef	0.00029596637
115	0xba3a403d	-0.0007104909
116	0x3abeed7c	0.0014566625
117	0xba5dc31b	-0.0008459554
118	0xb8418060	-4.6134344e-05
119	0xb975d2df	-0.00023443576
120	0xb915942a	-0.00014264943
121	0x38046eeb	3.1574553e-05
122	0xb99c0664	-0.000297594
123	0xb7b6a541	-2.1773043e-05
124	0x3a46cddc	0.0007583776
125	0xb856cf0d	-5.1214407e-05
126	0xb9b5ba03	-0.000346616
127	0xb7b16b4b	-2.1150006e-05

exp_avg_sq f4 [2]
0	0x39f55cf1	0.00046799288
1	0x3a3e6a1d	0.0007263737

exp_avg f4 [2]
0	0x3b08f7e4	0.0020899707
1	0xbc79db9b	-0.015250112

exp_avg_sq f4 [256]
0	0x2f921686	2.657325e-10
1	0x2f8f2e08	2.6044256e-10
2	0x30e5dbef	1.6724452e-09
3	0x313b50de	2.725805e-09
4	0x309d1125	1.1428126e-09
5	0x3086e780	9.81558e-10
6	0x315effe2	3.2450704e-09
7	0x30d8ef2c	1.5784045e-09
8	0x328c5e6e	1.6341087e-08
9	0x2f7a31eb	2.2755102e-10
10	0x31d1b289	6.1029977e-09
11	0x307e9778	9.261991e-10
12	0x31a52b55	4.8070583e-09
13	0x2e46bd19	4.518794e-11
14	0x31f98c65	7.262815e-09
15	0x2ef580aa	1.11641654e-10
16	0x30159d18	5.442913e-10
17	0x2e8886b0	6.208489e-11
18	0x330762bc	3.1521935e-08
19	0x300dde13	5.161109e-10
20	0x2f24d279	1.4990488e-10
21	0x2f982028	2.7671487e-10
22	0x31a05483	4.6662207e-09
23	0x3182d295	3.8074384e-09
24	0x3006ab8c	4.89927e-10
25	0x309027eb	1.0488724e-09
26	0x30228bc3	5.913387e-10
27	0x3123efcf	2.3855937e-09
28	0x2eb8091b	8.368969e-11
29	0x308a44a3	1.0060329e-09
30	0x3183a0f7	3.8309014e-09
31	0x319207c6	4.250043e-09
32	0x317402ba	3.5508223e-09
33	0x3051007f	7.603446e-10
34	0x310a2fc2	2.010879e-09
35	0x3202acb0	7.6062605e-09
36	0x312e36a2	2.5351388e-09
37	0x3234cf58	1.05245235e-08
38	0x3014f179	5.418524e-10
39	0x31076508	1.9702515e-09
40	0x2d16024a	8.527021e-12
41	0x32da00af	2.5378851e-08
42	0x31057f65	1.9426463e-09
43	0x312ba535	2.4977684e-09
44	0x2e4f26a2	4.7100664e-11
45	0x2e90f221	6.5913726e-11
46	0x30ce25e3	1.4999241e-09
47	0x2f61cdfc	2.0536811e-10
48	0x2f528c1b	1.9149164e-10
49	0x313b81e9	2.7285927e-09
50	0x3047a173	7.262521e-10
51	0x3273fc75	1.4201864e-08
52	0x33029d2a	3.0410924e-08
53	0x325008b8	1.2109176e-08
54	0x2fdbaa0f	3.9956702e-10
55	0x307fcacc	9.305665e-10
56	0x301a689d	5.617354e-10
57	0x2f35a86a	1.6521687e-10
58	0x2f0f6b60	1.3043921e-10
59	0x2dc8307a	2.2758895e-11
60	0x31a10707	4.6865156e-09
61	0x2f618b37	2.051309e-10
62	0x30e3f507	1.6586065e-09
63	0x30a66e21	1.210939e-09
64	0x2f8312fb	2.3842248e-10
65	0x2f935fcc	2.6807212e-10
66	0x30ca088b	1.4699862e-09
67	0x30982455	1.1069782e-09
68	0x3096d7de	1.097529e-09
69	0x3058da00	7.889014e-10
70	0x310a96e1	2.0167408e-09
71	0x308f1698	1.0411041e-09
72	0x32988fe7	1.7760568e-08
73	0x2f33e57c	1.6361484e-10
74	0x3187b6fc	3.94982e-09
75	0x300302f3	4.7661713e-10
76	0x3185d098	3.894524e-09
77	0x2e1fec99	3.6362555e-11
78	0x31adbf4a	5.0567097e-09
79	0x2ef9c95a	1.1358976e-10
80	0x30211487	5.860063e-10
81	0x2e8e8173	6.480407e-11
82	0x33098b6c	3.20246e-08
83	0x2feb10f4	4.2758297e-10
84	0x2ec8d72b	9.1331685e-11
85	0x2fb8905f	3.3571987e-10
86	0x319e0b52	4.599692e-09
87	0x313c5e1e	2.74111e-09
88	0x2faa0df0	3.0932723e-10
89	0x30b91aa0	1.3468089e-09
90	0x303023f2	6.407951e-10
91	0x30f5adbd	1.7875476e-09
92	0x2eb6dce7	8.315642e-11
93	0x30a155a8	1.1738637e-09
94	0x31317565	2.582362e-09
95	0x31377c24	2.670057e-09
96	0x31969f9e	4.383721e-09
97	0x308cbb4a	1.0239571e-09
98	0x30964bae	1.0935446e-09
99	0x31edbf58	6.919361e-09
100	0x315972db	3.1642944e-09
101	0x32187d99	8.876122e-09
102	0x300c7f54	5.111265e-10
103	0x3106c52b	1.9611643e-09
104	0x2cedcb56	6.75852e-12
105	0x32c0e647	2.245646e-08
106	0x30fd63bd	1.843652e-09
107	0x30fe4ba1	1.8502427e-09
108	0x2df9c7fc	2.8396833e-11
109	0x2e4760c4	4.5333307e-11
110	0x3112d108	2.1364617e-09
111	0x2ebbb4cf	8.5358935e-11
112	0x2f8ef32d	2.6002436e-10
113	0x313a79a5	2.713571e-09
114	0x2fea7e06	4.2653897e-10
115	0x32249a1f	9.5810995e-09
116	0x32d34cab	2.4598497e-08
117	0x321324c6	8.5648875e-09
118	0x2f7ffbfb	2.3281636e-10
119	0x30719548	8.788743e-10
120	0x2fc8faf1	3.6558093e-10
121	0x2f338c67	1.6329836e-10
122	0x2f591a5d	1.9745401e-10
123	0x2d493a9a	1.1438539e-11
124	0x31854fdf	3.8798897e-09
125	0x2efcbad7	1.1492823e-10
126	0x30bdd074	1.3810806e-09
127	0x3029ab97	6.1725686e-10
128	0x36106ab1	2.1519775e-06
129	0x34831620	2.441675e-07
130	0x35b40aef	1.3414227e-06
131	0x35bfd380	1.4292164e-06
132	0x34f8a26a	4.6311771e-07
133	0x34eb6d71	4.385179e-07
134	0x35d28f26	1.5687881e-06
135	0x352ba503	6.394259e-07
136	0x35fa04ea	1.8627882e-06
137	0x343ae031	1.740416e-07
138	0x34d6a32f	3.9979338e-07
139	0x34c8385d	3.7293913e-07
140	0x35d0a2de	1.5544608e-06
141	0x34662519	2.1433915e-07
142	0x346dec32	2.2158272e-07
143	0x341cde2c	1.4609458e-07
144	0x34020ea2	1.2112517e-07
145	0x3461fe1c	2.1047202e-07
146	0x364a6d5f	3.0164008e-06
147	0x34e15ec2	4.197846e-07
148	0x34236e1b	1.5220614e-07
149	0x34e881fc	4.3307944e-07
150	0x3586f385	1.0054652e-06
151	0x35d80ba7	1.6096645e-06
152	0x34c1e2a9	3.6113968e-07
153	0x35139d9e	5.499113e-07
154	0x35d0a801	1.5546103e-06
155	0x34785e3f	2.3131086e-07
156	0x34ebbf8f	4.3911538e-07
157	0x360b389f	2.0745572e-06
158	0x358278fc	9.720966e-07
159	0x34e414ca	4.2483435e-07
160	0x350d6a49	5.268126e-07
161	0x363ae81a	2.785126e-06
162	0x35e9dd7e	1.7424316e-06
163	0x3611aa12	2.1705678e-06
164	0x35af20d6	1.3048073e-06
165	0x350bcdb9	5.20809e-07
166	0x35c434b4	1.4618477e-06
167	0x35bf1c19	1.4238786e-06
168	0x3370cfbd	5.606829e-08
169	0x35d27364	1.5679802e-06
170	0x35493acd	7.49639e-07
171	0x34d7c7e4	4.019231e-07
172	0x343d5ff1	1.76369e-07
173	0x339dee9e	7.3542864e-08
174	0x35bb6f4d	1.3964979e-06
175	0x3485e751	2.4941485e-07
176	0x34d0f559	3.8921533e-07
177	0x35fa4216	1.8645685e-06
178	0x359fdff7	1.1911605e-06
179	0x35405f32	7.16641e-07
180	0x35dbcbaa	1.6376046e-06
181	0x35018b8f	4.825933e-07
182	0x351c776d	5.8288316e-07
183	0x33d1d0ad	9.770279e-08
184	0x3437a88b	1.7104519e-07
185	0x34df3e49	4.1582305e-07
186	0x350197f5	4.827737e-07
187	0x33a51f20	7.689073e-08
188	0x35f23750	1.8046503e-06
189	0x349e411d	2.947717e-07
190	0x35918caf	1.0844286e-06
191	0x352b1bb2	6.3742766e-07
192	0x2fa4cea3	2.997825e-10
193	0x2f91e669	2.6539063e-10
194	0x30cdd572	1.4976378e-09
195	0x311c6f04	2.2764093e-09
196	0x30bc2e20	1.369191e-09
197	0x308e9b36	1.0375973e-09
198	0x314c351b	2.9716094e-09
199	0x30a90120	1.2296688e-09
200	0x32c57005	2.2984759e-08
201	0x2f7856a6	2.2586252e-10
202	0x31d8af99	6.3063905e-09
203	0x3094513e	1.0791508e-09
204	0x319c7603	4.553614e-09
205	0x2e425daf	4.41937e-11
206	0x31decc19	6.4842536e-09
207	0x2eefbb19	1.0901697e-10
208	0x305bc0e8	7.994587e-10
209	0x2ea876ce	7.6608594e-11
210	0x32dde45c	2.5831632e-08
211	0x30244bdb	5.977065e-10
212	0x2f34a388	1.6429003e-10
213	0x2fb72b8f	3.3318456e-10
214	0x31be672a	5.541456e-09
215	0x316f5187	3.482542e-09
216	0x3001139e	4.6957804e-10
217	0x308a190b	1.0047939e-09
218	0x30099790	5.0055693e-10
219	0x31532caa	3.072993e-09
220	0x2f04cc5d	1.2077934e-10
221	0x305ec82e	8.10476e-10
222	0x316c3d16	3.4377243e-09
223	0x317c3ddb	3.6705987e-09
224	0x3189bf2b	4.008958e-09
225	0x304eb6bb	7.520204e-10
226	0x30a7f176	1.2219477e-09
227	0x31c42fa0	5.709765e-09
228	0x31364372	2.6522824e-09
229	0x324783e7	1.1613316e-08
230	0x2fd2a2f9	3.8314577e-10
231	0x30d9c5ab	1.5845009e-09
232	0x2d2514e2	9.383801e-12
233	0x33198430	3.5743312e-08
234	0x30e9e66c	1.7018471e-09
235	0x311f8a98	2.3216327e-09
236	0x2e75268a	5.574078e-11
237	0x2e95752b	6.796549e-11
238	0x3110dec9	2.1081397e-09
239	0x2f25353e	1.5025578e-10
240	0x2f3c2667	1.7112144e-10
241	0x311c21fb	2.2720303e-09
242	0x300ac79e	5.048778e-10
243	0x326c0ce4	1.3739939e-08
244	0x331d985d	3.6692985e-08
245	0x32543d1e	1.23539206e-08
246	0x2fa80a6b	3.0566424e-10
247	0x306f77ed	8.711812e-10
248	0x2fd59faa	3.8857922e-10
249	0x2f27dfbf	1.5268052e-10
250	0x2f01a639	1.1791536e-10
251	0x2dcc70cc	2.3242207e-11
252	0x31b8bb40	5.3763927e-09
253	0x2f2283ca	1.4780635e-10
254	0x30c1b6ee	1.409459e-09
255	0x30ab4e5c	1.2464159e-09

exp_avg f4 [256]
0	0x369e0134	4.708907e-06
1	0x371566e6	8.90505e-06
2	0x37b4d72b	2.1557868e-05
3	0x378e33a3	1.6951764e-05
4	0x3628bfbf	2.5145562e-06
5	0xb72b9b76	-1.022859e-05
6	0x376c2db6	1.4077339e-05
7	0xb31ca889	-3.6474862e-08
8	0x38976c93	7.2204646e-05
9	0x35512677	7.791454e-07
10	0x37d1e5fc	2.5021836e-05
11	0x3573a105	9.075887e-07
12	0x37eeca81	2.846611e-05
13	0x362bffff	2.5629995e-06
14	0x3789de7f	1.643528e-05
15	0x36b23bb5	5.311764e-06
16	0x33fffaab	1.1919959e-07
17	0x36a8add9	5.0270287e-06
18	0x38a8194a	8.015575e-05
19	0x352a7e0f	6.3513374e-07
20	0x36185765	2.2700635e-06
21	0x35e973a0	1.7393504e-06
22	0x33393634	4.3122967e-08
23	0x380eba9b	3.4029228e-05
24	0xb64bd738	-3.037463e-06
25	0x36969ba5	4.4884678e-06
26	0x372ab0d7	1.0173963e-05
27	0xb5c44e05	-1.4625845e-06
28	0x36374b46	2.731294e-06
29	0x35b0ed23	1.3182038e-06
30	0xb7781bfe	-1.4788469e-05
31	0x36af9c1f	5.2335813e-06
32	0x3677b377	3.691033e-06
33	0x375c9418	1.3147503e-05
34	0x381bae26	3.7117068e-05
35	0xb72d1a42	-1.0317717e-05
36	0xb65b03ee	-3.263583e-06
37	0x37e41b4a	2.7192425e-05
38	0xb45ffd4f	-2.0860647e-07
39	0x381a6842	3.681356e-05
40	0x339b0116	7.2179475e-08
41	0x389d796a	7.5089585e-05
42	0xb6c03f41	-5.7294096e-06
43	0x3738d481	1.1016732e-05
44	0x361f8fcc	2.3776547e-06
45	0xb58f0f75	-1.0658829e-06
46	0xb7719243	-1.4398774e-05
47	0x3737427c	1.092313e-05
48	0xb6b2847e	-5.3202375e-06
49	0xb6e565bd	-6.8365757e-06
50	0x37db08c9	2.6110925e-05
51	0x372634cd	9.906665e-06
52	0x38a7f141	8.0081176e-05
53	0x37f9fd0c	2.9800947e-05
54	0x35954764	1.1122142e-06
55	0xb651801d	-3.1217999e-06
56	0x360e4f01	2.1205635e-06
57	0xb588902f	-1.0174753e-06
58	0xb6fb843f	-7.4957784e-06
59	0x34b91d38	3.4480195e-07
60	0x3885cefd	6.380489e-05
61	0xb68182a3	-3.8597077e-06
62	0x373b7d8b	1.1175299e-05
63	0x35b8d08a	1.3769761e-06
64	0x36952fca	4.4461094e-06
65	0x369ed4f4	4.733558e-06
66	0x378ad73b	1.6551106e-05
67	0x37433df6	1.1637332e-05
68	0x35c9dda0	1.5040168e-06
69	0xb6e81587	-6.916645e-06
70	0x37113c19	8.656666e-06
71	0x34a1c6fb	3.0133364e-07
72	0x388e5101	6.786176e-05
73	0xb503c0a2	-4.908162e-07
74	0x379f67e9	1.9002664e-05
75	0x35339068	6.6892835e-07
76	0x37bf9253	2.2837112e-05
77	0x35d75205	1.6042619e-06
78	0x3744cac4	1.172972e-05
79	0x3680e64e	3.8415083e-06
80	0x3492f6fb	2.737432e-07
81	0x36a601cd	4.947395e-06
82	0x388d6c12	6.7435336e-05
83	0x3512543e	5.4511827e-07
84	0x36037ec6	1.9594313e-06
85	0x35482d6f	7.457192e-07
86	0xb4a90eb4	-3.14894e-07
87	0x37bf57f7	2.2809936e-05
88	0xb5f5b27e	-1.830587e-06
89	0x363acd99	2.7835833e-06
90	0x373c499e	1.1222814e-05
91	0xb61b25ba	-2.311876e-06
92	0x360e58cf	2.1211342e-06
93	0x3683eba4	3.9315364e-06
94	0xb735b334	-1.0830165e-05
95	0x3676768d	3.6725862e-06
96	0x366f376f	3.5646042e-06
97	0x37270f51	9.957542e-06
98	0x37cbfc4e	2.4316974e-05
99	0xb7106356	-8.606197e-06
100	0xb66661e4	-3.432965e-06
101	0x37aed717	2.0842575e-05
102	0xb4a897c8	-3.1402874e-07
103	0x3807e9cb	3.2404245e-05
104	0x335cd475	5.141597e-08
105	0x3887a8e3	6.468759e-05
106	0xb6a2a2b7	-4.8469187e-06
107	0x3706df16	8.038964e-06
108	0x35917210	1.0836538e-06
109	0xb575e1e1	-9.159831e-07
110	0xb77a7d8a	-1.49303905e-05
111	0x368ff337	4.290046e-06
112	0xb6ce6970	-6.151553e-06
113	0xb73e1f24	-1.1332133e-05
114	0x378caa7a	1.6768685e-05
115	0x36cc189d	6.082539e-06
116	0x3887bd30	6.4725406e-05
117	0x37b798b3	2.1886406e-05
118	0x35801db5	9.545389e-07
119	0xb650b09d	-3.1097218e-06
120	0x360a4ad0	2.060715e-06
121	0xb37fff53	-5.960403e-08
122	0xb6dfdb20	-6.6714274e-06
123	0x34394a44	1.7256485e-07
124	0x385b577c	5.2295145e-05
125	0xb62950e3	-2.5230045e-06
126	0x370e11fa	8.468045e-06
127	0x33891981	6.384199e-08
128	0xb9d72f18	-0.00041043083
129	0xb9db4f9e	-0.00041830254
130	0xba197ed3	-0.0005855385
131	0xba27bfb8	-0.0006399113
132	0xb8e95df9	-0.000111278096
133	0x39a9e15d	0.000324021
134	0x3a0a26c0	0.00052700564
135	0xb8afaeef	-8.377234e-05
136	0x3a28fd34	0.00064464216
137	0x391af6c3	0.0001477851
138	0x39846a41	0.00025256167
139	0xb8b95e99	-8.8391076e-05
140	0x3a1b0422	0.00059133966
141	0x395e3075	0.00021189621
142	0x39055a52	0.00012717515
143	0x39592d18	0.00020711531
144	0x38eaba3d	0.00011192679
145	0xb98eaba3	-0.0002721223
146	0x3a3fd533	0.0007317841
147	0x3889376d	6.542993e-05
148	0xb93e10f6	-0.0001812613
149	0x3905c7fb	0.00012758367
150	0x388e76be	6.793205e-05
151	0x3a19e04f	0.00058699114
152	0xb92d2626	-0.00016512777
153	0x399058a1	0.00027531854
154	0xba81eb00	-0.0009911954
155	0xb8bc4ec9	-8.9792135e-05
156	0xba15c255	-0.00057128567
157	0x3aa9ea13	0.0012963436
158	0xb9869d28	-0.00025675562
159	0x390d8a3a	0.00013498301
160	0xb8652954	-5.4636344e-05
161	0x3a309802	0.0006736518
162	0x3a462f8c	0.00075601856
163	0xb9f83507	-0.00047341755
164	0xb93ec1a1	-0.00018191944
165	0xb92f0cd5	-0.00016694081
166	0x39591bed	0.00020705136
167	0x3a7b17fb	0.00095784635
168	0x37bf3f73	2.279852e-05
169	0xba12a95c	-0.00055946945
170	0xb98a37f0	-0.00026363088
171	0x39555f19	0.0002034869
172	0xb9078908	-0.00012925651
173	0xb84d212c	-4.8906702e-05
174	0x39cdd5c0	0.00039259903
175	0x39d69734	0.00040929916
176	0x3943ca52	0.0001867202
177	0x397dfc30	0.00024221907
178	0xba853e7e	-0.0010165719
179	0x38ea6d25	0.00011178319
180	0xba087b34	-0.0005206347
181	0x39757ca3	0.00023411452
182	0x3995ce63	0.00028573265
183	0xb7e88f91	-2.7723408e-05
184	0x39245e1b	0.00015675316
185	0x38bb7286	8.9381865e-05
186	0xb98000f6	-0.00024414778
187	0xb63a2d4c	-2.7742526e-06
188	0xba6659f1	-0.0008787206
189	0xb951dcce	-0.0002001405
190	0x39e3c142	0.00043440802
191	0x399e9487	0.0003024677
192	0x36a7cc01	5.000737e-06
193	0x37152517	8.889728e-06
194	0x37ac2907	2.0523103e-05
195	0x377f4c7d	1.5216993e-05
196	0x363347c7	2.6714858e-06
197	0xb7290508	-1.0074356e-05
198	0x374e2f38	1.2289551e-05
199	0xb3803f59	-5.971987e-08
200	0x38b28e0e	8.514161e-05
201	0x35553080	7.941926e-07
202	0x37cd4261	2.4468814e-05
203	0x358079a2	9.572143e-07
204	0x37f3ec82	2.907799e-05
205	0x3621e26c	2.4122664e-06
206	0x3783507a	1.5653892e-05
207	0x36b3bc74	5.3565545e-06
208	0x3477cc5a	2.307801e-07
209	0x36b91118	5.5154196e-06
210	0x3894037a	7.0578375e-05
211	0x35349e20	6.728533e-07
212	0x3626ff04	2.4884366e-06
213	0x36010020	1.922257e-06
214	0xb2ef7062	-2.7874368e-08
215	0x380c4d5a	3.345064e-05
216	0xb63bbff3	-2.79769e-06
217	0x36963e95	4.477634e-06
218	0x371c38fd	9.311593e-06
219	0xb5d6a347	-1.5991762e-06
220	0x365d04b0	3.2934295e-06
221	0x359140eb	1.0822235e-06
222	0xb7682ee5	-1.3839196e-05
223	0x369d17c1	4.68173e-06
224	0x36803ea5	3.82199e-06
225	0x375beec0	1.31090055e-05
226	0x37ee16c7	2.8382417e-05
227	0xb70d21af	-8.4120975e-06
228	0xb66058e2	-3.3430338e-06
229	0x37eeef5a	2.8483268e-05
230	0xb4414ed6	-1.8003206e-07
231	0x380a46e1	3.2967775e-05
232	0x33a0c645	7.4866456e-08
233	0x38be20db	9.066026e-05
234	0xb6ab25e8	-5.10061e-06
235	0x372db279	1.0353157e-05
236	0x36213abe	2.4025062e-06
237	0xb58ee2d6	-1.0645842e-06
238	0xb78ba3fd	-1.6646454e-05
239	0x372406f9	9.776785e-06
240	0xb6aa5357	-5.076097e-06
241	0xb6d205d2	-6.2591653e-06
242	0x37b0d4b2	2.1079879e-05
243	0x37260953	9.896542e-06
244	0x38bba5df	8.947751e-05
245	0x3800aeeb	3.0680483e-05
246	0x35864eb0	1.0006679e-06
247	0xb644e7a8	-2.9341118e-06
248	0x35f19cdf	1.8001555e-06
249	0xb5817306	-9.644725e-07
250	0xb6f61ba3	-7.3345886e-06
251	0x34b6880e	3.3999135e-07
252	0x388f2874	6.826306e-05
253	0xb65ea950	-3.317913e-06
254	0x373794f3	1.094233e-05
255	0x35be831d	1.4194262e-06
