src/movement_models/samplesize_368_135110.pth (torch_old, 228914 bytes, 18 tensors)

exp_avg_sq f4 [256, 4]
0	0x2e080be9	3.0933398e-11
1	0x2d5f6c74	1.2700164e-11
2	0x00000000	0.0
3	0x00000000	0.0
4	0x2e854636	6.060612e-11
5	0x2e1cd18b	3.5656405e-11
6	0x00000000	0.0
7	0x00000000	0.0
8	0x2e5bfd12	5.0019607e-11
9	0x2e442736	4.4600067e-11
10	0x00000000	0.0
11	0x00000000	0.0
12	0x2e0e3df0	3.2342073e-11
13	0x2decb932	2.6912337e-11
14	0x00000000	0.0
15	0x00000000	0.0
16	0x2e2849f6	3.8264468e-11
17	0x2d93c8f6	1.680121e-11
18	0x00000000	0.0
19	0x00000000	0.0
20	0x2fac6545	3.1358574e-10
21	0x2f2ea8b5	1.5885145e-10
22	0x00000000	0.0
23	0x00000000	0.0
24	0x321f8355	9.2848795e-09
25	0x320fcc4f	8.37015e-09
26	0x00000000	0.0
27	0x00000000	0.0
28	0x2d5acad7	1.2436905e-11
29	0x2d7c6020	1.4345886e-11
30	0x00000000	0.0
31	0x00000000	0.0
32	0x3176ff84	3.5942955e-09
33	0x313d9bb0	2.7591618e-09
34	0x00000000	0.0
35	0x00000000	0.0
36	0x31603529	3.2626508e-09
37	0x3160ee48	3.2731737e-09
38	0x00000000	0.0
39	0x00000000	0.0
40	0x2f884aeb	2.4791488e-10
41	0x2f56a476	1.9521615e-10
42	0x00000000	0.0
43	0x00000000	0.0
44	0x3081b4d2	9.437378e-10
45	0x30876f4b	9.854174e-10
46	0x00000000	0.0
47	0x00000000	0.0
48	0x2e0d6906	3.2152968e-11
49	0x2e156168	3.3965192e-11
50	0x00000000	0.0
51	0x00000000	0.0
52	0x31d2b4f9	6.1323786e-09
53	0x31bab4eb	5.4338805e-09
54	0x00000000	0.0
55	0x00000000	0.0
56	0x312adbd2	2.486321e-09
57	0x30fedf74	1.8544442e-09
58	0x00000000	0.0
59	0x00000000	0.0
60	0x317f806d	3.7180385e-09
61	0x31470004	2.895832e-09
62	0x00000000	0.0
63	0x00000000	0.0
64	0x3154b6d6	3.095399e-09
65	0x30f34dd7	1.77027e-09
66	0x00000000	0.0
67	0x00000000	0.0
68	0x31b7e6ed	5.352254e-09
69	0x317fea8a	3.7240704e-09
70	0x00000000	0.0
71	0x00000000	0.0
72	0x313772f8	2.6695357e-09
73	0x30f9330d	1.8131644e-09
74	0x00000000	0.0
75	0x00000000	0.0
76	0x2e364236	4.1440816e-11
77	0x2e2943ec	3.8486478e-11
78	0x00000000	0.0
79	0x00000000	0.0
80	0x2eb40fd3	8.188263e-11
81	0x2ea298a2	7.39402e-11
82	0x00000000	0.0
83	0x00000000	0.0
84	0x2d9c5c03	1.7776008e-11
85	0x2db774e1	2.0856596e-11
86	0x00000000	0.0
87	0x00000000	0.0
88	0x303d2cbb	6.8821365e-10
89	0x302b3065	6.227821e-10
90	0x00000000	0.0
91	0x00000000	0.0
92	0x30430660	7.0949646e-10
93	0x305aae77	7.955587e-10
94	0x00000000	0.0
95	0x00000000	0.0
96	0x2ed93927	9.87817e-11
97	0x2ef43bfe	1.1106492e-10
98	0x00000000	0.0
99	0x00000000	0.0
100	0x32868f3b	1.5664787e-08
101	0x326edd22	1.3903703e-08
102	0x00000000	0.0
103	0x00000000	0.0
104	0x2fc3ddff	3.562803e-10
105	0x2fc8a880	3.6499515e-10
106	0x00000000	0.0
107	0x00000000	0.0
108	0x3293828e	1.7172422e-08
109	0x3256e936	1.25094655e-08
110	0x00000000	0.0
111	0x00000000	0.0
112	0x3311190f	3.3783234e-08
113	0x32fa11b9	2.911189e-08
114	0x00000000	0.0
115	0x00000000	0.0
116	0x309ef5d9	1.1565887e-09
117	0x3029b634	6.174077e-10
118	0x00000000	0.0
119	0x00000000	0.0
120	0x2f1a4264	1.4029805e-10
121	0x2f161adb	1.3651962e-10
122	0x00000000	0.0
123	0x00000000	0.0
124	0x2f0c7b46	1.2776721e-10
125	0x2f2f6c2a	1.5954585e-10
126	0x00000000	0.0
127	0x00000000	0.0
128	0x2fb166f2	3.226926e-10
129	0x2fc8a39e	3.6496045e-10
130	0x00000000	0.0
131	0x00000000	0.0
132	0x309a8a24	1.1244237e-09
133	0x30bc8c2c	1.371864e-09
134	0x00000000	0.0
135	0x00000000	0.0
136	0x2f256485	1.5042374e-10
137	0x2e8af8e9	6.319729e-11
138	0x00000000	0.0
139	0x00000000	0.0
140	0x2fd53a28	3.8785797e-10
141	0x2f82400e	2.3692376e-10
142	0x00000000	0.0
143	0x00000000	0.0
144	0x2f0d2008	1.2835255e-10
145	0x2f700ed0	2.1833135e-10
146	0x00000000	0.0
147	0x00000000	0.0
148	0x2f864c60	2.4428726e-10
149	0x2f039690	1.1967871e-10
150	0x00000000	0.0
151	0x00000000	0.0
152	0x2f84610d	2.407962e-10
153	0x2ef8f30f	1.132091e-10
154	0x00000000	0.0
155	0x00000000	0.0
156	0x3233848a	1.0449307e-08
157	0x31fae516	7.3020017e-09
158	0x00000000	0.0
159	0x00000000	0.0
160	0x2f4a859d	1.8419262e-10
161	0x2f0f51b2	1.3034798e-10
162	0x00000000	0.0
163	0x00000000	0.0
164	0x2f064480	1.2211565e-10
165	0x2f15c265	1.3620534e-10
166	0x00000000	0.0
167	0x00000000	0.0
168	0x2ed784f0	9.8006825e-11
169	0x2e655dcd	5.2151884e-11
170	0x00000000	0.0
171	0x00000000	0.0
172	0x30828ceb	9.498796e-10
173	0x3000c785	4.6849663e-10
174	0x00000000	0.0
175	0x00000000	0.0
176	0x2ea86107	7.656991e-11
177	0x2e813b5a	5.876784e-11
178	0x00000000	0.0
179	0x00000000	0.0
180	0x30abf5fa	1.2511798e-09
181	0x30078bbb	4.9311283e-10
182	0x00000000	0.0
183	0x00000000	0.0
184	0x2f54f444	1.9368068e-10
185	0x2eb5e07a	8.270802e-11
186	0x00000000	0.0
187	0x00000000	0.0
188	0x3231849e	1.033291e-08
189	0x31ecdfec	6.893961e-09
190	0x00000000	0.0
191	0x00000000	0.0
192	0x308da8a0	1.0307026e-09
193	0x3093dc6c	1.0758305e-09
194	0x00000000	0.0
195	0x00000000	0.0
196	0x32a24dc1	1.889464e-08
197	0x329b5881	1.8084622e-08
198	0x00000000	0.0
199	0x00000000	0.0
200	0x2f6ed288	2.172077e-10
201	0x2f404b54	1.748906e-10
202	0x00000000	0.0
203	0x00000000	0.0
204	0x3199e587	4.4789803e-09
205	0x319ce5a0	4.566303e-09
206	0x00000000	0.0
207	0x00000000	0.0
208	0x3136e282	2.661324e-09
209	0x311af5f0	2.2549749e-09
210	0x00000000	0.0
211	0x00000000	0.0
212	0x30dd1bca	1.6087764e-09
213	0x307db950	9.230421e-10
214	0x00000000	0.0
215	0x00000000	0.0
216	0x2eb306b4	8.141168e-11
217	0x2e9964bc	6.9755285e-11
218	0x00000000	0.0
219	0x00000000	0.0
220	0x3106a74e	1.9594668e-09
221	0x30cfd04c	1.5120434e-09
222	0x00000000	0.0
223	0x00000000	0.0
224	0x2e2547f3	3.758056e-11
225	0x2defffe6	2.7284796e-11
226	0x00000000	0.0
227	0x00000000	0.0
228	0x3102ed13	1.905225e-09
229	0x311cf4ef	2.2840216e-09
230	0x00000000	0.0
231	0x00000000	0.0
232	0x2ede941e	1.0121702e-10
233	0x2ea43f0d	7.4690566e-11
234	0x00000000	0.0
235	0x00000000	0.0
236	0x2f30899b	1.6055994e-10
237	0x2e890ba0	6.232104e-11
238	0x00000000	0.0
239	0x00000000	0.0
240	0x2f595a25	1.9768061e-10
241	0x2f669d37	2.0974232e-10
242	0x00000000	0.0
243	0x00000000	0.0
244	0x2f47fc15	1.8188502e-10
245	0x2f19ea9c	1.3998619e-10
246	0x00000000	0.0
247	0x00000000	0.0
248	0x2ecbf5b1	9.275015e-11
249	0x2ea3204b	7.418118e-11
250	0x00000000	0.0
251	0x00000000	0.0
252	0x2e92f420	6.6826766e-11
253	0x2e25e416	3.7719237e-11
254	0x00000000	0.0
255	0x00000000	0.0

exp_avg f4 [256, 4]
0	0x348f99da	2.6747767e-07
1	0x34935a9d	2.7446814e-07
2	0x00000000	0.0
3	0x00000000	0.0
4	0x3627b01a	2.4987444e-06
5	0x361cd7aa	2.3371344e-06
6	0x00000000	0.0
7	0x00000000	0.0
8	0x3692017a	4.351311e-06
9	0x3685ee72	3.9914676e-06
10	0x00000000	0.0
11	0x00000000	0.0
12	0x33d33de9	9.8367146e-08
13	0x33fe8152	1.185132e-07
14	0x00000000	0.0
15	0x00000000	0.0
16	0x351160f5	5.41578e-07
17	0x35100041	5.364455e-07
18	0x00000000	0.0
19	0x00000000	0.0
20	0x346c19e6	2.1988635e-07
21	0x3480539a	2.3902686e-07
22	0x00000000	0.0
23	0x00000000	0.0
24	0x3752cf8b	1.2565298e-05
25	0x37568052	1.2785271e-05
26	0x00000000	0.0
27	0x00000000	0.0
28	0x3482af39	2.4341878e-07
29	0x34c56f32	3.6775015e-07
30	0x00000000	0.0
31	0x00000000	0.0
32	0x3484ce9b	2.473724e-07
33	0x3539029a	6.8921656e-07
34	0x00000000	0.0
35	0x00000000	0.0
36	0x369611fd	4.4724425e-06
37	0x36917476	4.3348946e-06
38	0x00000000	0.0
39	0x00000000	0.0
40	0x3774b24c	1.4585046e-05
41	0x375a8ae7	1.3026153e-05
42	0x00000000	0.0
43	0x00000000	0.0
44	0x3686c7b6	4.0167606e-06
45	0x366b661b	3.5077162e-06
46	0x00000000	0.0
47	0x00000000	0.0
48	0x34e36c17	4.236069e-07
49	0x34e71ff2	4.3050346e-07
50	0x00000000	0.0
51	0x00000000	0.0
52	0x372d87c4	1.0343214e-05
53	0x37150c75	8.883992e-06
54	0x00000000	0.0
55	0x00000000	0.0
56	0x37c29f3c	2.3200751e-05
57	0x37a77fcb	1.996746e-05
58	0x00000000	0.0
59	0x00000000	0.0
60	0x3713912b	8.795682e-06
61	0x370639d1	8.000484e-06
62	0x00000000	0.0
63	0x00000000	0.0
64	0x375637e3	1.2768406e-05
65	0x3731e048	1.0602242e-05
66	0x00000000	0.0
67	0x00000000	0.0
68	0x36ebf7c1	7.032388e-06
69	0x36c724d4	5.9349495e-06
70	0x00000000	0.0
71	0x00000000	0.0
72	0x34c519de	3.671293e-07
73	0x3410d367	1.3487953e-07
74	0x00000000	0.0
75	0x00000000	0.0
76	0x3617af1b	2.2602678e-06
77	0x361833ce	2.267992e-06
78	0x00000000	0.0
79	0x00000000	0.0
80	0x3641a8ad	2.8857423e-06
81	0x36345a5d	2.6874689e-06
82	0x00000000	0.0
83	0x00000000	0.0
84	0x34e578bc	4.274242e-07
85	0x34bcb91a	3.5152408e-07
86	0x00000000	0.0
87	0x00000000	0.0
88	0x35e4a8c1	1.7036438e-06
89	0x35b95d47	1.3810721e-06
90	0x00000000	0.0
91	0x00000000	0.0
92	0x358b030b	1.0357193e-06
93	0x35864aac	1.000551e-06
94	0x00000000	0.0
95	0x00000000	0.0
96	0x35e3cc5b	1.6972293e-06
97	0x35ddf73a	1.6537736e-06
98	0x00000000	0.0
99	0x00000000	0.0
100	0x382d7a62	4.1360392e-05
101	0x380bb200	3.3305958e-05
102	0x00000000	0.0
103	0x00000000	0.0
104	0x379c7910	1.8653023e-05
105	0x378c2bbf	1.6709671e-05
106	0x00000000	0.0
107	0x00000000	0.0
108	0xb651b112	-3.1246495e-06
109	0x34ab3cde	3.189552e-07
110	0x00000000	0.0
111	0x00000000	0.0
112	0x38813976	6.161902e-05
113	0x384b75e9	4.8508784e-05
114	0x00000000	0.0
115	0x00000000	0.0
116	0x35e051fa	1.6713159e-06
117	0x35d2e9bd	1.5714246e-06
118	0x00000000	0.0
119	0x00000000	0.0
120	0x36f0936e	7.1697204e-06
121	0x36d29055	6.27529e-06
122	0x00000000	0.0
123	0x00000000	0.0
124	0x345e6402	2.0711744e-07
125	0x345cc28a	2.055987e-07
126	0x00000000	0.0
127	0x00000000	0.0
128	0x35ce36e6	1.5364174e-06
129	0x35bb1f67	1.3941725e-06
130	0x00000000	0.0
131	0x00000000	0.0
132	0x363c5719	2.806488e-06
133	0x361ff643	2.383619e-06
134	0x00000000	0.0
135	0x00000000	0.0
136	0x34477eea	1.857949e-07
137	0x34182fd7	1.4173507e-07
138	0x00000000	0.0
139	0x00000000	0.0
140	0x34f9fb18	4.656256e-07
141	0x34f571d7	4.5717636e-07
142	0x00000000	0.0
143	0x00000000	0.0
144	0x369a4fb0	4.5988345e-06
145	0x367f0c54	3.8005137e-06
146	0x00000000	0.0
147	0x00000000	0.0
148	0x356b0375	8.754935e-07
149	0x354b34eb	7.57004e-07
150	0x00000000	0.0
151	0x00000000	0.0
152	0x36ea46c8	6.9819835e-06
153	0x36ca662e	6.0319644e-06
154	0x00000000	0.0
155	0x00000000	0.0
156	0x37a634b0	1.9813277e-05
157	0x37856817	1.5903306e-05
158	0x00000000	0.0
159	0x00000000	0.0
160	0x362aeaf1	2.5468728e-06
161	0x36157a6d	2.2273991e-06
162	0x00000000	0.0
163	0x00000000	0.0
164	0x355e69f0	8.2855604e-07
165	0x3551db97	7.817811e-07
166	0x00000000	0.0
167	0x00000000	0.0
168	0x35a03254	1.1935576e-06
169	0x359452e7	1.1050987e-06
170	0x00000000	0.0
171	0x00000000	0.0
172	0x376b5e9e	1.4029121e-05
173	0x3750f9a1	1.2455887e-05
174	0x00000000	0.0
175	0x00000000	0.0
176	0xb4a9aed4	-3.1605907e-07
177	0xb485af14	-2.4900567e-07
178	0x00000000	0.0
179	0x00000000	0.0
180	0x34384d96	1.7164561e-07
181	0x3496f9d9	2.8121465e-07
182	0x00000000	0.0
183	0x00000000	0.0
184	0x36e374b0	6.7787114e-06
185	0x36cf12cf	6.1712703e-06
186	0x00000000	0.0
187	0x00000000	0.0
188	0x3825eb6e	3.9558327e-05
189	0x3805faaf	3.194314e-05
190	0x00000000	0.0
191	0x00000000	0.0
192	0x35e4eedd	1.7056842e-06
193	0x35b810a7	1.3713915e-06
194	0x00000000	0.0
195	0x00000000	0.0
196	0x385bb1e3	5.237934e-05
197	0x3832ef07	4.266112e-05
198	0x00000000	0.0
199	0x00000000	0.0
200	0x37032975	7.817861e-06
201	0x36ef09cd	7.123896e-06
202	0x00000000	0.0
203	0x00000000	0.0
204	0x37566ebb	1.2781175e-05
205	0x372d539a	1.0331069e-05
206	0x00000000	0.0
207	0x00000000	0.0
208	0x377a2a6c	1.4911038e-05
209	0x37534da8	1.2594661e-05
210	0x00000000	0.0
211	0x00000000	0.0
212	0x368a197a	4.1156864e-06
213	0x36641221	3.39852e-06
214	0x00000000	0.0
215	0x00000000	0.0
216	0x350e1fd2	5.2945427e-07
217	0x34e481bd	4.2562706e-07
218	0x00000000	0.0
219	0x00000000	0.0
220	0x376156f9	1.3431295e-05
221	0x373f70f2	1.1410784e-05
222	0x00000000	0.0
223	0x00000000	0.0
224	0x34d3d17d	3.9454235e-07
225	0x34cfea3e	3.8727188e-07
226	0x00000000	0.0
227	0x00000000	0.0
228	0x3724d4c5	9.824701e-06
229	0x371d5da7	9.379734e-06
230	0x00000000	0.0
231	0x00000000	0.0
232	0x36f6f1ba	7.359512e-06
233	0x36e2fcda	6.7647607e-06
234	0x00000000	0.0
235	0x00000000	0.0
236	0x338f6da5	6.6789006e-08
237	0x335bfa6e	5.1217675e-08
238	0x00000000	0.0
239	0x00000000	0.0
240	0x33ab66c0	7.981498e-08
241	0x33830cf9	6.1025226e-08
242	0x00000000	0.0
243	0x00000000	0.0
244	0x36f9ad03	7.4409195e-06
245	0x36e6a9ce	6.874302e-06
246	0x00000000	0.0
247	0x00000000	0.0
248	0xb5a865d9	-1.2546617e-06
249	0xb5843786	-9.850926e-07
250	0x00000000	0.0
251	0x00000000	0.0
252	0x35271b59	6.2252144e-07
253	0x35233089	6.079286e-07
254	0x00000000	0.0
255	0x00000000	0.0

exp_avg_sq f4 [256, 64]
0	0x289b57c1	1.7246514e-14
1	0x28274cf1	9.287046e-15
2	0x29409a16	4.2766212e-14
3	0x2806b0be	7.476819e-15
4	0x27e1c883	6.266744e-15
5	0x290bc2ba	3.10331e-14
6	0x29fe9525	1.13057384e-13
7	0x26873932	9.38301e-16
8	0x29bee069	8.476624e-14
9	0x29a386e0	7.262051e-14
10	0x27cdee0f	5.7157034e-15
11	0x28d2e916	2.3415768e-14
12	0x2898ef31	1.6979123e-14
13	0x2a7b3d11	2.2314465e-13
14	0x29b1c74a	7.89495e-14
15	0x2a889815	2.426398e-13
16	0x2916619a	3.3391347e-14
17	0x2a5af819	1.9448366e-13
18	0x2a0361ee	1.1669113e-13
19	0x283847e1	1.0229638e-14
20	0x278bbbd2	3.8783885e-15
21	0x260102df	4.4759757e-16
22	0x285cb4bf	1.2251646e-14
23	0x28e46a7b	2.5359264e-14
24	0x27ac8c95	4.789201e-15
25	0x2a844929	2.3498675e-13
26	0x2884b78f	1.473455e-14
27	0x2a20718e	1.4250252e-13
28	0x2b44809c	6.981167e-13
29	0x28d43ae7	2.3562273e-14
30	0x2730f702	2.455881e-15
31	0x28056eed	7.407036e-15
32	0x2781e45b	3.6052276e-15
33	0x27750b0f	3.4006575e-15
34	0x288e920d	1.5828506e-14
35	0x294502c1	4.3745176e-14
36	0x2792b9f3	4.0724747e-15
37	0x297e2476	5.6430954e-14
38	0x28ba37b6	2.0674309e-14
39	0x2a77025c	2.1938826e-13
40	0x275ae11b	3.0375607e-15
41	0x27fd2f78	7.027307e-15
42	0x29860faa	5.953513e-14
43	0x291c402f	3.469463e-14
44	0x280bf42c	7.768996e-15
45	0x294d76b8	4.5622116e-14
46	0x285d6fcb	1.2292206e-14
47	0x2a995604	2.7237945e-13
48	0x290bc846	3.103791e-14
49	0x2ab31564	3.181163e-13
50	0x27113865	2.0153364e-15
51	0x29a5c102	7.3609535e-14
52	0x2a82d504	2.3240448e-13
53	0x2a34f7cf	1.6073187e-13
54	0x26081de8	4.722501e-16
55	0x29bcd89a	8.3864515e-14
56	0x2846253a	1.099928e-14
57	0x28cf0585	2.298401e-14
58	0x2781e8a4	3.605692e-15
59	0x27de74e2	6.1744102e-15
60	0x28233601	9.060028e-15
61	0x287e6913	1.4122617e-14
62	0x2727b0fa	2.3271845e-15
63	0x28b2b3ce	1.9839948e-14
64	0x28ecd479	2.6293409e-14
65	0x297113fd	5.3530087e-14
66	0x28c5da58	2.1966085e-14
67	0x27a0f7d5	4.467762e-15
68	0x2946bbce	4.4127726e-14
69	0x2a394653	1.64557e-13
70	0x2af011ab	4.2644824e-13
71	0x2807910b	7.525457e-15
72	0x2ae80feb	4.1222524e-13
73	0x2ab394b1	3.1899963e-13
74	0x2881a9c7	1.4395506e-14
75	0x29b965f7	8.2333385e-14
76	0x2a22da65	1.4464261e-13
77	0x2b74f1b1	8.702163e-13
78	0x2a500ed5	1.8479257e-13
79	0x2b49bc07	7.1670485e-13
80	0x29f3c46e	1.0825443e-13
81	0x2b364c76	6.47655e-13
82	0x2b081eee	4.835983e-13
83	0x2987c878	6.02998e-14
84	0x28b72502	2.0333131e-14
85	0x26674063	8.0231485e-16
86	0x29b03b16	7.82622e-14
87	0x2a12bdf6	1.3033311e-13
88	0x2899870f	1.7044985e-14
89	0x2b237084	5.806538e-13
90	0x29c34ea5	8.673382e-14
91	0x2b25ec64	5.8947834e-13
92	0x2c0a4378	1.9648432e-12
93	0x2a008e33	1.1418019e-13
94	0x27e8e2b5	6.463873e-15
95	0x2786d2f0	3.742117e-15
96	0x289e9c01	1.760918e-14
97	0x28ce41b5	2.289909e-14
98	0x2995b707	6.6486794e-14
99	0x2a4b1100	1.803592e-13
100	0x27ee3b00	6.612224e-15
101	0x2a882989	2.4187274e-13
102	0x28b9fd23	2.0648907e-14
103	0x2b3482af	6.4130206e-13
104	0x287c48ab	1.40045675e-14
105	0x299e36c0	7.026107e-14
106	0x2a857c33	2.3711726e-13
107	0x294c3b3a	4.534847e-14
108	0x2892a4a8	1.6280664e-14
109	0x2a125187	1.299569e-13
110	0x28dfdc91	2.4853629e-14
111	0x2b4f5bc7	7.366854e-13
112	0x2a1f5962	1.4153048e-13
113	0x2b7be205	8.948678e-13
114	0x2891e766	1.6198587e-14
115	0x2a861bd9	2.3822505e-13
116	0x2b300248	6.2530927e-13
117	0x2b1f97aa	5.6698624e-13
118	0x27082e28	1.8898813e-15
119	0x2a64967c	2.0302678e-13
120	0x28eb8b49	2.6150646e-14
121	0x2a0e49fa	1.26378e-13
122	0x293d3e5f	4.202053e-14
123	0x2961ef3c	5.016754e-14
124	0x29908f9b	6.419796e-14
125	0x28cbd0ec	2.2628133e-14
126	0x28de6861	2.4692218e-14
127	0x29f8d869	1.10509536e-13
128	0x289c8cc2	1.7380523e-14
129	0x27f36e11	6.7565383e-15
130	0x29824f25	5.786889e-14
131	0x28149810	8.248624e-15
132	0x28162d5d	8.336509e-15
133	0x2913a957	3.2787436e-14
134	0x2ab78275	3.2597853e-13
135	0x26cc2fbb	1.4168281e-15
136	0x2a202719	1.422442e-13
137	0x2a451c8e	1.7507022e-13
138	0x28715ac3	1.3397868e-14
139	0x29502bba	4.6223205e-14
140	0x28d96290	2.4134584e-14
141	0x2ae31f2f	4.0344938e-13
142	0x2a0b4df7	1.237273e-13
143	0x2ac753a4	3.5407538e-13
144	0x2933dd81	3.9938108e-14
145	0x2aa7e859	2.9826383e-13
146	0x2a49118c	1.7858474e-13
147	0x2821475d	8.95277e-15
148	0x289beddc	1.7311612e-14
149	0x263ddc42	6.587105e-16
150	0x28d87bdf	2.4034538e-14
151	0x2971328b	5.355659e-14
152	0x288ec591	1.5850848e-14
153	0x2aff2b32	4.5327072e-13
154	0x2911d7f6	3.2383784e-14
155	0x2a9c8d35	2.780915e-13
156	0x2bb3c132	1.2772337e-12
157	0x29494991	4.4694774e-14
158	0x2807d529	7.540227e-15
159	0x282abc61	9.477744e-15
160	0x28b3e467	1.9972046e-14
161	0x28b2203f	1.9775954e-14
162	0x29831f95	5.823047e-14
163	0x2989ab77	6.1137666e-14
164	0x283e16cc	1.0552062e-14
165	0x299078da	6.415849e-14
166	0x28cb13a8	2.2546052e-14
167	0x2ab0d4fc	3.1411668e-13
168	0x281e3010	8.781184e-15
169	0x28a20a90	1.7990194e-14
170	0x296bca58	5.2355987e-14
171	0x293b218d	4.1551442e-14
172	0x28755715	1.3619115e-14
173	0x29377043	4.0731534e-14
174	0x288c4206	1.5571755e-14
175	0x2ae10bd4	3.9976236e-13
176	0x29afae31	7.8017786e-14
177	0x2b275c5d	5.94585e-13
178	0x27e84f31	6.4478795e-15
179	0x2a4dd26b	1.8280661e-13
180	0x2aec41b8	4.1967623e-13
181	0x2a5f4911	1.9831729e-13
182	0x271eaf6a	2.2021997e-15
183	0x2a1846ec	1.3524918e-13
184	0x28a4cb6b	1.8295876e-14
185	0x29dae1bc	9.7203034e-14
186	0x27c5fbf3	5.4951648e-15
187	0x28c539ac	2.1896405e-14
188	0x28382eed	1.0224227e-14
189	0x28bf2a58	2.1223623e-14
190	0x27f6d65c	6.8511125e-15
191	0x2862cb96	1.2589666e-14
192	0x28340ec7	9.9952115e-15
193	0x279cd29f	4.3527054e-15
194	0x290030d4	2.846406e-14
195	0x27d04afe	5.7812904e-15
196	0x27f173ea	6.701661e-15
197	0x29063af1	2.98051e-14
198	0x2a9275d1	2.6016561e-13
199	0x26a6b728	1.1568208e-15
200	0x2a08323d	1.2096656e-13
201	0x2a34bb61	1.6052222e-13
202	0x28097be2	7.6318905e-15
203	0x2924189f	3.643667e-14
204	0x28ca69f1	2.247245e-14
205	0x2ac2cfd3	3.460553e-13
206	0x29acaec3	7.668651e-14
207	0x2aa39e59	2.9064492e-13
208	0x2905bffc	2.9698452e-14
209	0x2a9d38f9	2.7928335e-13
210	0x2a266c7f	1.4781404e-13
211	0x280415db	7.332211e-15
212	0x2840a87b	1.0694674e-14
213	0x25dbc80c	3.8126e-16
214	0x28d970b9	2.4140725e-14
215	0x29731caa	5.39817e-14
216	0x283f5e0f	1.0623026e-14
217	0x2ab6d3ab	3.2476569e-13
218	0x28b46078	2.0025851e-14
219	0x2a81b4db	2.3040497e-13
220	0x2b824064	9.254928e-13
221	0x2937f457	4.0846094e-14
222	0x27837b2a	3.649334e-15
223	0x27d818a2	5.997875e-15
224	0x28983f3f	1.6902819e-14
225	0x28aac22f	1.8958005e-14
226	0x2919620b	3.4057863e-14
227	0x2965e05b	5.1042812e-14
228	0x2827aaeb	9.307424e-15
229	0x296b8114	5.229244e-14
230	0x284e83a9	1.1463846e-14
231	0x2a7bcc66	2.2364193e-13
232	0x27c4f6ec	5.466864e-15
233	0x288df082	1.5758448e-14
234	0x2944b9f8	4.3682045e-14
235	0x28b78ffd	2.0379526e-14
236	0x28159a04	8.304558e-15
237	0x29060595	2.975882e-14
238	0x27efe735	6.65865e-15
239	0x2a98f841	2.7172885e-13
240	0x29a26efd	7.2134986e-14
241	0x2af3a0e9	4.3277125e-13
242	0x27481eb2	2.7772216e-15
243	0x2a0d7d60	1.2566814e-13
244	0x2ab3f49d	3.1966522e-13
245	0x2a26c439	1.481184e-13
246	0x270ad8ce	1.9268877e-15
247	0x29d9fdff	9.680797e-14
248	0x2849074f	1.1159326e-14
249	0x29b10ad0	7.862255e-14
250	0x27ed0e4b	6.579621e-15
251	0x288d003d	1.5654248e-14
252	0x2880c3e4	1.4295809e-14
253	0x2835af84	1.0085577e-14
254	0x27eb1c9c	6.525662e-15
255	0x2877724b	1.3736038e-14

exp_avg f4 [256, 64]
0	0xb0da5388	-1.5885329e-09
1	0xb1046c66	-1.9270145e-09
2	0xb199d654	-4.4772523e-09
3	0xafb0a3cf	-3.2130607e-10
4	0x3112c8b7	2.135989e-09
5	0xb1250e24	-2.4018698e-09
6	0x3293b409	1.7194923e-08
7	0xb1265fa3	-2.4210542e-09
8	0xb20b44da	-8.10652e-09
9	0x32254114	9.619061e-09
10	0x30ec9f3f	1.721652e-09
11	0x31a82682	4.8938213e-09
12	0x31468539	2.888852e-09
13	0x32867f66	1.5657587e-08
14	0xb1e80039	-6.752114e-09
15	0xb2355b94	-1.0556409e-08
16	0xb12b49bb	-2.4925686e-09
17	0xb241841f	-1.1264119e-08
18	0x320fd895	8.372941e-09
19	0xb19adc1c	-4.5070134e-09
20	0xb185c8ee	-3.8936525e-09
21	0xafb3b559	-3.2688766e-10
22	0x30c47ded	1.4296667e-09
23	0x31994e33	4.4617763e-09
24	0x313e6750	2.7707365e-09
25	0x32ace99f	2.0129674e-08
26	0x312f9b81	2.5554245e-09
27	0x328b8d72	1.6246052e-08
28	0xb30568c0	-3.1061745e-08
29	0xb1891c46	-3.990439e-09
30	0xb0d47407	-1.5458007e-09
31	0x2f628dea	2.0604998e-10
32	0x311439e6	2.1569746e-09
33	0xb11e16f9	-2.3005085e-09
34	0x2f3f106d	1.7377184e-10
35	0xb16aad39	-3.4149947e-09
36	0x2f861a33	2.4393074e-10
37	0x2e376b26	4.170455e-11
38	0xaea7fc70	-7.639123e-11
39	0x3250f5ba	1.2163065e-08
40	0xb0d0d5ea	-1.519479e-09
41	0xb1146e7d	-2.159964e-09
42	0x3062408c	8.231005e-10
43	0xb02cdf2c	-6.289038e-10
44	0xadec2d5a	-2.6850234e-11
45	0xb0b2169e	-1.2957633e-09
46	0x2e2a5767	3.8731154e-11
47	0xb263b44d	-1.3254135e-08
48	0xb1953fdb	-4.3437303e-09
49	0xb2bb8412	-2.1829724e-08
50	0x31901dd7	4.194344e-09
51	0x32650e11	1.3332753e-08
52	0xb28e95d3	-1.6599108e-08
53	0x31cc9333	5.953916e-09
54	0xaf63a943	-2.0705664e-10
55	0x3207ef8e	7.912503e-09
56	0x30967a75	1.0948741e-09
57	0x32029bb2	7.602397e-09
58	0xb1037236	-1.912793e-09
59	0xb00337da	-4.773689e-10
60	0xaf88b4f4	-2.486683e-10
61	0xafae3d5f	-3.1694022e-10
62	0xaf96f541	-2.7459104e-10
63	0xb1194dd3	-2.2308668e-09
64	0x311fbd0d	2.3245008e-09
65	0x3305d007	3.1155675e-08
66	0x3376152b	5.729559e-08
67	0x32513c6d	1.217914e-08
68	0xb1ef41aa	-6.9632806e-09
69	0xb2c9b6f6	-2.348268e-08
70	0x33bbe639	8.749743e-08
71	0x320c53c7	8.168121e-09
72	0xb348c5b6	-4.6745946e-08
73	0x331bb9e8	3.625783e-08
74	0xb3a70aac	-7.778485e-08
75	0x33240468	3.8188233e-08
76	0xb29bb26f	-1.8125517e-08
77	0x33f548b6	1.14219276e-07
78	0xb4125ab5	-1.3630309e-07
79	0xb41d0a29	-1.462546e-07
80	0xb3533eba	-4.9184315e-08
81	0xb3c0a2fb	-8.970343e-08
82	0x335ade58	5.09593e-08
83	0xb1a6ae92	-4.851082e-09
84	0x329b6438	1.8089949e-08
85	0x3217cb13	8.8355305e-09
86	0x3242aac4	1.1331114e-08
87	0xb2423922	-1.1305277e-08
88	0xb2f92a1c	-2.9006564e-08
89	0x347b452f	2.3401365e-07
90	0xb3d0a95a	-9.71656e-08
91	0x33e64814	1.07233205e-07
92	0xb4d0ae9e	-3.887007e-07
93	0xb36b863d	-5.483729e-08
94	0x32e71e5e	2.6905749e-08
95	0xb0d099ca	-1.5177701e-09
96	0x329d2389	1.8293365e-08
97	0xb295eb80	-1.7452976e-08
98	0x3295f99f	1.7459397e-08
99	0xb2b99cd2	-2.1608148e-08
100	0xb3085bd6	-3.1748492e-08
101	0xb2b9ffd7	-2.1653177e-08
102	0x3375be66	5.7216674e-08
103	0x343ff055	1.7875693e-07
104	0x32ed8b77	2.7653853e-08
105	0x32334ca6	1.0436599e-08
106	0x332dcaef	4.046427e-08
107	0x3395d8ee	6.9778125e-08
108	0xb1d0723a	-6.066583e-09
109	0xb2cec05b	-2.406903e-08
110	0xb364b3f7	-5.3249064e-08
111	0xb46430a9	-2.1251857e-07
112	0xb2ecdcf9	-2.7574503e-08
113	0xb490631b	-2.68942e-07
114	0xb2d688e8	-2.4975137e-08
115	0x3409500c	1.278824e-07
116	0xb4390139	-1.7229912e-07
117	0x33d15f7e	9.749691e-08
118	0x31b9bb9a	5.4055365e-09
119	0x33ebd3bd	1.0981555e-07
120	0xb14e4e29	-3.0021374e-09
121	0xb2b5bb0e	-2.1156236e-08
122	0x33458f97	4.599823e-08
123	0x31065786	1.9549318e-09
124	0xb22b7745	-9.980629e-09
125	0x338587c0	6.217988e-08
126	0xb2af325d	-2.0395584e-08
127	0x328aaef4	1.6144874e-08
128	0x3194c1d8	4.3294044e-09
129	0x336812e6	5.4033897e-08
130	0x33d05fd4	9.703186e-08
131	0x32afb58b	2.0455238e-08
132	0xb2620a76	-1.315731e-08
133	0xb3292851	-3.9385046e-08
134	0x341e8faa	1.4767161e-07
135	0x326859a8	1.3524563e-08
136	0xb3aa10fd	-7.919332e-08
137	0x3382bb11	6.087624e-08
138	0xb40c3f73	-1.3061599e-07
139	0x338dd4fb	6.604565e-08
140	0xb301ae83	-3.019387e-08
141	0x344fe344	1.9361056e-07
142	0xb479355d	-2.3209346e-07
143	0xb483e8ed	-2.4570127e-07
144	0xb3b667c9	-8.493914e-08
145	0xb4213560	-1.5013711e-07
146	0x33bdc883	8.837471e-08
147	0xb1d8d611	-6.310764e-09
148	0x32fc4b23	2.937083e-08
149	0x327692b5	1.4352442e-08
150	0x32b84083	2.1449756e-08
151	0xb2989c90	-1.7766325e-08
152	0xb34ea5fe	-4.811408e-08
153	0x34d5a37a	3.9793287e-07
154	0xb42fe8aa	-1.6382788e-07
155	0x3441c9dc	1.8047962e-07
156	0xb52fa877	-6.543773e-07
157	0xb3c63f5c	-9.2316185e-08
158	0x3341c5cc	4.511621e-08
159	0xb187ca8e	-3.952045e-09
160	0x33042979	3.0771364e-08
161	0xb30047f7	-2.9867774e-08
162	0x33012705	3.007064e-08
163	0xb31e36a4	-3.6836937e-08
164	0xb3657815	-5.342743e-08
165	0xb31ff07d	-3.7238795e-08
166	0x33d391a5	9.851946e-08
167	0x34a14eeb	3.0046007e-07
168	0x33450aa4	4.5877314e-08
169	0x32970102	1.7579172e-08
170	0x3394c438	6.927479e-08
171	0x33feb07b	1.1859898e-07
172	0xb223cb18	-9.534027e-09
173	0xb330616a	-4.106679e-08
174	0xb3c05543	-8.956206e-08
175	0xb4c129d7	-3.5979494e-07
176	0xb34b604f	-4.7352213e-08
177	0xb4f4ae8b	-4.5575538e-07
178	0xb33a7420	-4.3412115e-08
179	0x346b26d0	2.19002e-07
180	0xb49d46c3	-2.9295015e-07
181	0x343232df	1.6596049e-07
182	0x32226100	9.451696e-09
183	0x34479bba	1.8589972e-07
184	0xb1bc8b7b	-5.487377e-09
185	0xb317a34b	-3.530594e-08
186	0x33a701d9	7.7768796e-08
187	0x31802e43	3.7305496e-09
188	0xb28a139b	-1.607423e-08
189	0x33e29195	1.0550426e-07
190	0xb3032bd3	-3.0540672e-08
191	0x32e8707c	2.7059507e-08
192	0x2fad5c2e	3.1534014e-10
193	0x311c619f	2.275648e-09
194	0x31a03c60	4.6634767e-09
195	0x3082b492	9.510066e-10
196	0xb032134c	-6.4783445e-10
197	0xb0ac30b5	-1.252849e-09
198	0x316efa07	3.4775682e-09
199	0x3087424b	9.841384e-10
200	0xb1022656	-1.8939281e-09
201	0x30a1f39a	1.1783527e-09
202	0xb1c91d39	-5.853192e-09
203	0x31042b15	1.9233017e-09
204	0xb0fe6e96	-1.8512363e-09
205	0x31c0fbe2	5.616571e-09
206	0xb20d2002	-8.214558e-09
207	0xb2181053	-8.851276e-09
208	0xb13abc96	-2.717376e-09
209	0xb1a5410d	-4.8095274e-09
210	0x3101b036	1.8872135e-09
211	0x2f89c0ad	2.505706e-10
212	0x310a6350	2.0138096e-09
213	0x304e2d9f	7.5007195e-10
214	0x2fa8e691	3.072285e-10
215	0xb0dd1be3	-1.6087792e-09
216	0xb12d4767	-2.52154e-09
217	0x325d67c0	1.2887483e-08
218	0xb1f9a722	-7.2658546e-09
219	0x31aaf8c3	4.975932e-09
220	0xb2c21323	-2.2593275e-08
221	0xb15d34ab	-3.218967e-09
222	0x311784f9	2.2048978e-09
223	0x2d9cd954	1.783166e-11
224	0x309110b4	1.0554886e-09
225	0xb064979c	-8.3161367e-10
226	0x309f324e	1.158307e-09
227	0xb08560b3	-9.704507e-10
228	0xb11ca68f	-2.2795665e-09
229	0xb0c40d5d	-1.4264675e-09
230	0x317cf14d	3.680799e-09
231	0x3239a099	1.0804933e-08
232	0x311cbc78	2.280812e-09
233	0x3098d268	1.1119257e-09
234	0x313aa488	2.7160088e-09
235	0x31aa02e1	4.9479785e-09
236	0xb00cbf3a	-5.120345e-10
237	0xb0c172ff	-1.4075282e-09
238	0xb180e069	-3.750803e-09
239	0xb2589e60	-1.2608865e-08
240	0xb0acd480	-1.2575043e-09
241	0xb2840041	-1.5366938e-08
242	0xb11d2a16	-2.287043e-09
243	0x31dcfae7	6.431367e-09
244	0xb21f5600	-9.274572e-09
245	0x31c14275	5.6245946e-09
246	0x2fda3a7e	3.969553e-10
247	0x31dce322	6.4286647e-09
248	0xafb8e259	-3.3630235e-10
249	0xb133e82b	-2.61799e-09
250	0x316c5d6f	3.439563e-09
251	0x2f1cb2db	1.425166e-10
252	0xb02eb20b	-6.3553846e-10
253	0x3191fc50	4.24874e-09
254	0xb0e0846c	-1.6335782e-09
255	0x30d08dea	1.5174326e-09

exp_avg_sq f4 [2, 64]
0	0x33886980	6.352184e-08
1	0x33a54aec	7.6970395e-08
2	0x34755b3d	2.2850595e-07
3	0x3320ddd0	3.745464e-08
4	0x33a64365	7.7422364e-08
5	0x34ad9444	3.2331639e-07
6	0x36324462	2.656387e-06
7	0x32a3281c	1.8993937e-08
8	0x35aaafc6	1.2717144e-06
9	0x35c67222	1.4785367e-06
10	0x33b796d6	8.5490385e-08
11	0x3501e5b2	4.8390496e-07
12	0x349d3d99	2.9288347e-07
13	0x36783b72	3.6989481e-06
14	0x356ec773	8.8952146e-07
15	0x3640d561	2.8734432e-06
16	0x349f4754	2.9667956e-07
17	0x3632aed6	2.6625835e-06
18	0x35c9dfa1	1.5040752e-06
19	0x340d4227	1.3155714e-07
20	0x341af92b	1.4433014e-07
21	0x32200f29	9.316673e-09
22	0x347a405c	2.3306478e-07
23	0x34fcec34	4.7110518e-07
24	0x33a9baa0	7.903623e-08
25	0x3683c843	3.9274178e-06
26	0x343ce84f	1.7593378e-07
27	0x362aa32d	2.5426955e-06
28	0x373e804b	1.1354753e-05
29	0x34f4fd13	4.5632677e-07
30	0x33580026	5.0291554e-08
31	0x3340636f	4.4793918e-08
32	0x341f36ac	1.4827918e-07
33	0x344961cf	1.8755166e-07
34	0x3490d35b	2.6975871e-07
35	0x34f8604c	4.6263665e-07
36	0x33a6653f	7.748394e-08
37	0x35004e52	4.7797687e-07
38	0x33c4068e	9.1281535e-08
39	0x36309666	2.6313587e-06
40	0x33a187f3	7.521876e-08
41	0x342e4d1a	1.6233062e-07
42	0x35015dee	4.819293e-07
43	0x342f6a0b	1.6336723e-07
44	0x338ae28a	6.467333e-08
45	0x34a0fe70	2.998745e-07
46	0x338eab20	6.643518e-08
47	0x365135e5	3.1174798e-06
48	0x352e7773	6.499387e-07
49	0x36b766cb	5.4657917e-06
50	0x339c2fc8	7.2730074e-08
51	0x35ec8403	1.7621791e-06
52	0x366d7b96	3.5387689e-06
53	0x35d1e383	1.5637928e-06
54	0x32b8c73b	2.1511019e-08
55	0x358549bb	9.930731e-07
56	0x33c07e38	8.963656e-08
57	0x352c7661	6.4247257e-07
58	0x338af9b5	6.471547e-08
59	0x3411755c	1.3546872e-07
60	0x3406fd7d	1.2571941e-07
61	0x3391188d	6.7565544e-08
62	0x33c8a961	9.3440356e-08
63	0x343f740a	1.7830476e-07
64	0x330d290d	3.2866456e-08
65	0x33687b67	5.4128943e-08
66	0x341e999b	1.4770778e-07
67	0x330bf995	3.2590453e-08
68	0x3336bcef	4.254701e-08
69	0x344e0d1d	1.9190016e-07
70	0x360b32ce	2.0742186e-06
71	0x32398410	1.0798445e-08
72	0x355cc7b0	8.224697e-07
73	0x35a46145	1.2247261e-06
74	0x3418484b	1.4182403e-07
75	0x349c4d72	2.9113613e-07
76	0x3429465b	1.5764947e-07
77	0x36388296	2.7494148e-06
78	0x3537c691	6.8461765e-07
79	0x363c0834	2.8018958e-06
80	0x3478b8f2	2.3164083e-07
81	0x3629e5bb	2.5316683e-06
82	0x35852bff	9.922077e-07
83	0x3386dec6	6.2803835e-08
84	0x33b2a286	8.318334e-08
85	0x31c0b059	5.607984e-09
86	0x344d9b96	1.9148715e-07
87	0x34dbb6f1	4.0925036e-07
88	0x33b220a8	8.294711e-08
89	0x365f75bf	3.3298127e-06
90	0x3470e5a6	2.2435287e-07
91	0x36005ad6	1.912636e-06
92	0x37125000	8.720905e-06
93	0x34bf497d	3.5629992e-07
94	0x33240bb3	3.8194866e-08
95	0x33040a6b	3.074312e-08
96	0x340b0d6c	1.2950267e-07
97	0x3422eb80	1.51731e-07
98	0x34752f0e	2.2834521e-07
99	0x34a857b3	3.1356248e-07
100	0x336d0c62	5.5192125e-08
101	0x34aa3541	3.1703715e-07
102	0x33f42317	1.1368518e-07
103	0x360757ff	2.0167788e-06
104	0x33a3da2d	7.629965e-08
105	0x33d9587a	1.0120944e-07
106	0x34b9284d	3.4488258e-07
107	0x343b5448	1.7446393e-07
108	0x336862b8	5.4106494e-08
109	0x34882743	2.536054e-07
110	0x33c071c1	8.9613884e-08
111	0x36289174	2.5118616e-06
112	0x352843e7	6.268369e-07
113	0x368bdeac	4.1684452e-06
114	0x33b4c29e	8.417304e-08
115	0x3593d02a	1.1012937e-06
116	0x3645e383	2.9487717e-06
117	0x35a3c3fd	1.2201486e-06
118	0x32b0cba5	2.0581703e-08
119	0x356c11f3	8.794297e-07
120	0x33913c3e	6.763047e-08
121	0x350f8ac0	5.347356e-07
122	0x33b9ae34	8.646421e-08
123	0x34267df7	1.550578e-07
124	0x34041b11	1.2303305e-07
125	0x33d9aad4	1.01359234e-07
126	0x340c8e5e	1.3090309e-07
127	0x33e8c0e0	1.08384256e-07

exp_avg f4 [2, 64]
0	0xb8753415	-5.8461057e-05
1	0xb9369062	-0.0001741066
2	0xb9a9846a	-0.00032332848
3	0xb856da0b	-5.1224644e-05
4	0x38db2cae	0.00010451056
5	0x37b0051f	2.098322e-05
6	0x38b6c2c2	8.714713e-05
7	0xb8d931db	-0.00010356653
8	0xb7fd45ed	-3.0192512e-05
9	0x38b1ec58	8.48404e-05
10	0x39b13857	0.00033802047
11	0xb8bc7e07	-8.988013e-05
12	0x3920594f	0.00015292059
13	0xb90b1d45	-0.00013266977
14	0x39c734ef	0.00037995676
15	0x398c23c3	0.00026729525
16	0x3914b9d3	0.00014183605
17	0x381131b9	3.4617e-05
18	0xb73e1bd5	-1.1331363e-05
19	0xb909925c	-0.00013119861
20	0xb90c64d1	-0.00013388997
21	0xb8162b05	-3.5802852e-05
22	0xb82af569	-4.0759714e-05
23	0x3911a568	0.00013889896
24	0x393ebac4	0.00018189388
25	0xb9e3816d	-0.00043393244
26	0x39dd78ac	0.00042242312
27	0xb7890fd2	-1.633904e-05
28	0x3a5c0dd2	0.00083943934
29	0x38adae43	8.2817416e-05
30	0xb90075fb	-0.00012250982
31	0x37a2cfce	1.9408672e-05
32	0xb840fba8	-4.601074e-05
33	0x38503518	4.9640512e-05
34	0xb89f55c5	-7.5976866e-05
35	0x3777a5a6	1.4760915e-05
36	0x38feb620	0.00012145587
37	0x38b5a58a	8.6615866e-05
38	0xb95eb552	-0.00021239117
39	0xb9ebee66	-0.00045000314
40	0xb8fd292f	-0.00012071651
41	0xb8b96e2d	-8.842009e-05
42	0xb9179db1	-0.00014459227
43	0xb98c4cdd	-0.00026760148
44	0x3769726f	1.3914526e-05
45	0x38a9d00b	8.097299e-05
46	0x394a4e52	0.00019293398
47	0x3a0d45c8	0.00053891214
48	0x372bd2df	1.02414915e-05
49	0x3a1d9452	0.0006011176
50	0x39475b8b	0.00019012221
51	0xb9851bba	-0.00025388395
52	0x399f4036	0.00030374684
53	0xb9836357	-0.0002506028
54	0xb7cc00cc	-2.4319066e-05
55	0xb97738f7	-0.00023576977
56	0x37d24fd2	2.507112e-05
57	0x39791ac5	0.00023756463
58	0xb9686758	-0.00022163743
59	0xb78f5fb5	-1.7091495e-05
60	0x37335b93	1.0690553e-05
61	0xb97c5c6c	-0.00024067023
62	0x38464427	4.727035e-05
63	0xb901424f	-0.000123271
64	0xb65b9354	-3.27193e-06
65	0x375743ae	1.28307565e-05
66	0x37d87b8a	2.5806734e-05
67	0x36f41c66	7.2750727e-06
68	0x364bfbcd	3.0395925e-06
69	0xb7932bb7	-1.7544122e-05
70	0x38a48d4a	7.8464465e-05
71	0xb5852e56	-9.922758e-07
72	0xb8251abf	-3.9363975e-05
73	0x3816649f	3.5856498e-05
74	0xb82e801e	-4.160415e-05
75	0x37bd67bb	2.2578859e-05
76	0xb68a97d1	-4.1303942e-06
77	0x38a712a3	7.966652e-05
78	0xb8ae7825	-8.319345e-05
79	0xb8df26c9	-0.00010640693
80	0xb7fb9790	-2.9992108e-05
81	0xb89bc361	-7.427368e-05
82	0x381c7b1e	3.730796e-05
83	0xb76cf27b	-1.4123153e-05
84	0x370e9777	8.499125e-06
85	0x36b9dd2b	5.539177e-06
86	0x36bf069e	5.693014e-06
87	0x353bec5f	7.0006894e-07
88	0xb732e185	-1.0662135e-05
89	0x39292e2d	0.00016134298
90	0xb85757bb	-5.13417e-05
91	0x38b0a0ae	8.422263e-05
92	0xb982ce68	-0.00024949317
93	0xb82b8b9e	-4.0899606e-05
94	0x37871c2b	1.610637e-05
95	0x3449e6b8	1.8803519e-07
96	0x373fed18	1.143969e-05
97	0xb70feb78	-8.5782885e-06
98	0x3711b42a	8.684621e-06
99	0xb7843247	-1.5759038e-05
100	0xb798802c	-1.8179497e-05
101	0xb744bae7	-1.1726027e-05
102	0x380a9aed	3.304605e-05
103	0x38e1de73	0.000107702705
104	0x378ba3b4	1.6646321e-05
105	0x36717f5e	3.5985936e-06
106	0x37c22fc5	2.3148847e-05
107	0x382a9b41	4.067575e-05
108	0xb681856a	-3.860031e-06
109	0xb743b82e	-1.1665788e-05
110	0xb7fd193d	-3.0171703e-05
111	0xb908a429	-0.00013031125
112	0xb7c62285	-2.3619514e-05
113	0xb934baaa	-0.00017235675
114	0xb71955e9	-9.139513e-06
115	0x38a57d8b	7.891197e-05
116	0xb8f7425d	-0.00011790239
117	0x387916e1	5.9387534e-05
118	0x366a661c	3.4928153e-06
119	0x389ab6a5	7.3773124e-05
120	0xb5b3bc1f	-1.339129e-06
121	0xb63d7964	-2.8233853e-06
122	0x37b6ba6e	2.1782904e-05
123	0x359523dd	1.1111803e-06
124	0xb6f92aae	-7.425747e-06
125	0x380b99c8	3.3283402e-05
126	0xb74aea1c	-1.2094646e-05
127	0x36b1f66e	5.3036993e-06

exp_avg_sq f4 [256]
0	0x2d8b95ff	1.5869082e-11
1	0x2e4c6d09	4.6481072e-11
2	0x2e123141	3.3240303e-11
3	0x2dd39e10	2.4058117e-11
4	0x2dcdd2b4	2.3399373e-11
5	0x2f4da4f9	1.8703251e-10
6	0x3200cd3d	7.497246e-09
7	0x2d63f2d9	1.2957379e-11
8	0x312d592d	2.5225504e-09
9	0x314f4fe5	3.016788e-09
10	0x2f2ed97c	1.5902474e-10
11	0x308672c4	9.782402e-10
12	0x2e03bc8a	2.9953408e-11
13	0x31af775e	5.106741e-09
14	0x30e6f46d	1.6804172e-09
15	0x3143d550	2.8497489e-09
16	0x3109af0a	2.0035622e-09
17	0x3191be95	4.241722e-09
18	0x310d68f2	2.0577855e-09
19	0x2e29b5aa	3.85875e-11
20	0x2e9afbd9	7.047846e-11
21	0x2d99fbea	1.7505958e-11
22	0x301e64d0	5.762333e-10
23	0x3050716d	7.5831147e-10
24	0x2ec543ae	8.970545e-11
25	0x324a472f	1.1774133e-08
26	0x2fafaa36	3.1953257e-10
27	0x324a9d9d	1.1793785e-08
28	0x32e7663e	2.6938434e-08
29	0x304f21f4	7.535441e-10
30	0x2f0499ae	1.2059928e-10
31	0x2ee653cf	1.04740765e-10
32	0x2f89cb95	2.5064809e-10
33	0x30822c2b	9.471298e-10
34	0x2eafb11c	7.9895396e-11
35	0x2f9739b4	2.750774e-10
36	0x2f00a17b	1.1698902e-10
37	0x2f26e4aa	1.517885e-10
38	0x2f314774	1.6123441e-10
39	0x32049505	7.717294e-09
40	0x2f1eed28	1.4454271e-10
41	0x2eec47d9	1.07448e-10
42	0x2ea7716c	7.6144285e-11
43	0x30157638	5.4373883e-10
44	0x2e82c160	5.946066e-11
45	0x306943cd	8.4861257e-10
46	0x2ef53ff2	1.1152669e-10
47	0x31f56c35	7.14274e-09
48	0x3083af29	9.581288e-10
49	0x328666db	1.5646426e-08
50	0x2f2c619d	1.5677988e-10
51	0x318a9865	4.033654e-09
52	0x310bfcfc	2.0370967e-09
53	0x3092c428	1.0678649e-09
54	0x2e860035	6.093651e-11
55	0x30bb5004	1.3628783e-09
56	0x2df4ffca	2.7853182e-11
57	0x3114aa8c	2.163378e-09
58	0x2ec30e18	8.870077e-11
59	0x2ec042a5	8.7429876e-11
60	0x2f5f0eec	2.0287033e-10
61	0x2f1f5bed	1.4493624e-10
62	0x2e90f113	6.591185e-11
63	0x2e713c21	5.485046e-11
64	0x2cfcc8d8	7.184569e-12
65	0x2e3816d0	4.1857018e-11
66	0x2e1caaa9	3.562187e-11
67	0x2d07492b	7.690108e-12
68	0x2de359e1	2.5846826e-11
69	0x2f07336c	1.2296447e-10
70	0x320d1808	8.212744e-09
71	0x2cd55c2b	6.064057e-12
72	0x3106f47b	1.9638537e-09
73	0x313015aa	2.5623685e-09
74	0x2f23cc25	1.489729e-10
75	0x305a9588	7.9520435e-10
76	0x2de7af6a	2.6339559e-11
77	0x3193d6f4	4.3027004e-09
78	0x30aa0629	1.2370879e-09
79	0x314ed5cc	3.0098475e-09
80	0x310aad51	2.0180162e-09
81	0x31a495eb	4.790072e-09
82	0x30ecac81	1.7220289e-09
83	0x2df1cd0a	2.7489584e-11
84	0x2e6a69bd	5.3299355e-11
85	0x2d17990a	8.617338e-12
86	0x300f23a9	5.2073773e-10
87	0x3060eac5	8.1824353e-10
88	0x2eaf7d24	7.980308e-11
89	0x325376e5	1.230885e-08
90	0x2fd4b061	3.86879e-10
91	0x320d56ae	8.226989e-09
92	0x32e1e492	2.629739e-08
93	0x300969fa	4.999091e-10
94	0x2e9aed33	7.045244e-11
95	0x2e819919	5.8934364e-11
96	0x2fe8b583	4.2329526e-10
97	0x3053e461	7.70859e-10
98	0x2eb05ceb	8.020059e-11
99	0x2f3f6c53	1.7409833e-10
100	0x2e449b5b	4.4703224e-11
101	0x2f2a5ce7	1.5494415e-10
102	0x2f12c267	1.3347688e-10
103	0x32195eb1	8.9273025e-09
104	0x2eb69b70	8.304013e-11
105	0x2ea229a8	7.374307e-11
106	0x2e82578f	5.927269e-11
107	0x2fbdc02c	3.4515446e-10
108	0x2e517759	4.76271e-11
109	0x3073f09e	8.874482e-10
110	0x2eb48c61	8.2103886e-11
111	0x32034413	7.640682e-09
112	0x30ac62ca	1.2542725e-09
113	0x326a6c97	1.3645283e-08
114	0x2ee84146	1.05617334e-10
115	0x319d0e99	4.570961e-09
116	0x31152ba6	2.1707165e-09
117	0x306ce889	8.618675e-10
118	0x2e384680	4.1899373e-11
119	0x306cc823	8.614071e-10
120	0x2da07b77	1.8244723e-11
121	0x31173a61	2.2006577e-09
122	0x2e99c2d4	6.992243e-11
123	0x2ea704e8	7.595152e-11
124	0x2f26287c	1.5111995e-10
125	0x2ef3953d	1.1076871e-10
126	0x2e7f87aa	5.810078e-11
127	0x2e2e721a	3.9664362e-11
128	0x321e1126	9.2007095e-09
129	0x339a3127	7.1801246e-08
130	0x3380fc46	6.006353e-08
131	0x33997e40	7.1475824e-08
132	0x33393e03	4.313007e-08
133	0x335470cc	4.9462685e-08
134	0x35423bc9	7.235763e-07
135	0x333008a2	4.0986045e-08
136	0x34a1de6e	3.0150426e-07
137	0x34a53339	3.0770914e-07
138	0x34409198	1.793436e-07
139	0x3506aa2c	5.016652e-07
140	0x325334bb	1.2293806e-08
141	0x345f9c5e	2.082538e-07
142	0x34db9b54	4.0904945e-07
143	0x349dc38b	2.9385805e-07
144	0x36015493	1.9271727e-06
145	0x34b92ec3	3.449296e-07
146	0x347e8bf8	2.3706514e-07
147	0x3316481e	3.4990187e-08
148	0x33ed60b3	1.1053762e-07
149	0x33b91bc2	8.619783e-08
150	0x350c501c	5.227064e-07
151	0x34a63d54	3.0964532e-07
152	0x33ee28c6	1.1090155e-07
153	0x35997ad7	1.1435139e-06
154	0x34eaf8e7	4.3766997e-07
155	0x350942d1	5.113371e-07
156	0x351043d4	5.3742883e-07
157	0x344b1163	1.8912174e-07
158	0x34a179e8	3.0077285e-07
159	0x3486fb14	2.5142128e-07
160	0x3513a0fd	5.4996036e-07
161	0x350efddf	5.3268553e-07
162	0x33517b4d	4.8773746e-08
163	0x330920e9	3.192773e-08
164	0x34082f57	1.2683209e-07
165	0x33135fd8	3.4313274e-08
166	0x34e34031	4.232875e-07
167	0x35614292	8.3915904e-07
168	0x34a62892	3.0949428e-07
169	0x3369b6de	5.4415857e-08
170	0x32a1aef8	1.8822433e-08
171	0x350a85f6	5.1603945e-07
172	0x34212fe0	1.501171e-07
173	0x352e62eb	6.4963996e-07
174	0x34419016	1.8026944e-07
175	0x35483bd0	7.4592845e-07
176	0x34b88194	3.436695e-07
177	0x351c1158	5.8139767e-07
178	0x34b6f5da	3.4079022e-07
179	0x357916ac	9.279272e-07
180	0x3413d2fe	1.37672e-07
181	0x33ecfc88	1.10355415e-07
182	0x34566b70	1.9969389e-07
183	0x3469596a	2.1732345e-07
184	0x32bd06e4	2.200563e-08
185	0x3532ed37	6.665536e-07
186	0x33edd3da	1.1074708e-07
187	0x338793b2	6.313293e-08
188	0x3439efa8	1.7316654e-07
189	0x3471a56a	2.2505051e-07
190	0x3334c7aa	4.209111e-08
191	0x330341f1	3.0560788e-08
192	0x2d44be51	1.1183569e-11
193	0x2e3141b3	4.0303493e-11
194	0x2e269b2b	3.7881847e-11
195	0x2e0912e3	3.116697e-11
196	0x2de5c566	2.6121948e-11
197	0x2f6febb7	2.1820666e-10
198	0x3209a5c5	8.012141e-09
199	0x2d5b0bb1	1.2451305e-11
200	0x3101d144	1.8890924e-09
201	0x30f799ba	1.8015307e-09
202	0x2f485d38	1.8223012e-10
203	0x30bc36ce	1.3694377e-09
204	0x2e04c775	3.019048e-11
205	0x31d7675b	6.2690737e-09
206	0x30eae28e	1.7090132e-09
207	0x3166c578	3.3581653e-09
208	0x3108d247	1.9910134e-09
209	0x31bb4e96	5.4513505e-09
210	0x312e5bf4	2.5372602e-09
211	0x2e2fd771	3.9981744e-11
212	0x2e8f1dc2	6.508173e-11
213	0x2daab255	1.9405958e-11
214	0x300923be	4.98911e-10
215	0x306be2d1	8.581483e-10
216	0x2eca611d	9.203147e-11
217	0x326de82d	1.3848006e-08
218	0x2fff5b3e	4.644906e-10
219	0x32367906	1.0621312e-08
220	0x330b0b2d	3.2373624e-08
221	0x30383e14	6.702703e-10
222	0x2f0ecb7f	1.2987121e-10
223	0x2f29960a	1.5423765e-10
224	0x2fbeda15	3.4715755e-10
225	0x305d5277	8.051652e-10
226	0x2f05d5b9	1.2172209e-10
227	0x2f6a36fe	2.1301713e-10
228	0x2e983b53	6.922698e-11
229	0x2f83b066	2.39541e-10
230	0x2f33195b	1.6288963e-10
231	0x322bb1e9	9.993962e-09
232	0x2f14e09b	1.3540317e-10
233	0x2eda1f2b	9.919029e-11
234	0x2ecb1e5f	9.236766e-11
235	0x30297740	6.1651306e-10
236	0x2e6b9bc8	5.3571175e-11
237	0x305711eb	7.824201e-10
238	0x2ecb2017	9.2370715e-11
239	0x31e2bcc1	6.5989245e-09
240	0x30cda5f3	1.4962879e-09
241	0x32b0192c	2.0500543e-08
242	0x2f3d3903	1.7209704e-10
243	0x31a7bec0	4.8820255e-09
244	0x31168641	2.1904187e-09
245	0x306deb88	8.655481e-10
246	0x2e969c4a	6.848973e-11
247	0x30aa18c0	1.2376162e-09
248	0x2e13f6d9	3.3643175e-11
249	0x31175a5e	2.202476e-09
250	0x2e99b66f	6.990041e-11
251	0x2eb32aea	8.1476006e-11
252	0x2fa3c0ea	2.97866e-10
253	0x2f3e3c1a	1.7301752e-10
254	0x2e56a788	4.8806764e-11
255	0x2e592f1c	4.938193e-11

exp_avg f4 [256]
0	0x346dff93	2.2165322e-07
1	0x360242e5	1.9410447e-06
2	0x365eaf2e	3.3182546e-06
3	0x33d5a8f8	9.949321e-08
4	0x34ea48aa	4.3638767e-07
5	0x343de83b	1.7686482e-07
6	0x372aab46	1.0172667e-05
7	0x349af595	2.886342e-07
8	0x34f73027	4.604237e-07
9	0x366a9367	3.4954517e-06
10	0x37370835	1.0909561e-05
11	0x3649046f	2.9953915e-06
12	0x34bd35d4	3.5243158e-07
13	0x36fcb046	7.530706e-06
14	0x378dfca4	1.6926155e-05
15	0x36dfc6ba	6.6690527e-06
16	0x37162d58	8.951254e-06
17	0x36a516af	4.920024e-06
18	0x34223672	1.5107233e-07
19	0x35f6d8de	1.8391545e-06
20	0x3614fb12	2.219986e-06
21	0x349dc760	2.9388593e-07
22	0x359d2c3e	1.1710288e-06
23	0x355ba201	8.1819604e-07
24	0x35b7b9da	1.3688652e-06
25	0x37edaf1e	2.8334147e-05
26	0x376aa250	1.3985278e-05
27	0xb4c86373	-3.7325262e-07
28	0x382f5117	4.1798772e-05
29	0x35adfce0	1.2963101e-06
30	0x36afcf8e	5.239569e-06
31	0x34340ed2	1.6769198e-07
32	0x359e1891	1.1779067e-06
33	0x3607ad73	2.0217528e-06
34	0x34007574	1.1963658e-07
35	0x34cea6cc	3.849185e-07
36	0x3656040f	3.1890847e-06
37	0x352a869e	6.352583e-07
38	0x36a9cba2	5.0602985e-06
39	0x37663c33	1.37230845e-05
40	0x35f99943	1.8596551e-06
41	0x352ce516	6.4408357e-07
42	0x357a55fe	9.325739e-07
43	0x372f669a	1.0454702e-05
44	0xb45e2855	-2.0690034e-07
45	0x34856f84	2.485432e-07
46	0x36ae3bb5	5.192555e-06
47	0x37e45cb4	2.7222886e-05
48	0x3599836e	1.1437639e-06
49	0x3819406c	3.653804e-05
50	0x36c57045	5.8841274e-06
51	0x3716cbcc	8.988147e-06
52	0x373361cb	1.0692001e-05
53	0x3644af5e	2.9308353e-06
54	0x34be8ff2	3.5494992e-07
55	0x37216ba2	9.621408e-06
56	0x34ab0695	3.185602e-07
57	0x37010d89	7.692151e-06
58	0x36bd5f94	5.6437657e-06
59	0x3336d046	4.25646e-08
60	0x3350187e	4.845105e-08
61	0x36c1bf9b	5.774154e-06
62	0xb55c2ad3	-8.2018704e-07
63	0x3506dd6c	5.02411e-07
64	0x33ed885d	1.1060977e-07
65	0x35ea3d9d	1.745229e-06
66	0x368d269a	4.2066213e-06
67	0x33e1c923	1.05139655e-07
68	0x34b48b39	3.362891e-07
69	0x32975d21	1.7621064e-08
70	0x3723ad09	9.755845e-06
71	0x3483dcba	2.456125e-07
72	0x3495d1c2	2.7906032e-07
73	0x3653302c	3.146949e-06
74	0x3737b49c	1.0949701e-05
75	0x35c0503c	1.4328466e-06
76	0x34c3a7e8	3.6443748e-07
77	0x36b6d876	5.449222e-06
78	0x3785c2a1	1.5945467e-05
79	0x36f3021a	7.242209e-06
80	0x371a29c8	9.188843e-06
81	0x36a40cce	4.8890715e-06
82	0x33a92dd8	7.878015e-08
83	0x359cd6b6	1.1685395e-06
84	0x35dbd55d	1.6378868e-06
85	0x34380e81	1.7141612e-07
86	0x3517079d	5.626296e-07
87	0x35848cfe	9.8758e-07
88	0x35b38aea	1.3376969e-06
89	0x37f8e1f0	2.9669114e-05
90	0x378fbf91	1.7136133e-05
91	0x34957807	2.7840744e-07
92	0x383ed169	4.549456e-05
93	0x3583ad8f	9.810773e-07
94	0x369b0bc9	4.620732e-06
95	0x34040745	1.2296103e-07
96	0x35415a40	7.2029434e-07
97	0x356a1fb5	8.721793e-07
98	0x33c4fba8	9.172737e-08
99	0x347bca26	2.3449738e-07
100	0x36208879	2.3921295e-06
101	0x3535adde	6.7680764e-07
102	0x36d40f4c	6.319873e-06
103	0x37878006	1.615287e-05
104	0x3607dd1b	2.0245268e-06
105	0x35199133	5.7208234e-07
106	0x3553d801	7.891795e-07
107	0x37301964	1.0496329e-05
108	0xb3be53eb	-8.862829e-08
109	0x343482d7	1.6811406e-07
110	0x36a4d174	4.9119644e-06
111	0x37f6f4cf	2.9439483e-05
112	0x35938f0b	1.0993984e-06
113	0x38101f83	3.4361623e-05
114	0x36aaacfd	5.0865333e-06
115	0x370a024e	8.225978e-06
116	0x372fa6f6	1.04696865e-05
117	0x3633c391	2.6786913e-06
118	0x345dff35	2.0675073e-07
119	0x36f04c10	7.161412e-06
120	0x346d7367	2.2114328e-07
121	0x3704e19b	7.920341e-06
122	0x36a691bd	4.9641517e-06
123	0x328c4667	1.633016e-08
124	0xb322ca0f	-3.7902335e-08
125	0x36c8428e	5.9682125e-06
126	0xb4bfb366	-3.5707052e-07
127	0x34dca8f5	4.1101126e-07
128	0xb7c27fae	-2.3186058e-05
129	0xb7105473	-8.602731e-06
130	0x35d9d005	1.6228302e-06
131	0x369cb51b	4.6702457e-06
132	0x38039d85	3.1379535e-05
133	0xb6247e6d	-2.4511494e-06
134	0x388436eb	6.30448e-05
135	0xb84df666	-4.9105285e-05
136	0x37af4fe6	2.0898831e-05
137	0x384a1c29	4.818678e-05
138	0xb8897d3b	-6.555995e-05
139	0x38789f53	5.927619e-05
140	0x3789c296	1.6422284e-05
141	0x389697e3	7.1808485e-05
142	0xb9111cf8	-0.0001383907
143	0xb8ced30f	-9.862158e-05
144	0xb93c8d72	-0.0001798177
145	0xb8a3c392	-7.8088735e-05
146	0x37214782	9.612997e-06
147	0xb877cb26	-5.9078586e-05
148	0x368f43be	4.2696183e-06
149	0x37162af9	8.950702e-06
150	0x38801c7a	6.10882e-05
151	0x37f8afa8	2.96457e-05
152	0x377ac7c3	1.4947672e-05
153	0x396e3416	0.00022716852
154	0xb8c8a161	-9.566802e-05
155	0xb7e253e0	-2.6980357e-05
156	0xb8f635dc	-0.00011740226
157	0xb7f3f8b0	-2.9083662e-05
158	0x3862b0d1	5.4047272e-05
159	0xb7857c91	-1.5912841e-05
160	0x3857ff9a	5.1498042e-05
161	0xb8739e17	-5.8082947e-05
162	0x35916e68	1.0835474e-06
163	0xb76b019b	-1.4007465e-05
164	0xb7d1b7e4	-2.5000372e-05
165	0xb7a2240f	-1.9328696e-05
166	0x38a3ef90	7.817068e-05
167	0x3891a1ba	6.944263e-05
168	0x38064ff4	3.202255e-05
169	0x36b92ee5	5.518889e-06
170	0x371ec746	9.463931e-06
171	0x38ea3da3	0.0001116947
172	0x355a9560	8.14287e-07
173	0x37e8f9d2	2.7772887e-05
174	0xb881e4c6	-6.193812e-05
175	0xb9249004	-0.00015693909
176	0xb89051e0	-6.8817055e-05
177	0xb914f93e	-0.0001420723
178	0xb78919e8	-1.6343736e-05
179	0x38c7fcc4	9.536141e-05
180	0xb8b99aa7	-8.850294e-05
181	0x3783672d	1.5664462e-05
182	0x3734603c	1.0751242e-05
183	0x38c9c84d	9.621736e-05
184	0xb6050d8f	-1.9826437e-06
185	0x3765e38f	1.3702446e-05
186	0x37b43924	2.148428e-05
187	0x37941448	1.7652419e-05
188	0xb69a62be	-4.6010528e-06
189	0x3893ec1e	7.0534865e-05
190	0x36dfd9a4	6.6712546e-06
191	0xb66cbfc9	-3.5278374e-06
192	0x3451d989	1.954378e-07
193	0x35f95bc9	1.8578659e-06
194	0x366faf22	3.5715716e-06
195	0x33e95a39	1.08663194e-07
196	0x34fa79bc	4.6654702e-07
197	0x345876d7	2.0159801e-07
198	0x3736f32c	1.0904663e-05
199	0x349a464e	2.873589e-07
200	0x34db3f51	4.0837998e-07
201	0x363207a5	2.6528517e-06
202	0x3740bff7	1.1488787e-05
203	0x366dbd67	3.5425999e-06
204	0x34bb5337	3.489201e-07
205	0x3706193a	7.992896e-06
206	0x378ef7b2	1.7043061e-05
207	0x36e96406	6.9555854e-06
208	0x3716a895	8.979948e-06
209	0x36b2e464	5.3314016e-06
210	0x34222120	1.5099477e-07
211	0x35f5b3e3	1.8306276e-06
212	0x360dddb0	2.1139676e-06
213	0x34a3a9c8	3.0484648e-07
214	0x3590dc68	1.0792983e-06
215	0x356ce656	8.8252034e-07
216	0x35b7d8f4	1.3697704e-06
217	0x3802f1b1	3.1219508e-05
218	0x378bcb6d	1.6664819e-05
219	0xb2cd937c	-2.3932209e-08
220	0x38465f09	4.7295387e-05
221	0x35a12122	1.2005078e-06
222	0x36b72fab	5.4593743e-06
223	0x3458f0e6	2.0204206e-07
224	0x35b355f2	1.3361553e-06
225	0x3600c46c	1.918782e-06
226	0x3418fc1e	1.4247823e-07
227	0x34b38fa0	3.344585e-07
228	0x36289d31	2.5125448e-06
229	0x355325d1	7.8658655e-07
230	0x36af5706	5.2255373e-06
231	0x3787deb7	1.6196964e-05
232	0x35f48618	1.8218443e-06
233	0x3525a74f	6.1710756e-07
234	0x358805ee	1.0134515e-06
235	0x373c1a09	1.1211735e-05
236	0xb4594b3b	-2.0237069e-07
237	0x3485807f	2.4866674e-07
238	0x369da2a9	4.6979007e-06
239	0x37d6d04a	2.560778e-05
240	0x35b959d4	1.3809718e-06
241	0x38326ae5	4.253806e-05
242	0x36d01d67	6.202306e-06
243	0x3727809e	9.983922e-06
244	0x373a3c94	1.1100568e-05
245	0x362e0c6f	2.5935258e-06
246	0x34cb117c	3.7824418e-07
247	0x37142712	8.830584e-06
248	0x34bbc5cb	3.4975378e-07
249	0x36faf79e	7.479407e-06
250	0x36a3d306	4.882345e-06
251	0x3330fa16	4.1205645e-08
252	0x336f77a8	5.575535e-08
253	0x36d5346d	6.353998e-06
254	0xb53740dc	-6.8267195e-07
255	0x34fc9a9d	4.7051154e-07
