src/movement_models/samplesize_1016_140351.pth (torch_old, 243051 bytes, 18 tensors)

exp_avg_sq f4 [2]
0.0005175332 0.0005228131
00000000: 11ab 073a 650d 093a

exp_avg f4 [2]
0.013497086 0.008703124
00000000: e222 5d3c 8c97 0e3c

exp_avg_sq f4 [256, 4]
4.814073e-10 4.3795997e-10 0.0 0.0 4.5818072e-10 4.0455655e-10 0.0 0.0
1.5191574e-10 1.1931006e-10 0.0 0.0 3.906235e-10 3.8454895e-10 0.0 0.0
1.15687106e-10 1.1984029e-10 0.0 0.0 6.312602e-11 6.097387e-11 0.0 0.0
1.0023998e-09 1.2609764e-09 0.0 0.0 1.188612e-08 1.2130991e-08 0.0 0.0
1.0158216e-09 8.403008e-10 0.0 0.0 8.154007e-11 8.184758e-11 0.0 0.0
4.6186727e-10 4.8514925e-10 0.0 0.0 4.276069e-10 3.6007838e-10 0.0 0.0
8.6591234e-11 6.088274e-11 0.0 0.0 4.984152e-09 4.673987e-09 0.0 0.0
1.4647485e-09 1.8659667e-09 0.0 0.0 1.3282545e-10 1.0267949e-10 0.0 0.0
2.5844715e-10 1.7968332e-10 0.0 0.0 4.009216e-10 3.2097328e-10 0.0 0.0
1.4337159e-10 1.7218067e-10 0.0 0.0 5.609494e-11 4.8477188e-11 0.0 0.0
4.7607784e-10 4.2174678e-10 0.0 0.0 1.0817157e-09 7.770815e-10 0.0 0.0
1.6560209e-10 1.4207746e-10 0.0 0.0 6.244244e-10 3.9570794e-10 0.0 0.0
9.0455404e-10 4.773356e-10 0.0 0.0 3.8899814e-11 2.0850996e-11 0.0 0.0
3.2681066e-11 3.4839485e-11 0.0 0.0 5.4835227e-11 4.2594678e-11 0.0 0.0
1.08190366e-10 1.0600234e-10 0.0 0.0 2.0863507e-10 1.1895686e-10 0.0 0.0
3.728326e-11 2.4429528e-11 0.0 0.0 4.0975678e-11 3.410763e-11 0.0 0.0
2.2146161e-10 2.2014458e-10 0.0 0.0 2.1694245e-10 1.5639882e-10 0.0 0.0
2.7445248e-08 3.1249087e-08 0.0 0.0 4.929889e-11 4.1143828e-11 0.0 0.0
2.690182e-09 2.7437075e-09 0.0 0.0 2.2869048e-10 2.3110931e-10 0.0 0.0
1.0976286e-10 9.96999e-11 0.0 0.0 1.5495212e-10 1.1835835e-10 0.0 0.0
3.8759282e-10 4.196553e-10 0.0 0.0 4.6868794e-11 3.8102372e-11 0.0 0.0
2.3557716e-09 2.6719604e-09 0.0 0.0 2.352533e-09 2.355413e-09 0.0 0.0
1.048334e-09 8.140934e-10 0.0 0.0 4.1604267e-10 2.7352384e-10 0.0 0.0
1.7020398e-10 1.2277024e-10 0.0 0.0 2.660894e-10 2.1099948e-10 0.0 0.0
1.1286124e-10 8.381482e-11 0.0 0.0 3.7827164e-10 2.4585692e-10 0.0 0.0
1.4817471e-10 1.3202643e-10 0.0 0.0 7.0969154e-11 6.525973e-11 0.0 0.0
3.84225e-10 3.482725e-10 0.0 0.0 9.067703e-11 6.0588895e-11 0.0 0.0
9.802844e-10 1.051565e-09 0.0 0.0 1.4117318e-10 7.3271195e-11 0.0 0.0
4.1570453e-10 2.640543e-10 0.0 0.0 2.8318285e-09 2.6178657e-09 0.0 0.0
2.6456e-09 2.1884567e-09 0.0 0.0 7.391398e-09 7.1270496e-09 0.0 0.0
1.3678261e-10 8.992707e-11 0.0 0.0 2.748106e-10 3.640146e-10 0.0 0.0
5.9391775e-10 4.960188e-10 0.0 0.0 3.2858813e-10 2.4952773e-10 0.0 0.0
00000000: 0754 0430 63c5 f02f 0000 0000 0000 0000
00000010: 34e3 fb2f 4668 de2f 0000 0000 0000 0000
00000020: 7b08 272f cc2e 032f 0000 0000 0000 0000
00000030: 5fbf d62f 7468 d32f 0000 0000 0000 0000
00000040: 0d66 fe2e 0bc4 032f 0000 0000 0000 0000
00000050: cad0 8a2e 3d15 862e 0000 0000 0000 0000
00000060: cfc4 8930 aa4e ad30 0000 0000 0000 0000
00000070: b533 4c32 aa68 5032 0000 0000 0000 0000
00000080: 0c9d 8b30 e9fa 6630 0000 0000 0000 0000
00000090: fb4e b32e 17fc b32e 0000 0000 0000 0000
000000a0: 0aea fd2f 585b 0530 0000 0000 0000 0000
000000b0: 5214 eb2f 87f4 c52f 0000 0000 0000 0000
000000c0: 886a be2e f0e1 852e 0000 0000 0000 0000
000000d0: 1141 ab31 d398 a031 0000 0000 0000 0000
000000e0: 4250 c930 6f3a 0031 0000 0000 0000 0000
000000f0: 0a0b 122f 6acb e12e 0000 0000 0000 0000
00000100: 3415 8e2f 5c90 452f 0000 0000 0000 0000
00000110: b368 dc2f f974 b02f 0000 0000 0000 0000
00000120: 84a3 1d2f 8d50 3d2f 0000 0000 0000 0000
00000130: 4ab5 762e 7634 552e 0000 0000 0000 0000
00000140: 00dd 0230 95db e72f 0000 0000 0000 0000
00000150: 7dab 9430 409a 5530 0000 0000 0000 0000
00000160: d814 362f 4037 1c2f 0000 0000 0000 0000
00000170: f6a3 2b30 f18a d92f 0000 0000 0000 0000
00000180: 55a4 7830 8235 0330 0000 0000 0000 0000
00000190: 4c15 2b2e 4568 b72d 0000 0000 0000 0000
000001a0: 9cbb 0f2e c639 192e 0000 0000 0000 0000
000001b0: fa2a 712e 5855 3b2e 0000 0000 0000 0000
000001c0: c3e9 ed2e 031a e92e 0000 0000 0000 0000
000001d0: 8d65 652f 61cb 022f 0000 0000 0000 0000
000001e0: 38f9 232e 68e2 d62d 0000 0000 0000 0000
000001f0: 8336 342e c701 162e 0000 0000 0000 0000
00000200: e77f 732f 310d 722f 0000 0000 0000 0000
00000210: df87 6e2f 5bf6 2b2f 0000 0000 0000 0000
00000220: bdc0 eb32 bc36 0633 0000 0000 0000 0000
00000230: 9ed1 582e d5f3 342e 0000 0000 0000 0000
00000240: 2fde 3831 d08b 3c31 0000 0000 0000 0000
00000250: a672 7b2f 7d1b 7e2f 0000 0000 0000 0000
00000260: ff5e f12e 0e3e db2e 0000 0000 0000 0000
00000270: 255f 2a2f ea22 022f 0000 0000 0000 0000
00000280: d714 d52f 3cb5 e62f 0000 0000 0000 0000
00000290: 9221 4e2e 7593 272e 0000 0000 0000 0000
000002a0: 2ce3 2131 a09d 3731 0000 0000 0000 0000
000002b0: 33aa 2131 dddc 2131 0000 0000 0000 0000
000002c0: f914 9030 bbc6 5f30 0000 0000 0000 0000
000002d0: cdb8 e42f 0f5f 962f 0000 0000 0000 0000
000002e0: 2924 3b2f c0fc 062f 0000 0000 0000 0000
000002f0: c148 922f 13ff 672f 0000 0000 0000 0000
00000300: 3b2f f82e 8d4f b82e 0000 0000 0000 0000
00000310: 00f5 cf2f 4929 872f 0000 0000 0000 0000
00000320: 79eb 222f 232a 112f 0000 0000 0000 0000
00000330: 1510 9c2e f681 8f2e 0000 0000 0000 0000
00000340: dd3a d32f ff76 bf2f 0000 0000 0000 0000
00000350: a166 c72e 843c 852e 0000 0000 0000 0000
00000360: b1ba 8630 a786 9030 0000 0000 0000 0000
00000370: b838 1b2f 0420 a12e 0000 0000 0000 0000
00000380: 3689 e42f 572a 912f 0000 0000 0000 0000
00000390: 0e9a 4231 fbe5 3331 0000 0000 0000 0000
000003a0: e3cd 3531 bd63 1631 0000 0000 0000 0000
000003b0: 6df7 fd31 31e2 f431 0000 0000 0000 0000
000003c0: e264 162f 71c0 c52e 0000 0000 0000 0000
000003d0: 2714 972f 801e c82f 0000 0000 0000 0000
000003e0: 3f41 2330 3858 0830 0000 0000 0000 0000
000003f0: aba4 b42f e82d 892f 0000 0000 0000 0000

exp_avg f4 [256, 4]
-2.6476002e-05 -1.358128e-05 0.0 0.0 -3.3329477e-06 -1.3322871e-06 0.0 0.0
-1.1016207e-07 -4.193723e-08 0.0 0.0 -1.255361e-06 -6.8539964e-07 0.0 0.0
-4.4482053e-06 -2.1097949e-06 0.0 0.0 -1.940219e-06 -1.8924771e-06 0.0 0.0
-1.3339223e-05 -6.786537e-06 0.0 0.0 -2.8322782e-05 -2.676982e-05 0.0 0.0
-7.692675e-06 -3.5642663e-06 0.0 0.0 -8.097964e-06 -4.7925437e-06 0.0 0.0
-3.5436256e-06 -1.5248949e-06 0.0 0.0 1.5880465e-06 1.176474e-06 0.0 0.0
-3.7263513e-07 -4.218263e-07 0.0 0.0 3.8731114e-06 -5.267878e-06 0.0 0.0
9.9951485e-08 -3.20494e-06 0.0 0.0 -5.1661923e-06 -4.2532615e-06 0.0 0.0
-1.862658e-05 -9.5864425e-06 0.0 0.0 -2.4301939e-05 -1.2555651e-05 0.0 0.0
-1.7063007e-06 -9.4009147e-07 0.0 0.0 2.1333301e-07 -7.169364e-08 0.0 0.0
6.800673e-07 5.6021725e-07 0.0 0.0 -3.568914e-06 2.8886194e-07 0.0 0.0
-1.4862676e-05 -7.0097813e-06 0.0 0.0 -7.6931965e-06 -4.15511e-06 0.0 0.0
-6.1822325e-06 -2.8544891e-06 0.0 0.0 -1.4785978e-07 -2.856382e-07 0.0 0.0
-8.954294e-07 -5.1740085e-07 0.0 0.0 -6.617592e-06 -3.9163097e-06 0.0 0.0
-1.15235825e-05 -7.1814493e-06 0.0 0.0 -2.3636707e-05 -1.2423242e-05 0.0 0.0
-2.5582048e-07 -9.131116e-08 0.0 0.0 1.2835939e-06 7.6151156e-07 0.0 0.0
-1.3154631e-06 -9.3542496e-07 0.0 0.0 -1.0204106e-05 -6.999116e-06 0.0 0.0
2.0427478e-05 -8.471727e-06 0.0 0.0 -6.8051975e-07 -8.184486e-07 0.0 0.0
1.0159918e-05 9.325963e-07 0.0 0.0 -3.3273295e-06 -2.4599037e-06 0.0 0.0
-1.0758735e-05 -5.7250736e-06 0.0 0.0 -2.1307396e-06 -1.0628654e-06 0.0 0.0
-5.4700126e-06 -5.363212e-06 0.0 0.0 -2.6688226e-06 -1.3788909e-06 0.0 0.0
-9.602802e-07 -2.2964278e-07 0.0 0.0 4.9477176e-06 -1.8880584e-06 0.0 0.0
-6.854139e-06 -2.606694e-06 0.0 0.0 -3.2642067e-05 -1.6127186e-05 0.0 0.0
-3.24416e-07 -3.3331722e-07 0.0 0.0 -6.7396454e-06 -3.6217357e-06 0.0 0.0
-2.4220938e-07 8.0533796e-10 0.0 0.0 -9.668894e-06 -3.192688e-06 0.0 0.0
1.5623309e-07 2.2754044e-08 0.0 0.0 -3.9198778e-07 -2.4094942e-07 0.0 0.0
3.5467718e-07 2.6044964e-07 0.0 0.0 -1.0841142e-05 -5.083328e-06 0.0 0.0
-8.278452e-06 -7.0795554e-06 0.0 0.0 -2.9642997e-06 -1.4918185e-06 0.0 0.0
-3.1524423e-06 -2.087032e-06 0.0 0.0 1.1277229e-05 3.4102768e-06 0.0 0.0
2.373649e-05 9.667455e-06 0.0 0.0 1.6152519e-06 -8.609733e-06 0.0 0.0
-8.174054e-06 -4.082302e-06 0.0 0.0 -7.4329423e-06 -5.1336233e-06 0.0 0.0
-3.5036745e-05 -1.7481196e-05 0.0 0.0 -1.4273392e-05 -9.673804e-06 0.0 0.0
00000000: c818 deb7 27db 63b7 0000 0000 0000 0000
00000010: 9bab 5fb6 09d1 b2b5 0000 0000 0000 0000
00000020: 3d92 ecb3 791e 34b3 0000 0000 0000 0000
00000030: e07d a8b5 4efc 37b5 0000 0000 0000 0000
00000040: cb41 95b6 0096 0db6 0000 0000 0000 0000
00000050: b534 02b6 0501 feb5 0000 0000 0000 0000
00000060: 87cb 5fb7 e9b7 e3b6 0000 0000 0000 0000
00000070: b696 edb7 c08f e0b7 0000 0000 0000 0000
00000080: ca0f 01b7 a131 6fb6 0000 0000 0000 0000
00000090: 7edc 07b7 a3cf a0b6 0000 0000 0000 0000
000000a0: 06cf 6db6 fdaa ccb5 0000 0000 0000 0000
000000b0: dd24 d535 57e7 9d35 0000 0000 0000 0000
000000c0: 950e c8b4 5d77 e2b4 0000 0000 0000 0000
000000d0: c6f5 8136 bac2 b0b6 0000 0000 0000 0000
000000e0: e9a4 d633 7314 57b6 0000 0000 0000 0000
000000f0: 4159 adb6 3db7 8eb6 0000 0000 0000 0000
00000100: 4740 9cb7 75d5 20b7 0000 0000 0000 0000
00000110: 04dc cbb7 1ca6 52b7 0000 0000 0000 0000
00000120: 0c04 e5b5 985a 7cb5 0000 0000 0000 0000
00000130: 8810 6534 fff5 99b3 0000 0000 0000 0000
00000140: de8d 3635 d661 1635 0000 0000 0000 0000
00000150: 7a81 6fb6 e214 9b34 0000 0000 0000 0000
00000160: b55a 79b7 9035 ebb6 0000 0000 0000 0000
00000170: 0712 01b7 206c 8bb6 0000 0000 0000 0000
00000180: f970 cfb6 c08f 3fb6 0000 0000 0000 0000
00000190: 63c3 1eb4 d159 99b4 0000 0000 0000 0000
000001a0: 715d 70b5 84e3 0ab5 0000 0000 0000 0000
000001b0: af0c deb6 d868 83b6 0000 0000 0000 0000
000001c0: 6955 41b7 2ef8 f0b6 0000 0000 0000 0000
000001d0: 7147 c6b7 6b6d 50b7 0000 0000 0000 0000
000001e0: b357 89b4 d716 c4b3 0000 0000 0000 0000
000001f0: f347 ac35 ad6a 4c35 0000 0000 0000 0000
00000200: f88e b0b5 ea19 7bb5 0000 0000 0000 0000
00000210: 4d32 2bb7 f3d9 eab6 0000 0000 0000 0000
00000220: ad5b ab37 ca21 0eb7 0000 0000 0000 0000
00000230: f6ac 36b5 5cb3 5bb5 0000 0000 0000 0000
00000240: 8474 2a37 8857 7a35 0000 0000 0000 0000
00000250: 164b 5fb6 d314 25b6 0000 0000 0000 0000
00000260: 6a80 34b7 021a c0b6 0000 0000 0000 0000
00000270: d4fd 0eb6 c7a7 8eb5 0000 0000 0000 0000
00000280: 0d8b b7b6 a4f5 b3b6 0000 0000 0000 0000
00000290: 061a 33b6 5512 b9b5 0000 0000 0000 0000
000002a0: fae2 80b5 ba93 76b4 0000 0000 0000 0000
000002b0: 9204 a636 3169 fdb5 0000 0000 0000 0000
000002c0: 9bfc e5b6 a9ee 2eb6 0000 0000 0000 0000
000002d0: 27e9 08b8 de48 87b7 0000 0000 0000 0000
000002e0: 652b aeb4 c5f2 b2b4 0000 0000 0000 0000
000002f0: 1d25 e2b6 f20c 73b6 0000 0000 0000 0000
00000300: 0109 82b4 9f5e 5d30 0000 0000 0000 0000
00000310: 9537 22b7 f641 56b6 0000 0000 0000 0000
00000320: 06c1 2734 ac74 c332 0000 0000 0000 0000
00000330: 6472 d2b4 d65b 81b4 0000 0000 0000 0000
00000340: 766a be34 edd3 8b34 0000 0000 0000 0000
00000350: 5ae2 35b7 7491 aab6 0000 0000 0000 0000
00000360: aee3 0ab7 eb8c edb6 0000 0000 0000 0000
00000370: 48ee 46b6 7e3a c8b5 0000 0000 0000 0000
00000380: 8c8e 53b6 f00e 0cb6 0000 0000 0000 0000
00000390: 5433 3d37 1cdc 6436 0000 0000 0000 0000
000003a0: b91d c737 6731 2237 0000 0000 0000 0000
000003b0: a2cb d835 8672 10b7 0000 0000 0000 0000
000003c0: 4b23 09b7 b5fa 88b6 0000 0000 0000 0000
000003d0: 7d68 f9b6 7d41 acb6 0000 0000 0000 0000
000003e0: 6bf4 12b8 95a4 92b7 0000 0000 0000 0000
000003f0: c077 6fb7 ac4c 22b7 0000 0000 0000 0000

exp_avg_sq f4 [256]
4.757071e-10 4.798304e-10 1.5133042e-10 3.2376699e-10 1.5613642e-10 5.151764e-11 1.1199693e-09 1.0279827e-08
9.926557e-10 8.1930566e-11 4.2941922e-10 3.155708e-10 7.0982824e-11 3.7373358e-09 1.3595697e-09 8.466096e-11
1.8917462e-10 3.2643868e-10 1.04361506e-10 4.401883e-11 4.754043e-10 1.1530847e-09 1.2837031e-10 4.807432e-10
6.58546e-10 2.7373012e-11 2.7306792e-11 5.1080185e-11 9.549298e-11 1.461165e-10 3.3006316e-11 6.053568e-11
2.8056496e-10 1.4490337e-10 2.5969916e-08 4.5922627e-11 2.2131819e-09 1.7898144e-10 1.13108474e-10 1.2140157e-10
2.7202116e-10 4.3321957e-11 2.7276603e-09 1.8947441e-09 1.0995174e-09 2.991901e-10 1.5770456e-10 2.0132233e-10
9.8419266e-11 3.2265413e-10 1.6680472e-10 8.398398e-11 4.208208e-10 6.747956e-11 7.5295814e-10 9.867421e-11
3.0355274e-10 2.524458e-09 2.3914732e-09 5.8024145e-09 8.8363705e-11 2.4488706e-10 5.574345e-10 2.1712848e-10
4.5913276e-10 2.4105407e-10 1.2988062e-10 1.8279779e-10 7.279787e-11 2.5572685e-11 7.2594575e-10 6.384334e-09
6.283557e-10 4.5224647e-11 3.3818745e-10 1.5935954e-10 2.3527166e-11 2.324645e-09 1.1029165e-09 7.039908e-11
1.273694e-10 2.7355418e-10 6.690986e-11 3.239636e-11 3.2372807e-10 6.135994e-10 9.876984e-11 2.6295904e-10
5.982436e-10 2.1770759e-11 1.5144976e-11 1.910066e-11 6.871534e-11 1.3719796e-10 2.0959096e-11 1.9078924e-11
1.899698e-10 1.9462627e-10 2.6006337e-08 2.2285349e-11 1.0325891e-09 1.2739343e-10 3.8562983e-11 8.678936e-11
1.4062111e-10 2.9898587e-11 2.1266267e-09 1.271745e-09 6.7050554e-10 2.710268e-10 1.538496e-10 1.4798726e-10
5.6968954e-11 2.5255337e-10 8.9776124e-11 5.169054e-11 2.875029e-10 3.8107576e-11 5.66037e-10 8.073864e-11
1.605821e-10 1.2400456e-09 1.9996138e-09 4.146437e-09 8.4822656e-11 2.1824027e-10 4.4331902e-10 2.380505e-10
7.097255e-07 1.7633732e-07 6.693566e-08 9.4468035e-08 4.8746887e-07 4.7901715e-08 8.5096224e-07 9.355408e-07
1.6234641e-07 1.5509663e-07 1.353368e-07 3.1436588e-07 2.1263178e-07 5.004263e-07 8.609815e-07 1.00143836e-07
1.2069502e-07 4.188047e-07 8.404294e-08 1.4787182e-07 1.08570106e-07 6.23889e-07 2.2758823e-07 1.5017945e-07
4.1511714e-07 8.119535e-08 1.0094886e-07 1.0795639e-07 1.8485638e-07 2.685531e-07 3.7001605e-08 4.397253e-08
2.0779045e-07 2.7549484e-07 1.6916041e-06 3.757003e-08 4.409332e-07 3.3908353e-07 2.0022294e-07 4.3752937e-08
1.1364611e-07 1.0458402e-07 7.223879e-07 3.563104e-07 5.2474826e-07 5.21886e-07 2.495e-08 4.9556337e-07
3.7523492e-07 3.0183466e-07 1.5299678e-07 6.4808546e-08 2.8133023e-08 2.3524373e-07 5.559049e-07 1.5258365e-07
2.45332e-07 3.6475691e-07 8.5190413e-07 7.410865e-07 3.2883938e-07 9.310078e-07 6.2794214e-07 2.1118852e-07
4.661474e-10 4.0575393e-10 1.6464577e-10 3.0483677e-10 1.6697155e-10 5.5900323e-11 1.256935e-09 6.828735e-09
1.3978089e-09 7.433975e-11 3.4518638e-10 3.6987968e-10 4.777196e-11 3.3735577e-09 1.2463429e-09 9.405597e-11
1.8673824e-10 2.6551916e-10 1.1028957e-10 4.3240255e-11 4.1158718e-10 1.0466995e-09 1.4464555e-10 3.6475878e-10
8.0571494e-10 3.1062056e-11 2.8367654e-11 4.5325833e-11 1.0975888e-10 1.8953769e-10 2.739513e-11 5.7190773e-11
2.1278505e-10 1.5409901e-10 4.907754e-08 4.2894396e-11 2.441011e-09 1.540703e-10 1.00152386e-10 1.0623459e-10
1.7997413e-10 6.253847e-11 2.317777e-09 1.5401261e-09 9.425103e-10 3.290206e-10 2.578969e-10 2.067336e-10
1.2902879e-10 2.7965824e-10 1.4789883e-10 8.306923e-11 6.13253e-10 7.7418e-11 9.460067e-10 1.02463996e-10
2.7660527e-10 1.5959997e-09 2.6038767e-09 6.9743353e-09 7.1209066e-11 2.2185802e-10 4.986882e-10 2.585672e-10
00000000: e9c2 0230 10e5 0330 ba63 262f 27fe b12f
00000010: 7fac 2b2f b593 622e 6bed 9930 289b 3032
00000020: f86d 8830 cf2a b42e 6213 ec2f a47c ad2f
00000030: c717 9c2e f469 8031 9bdb ba30 e22b ba2e
00000040: ecff 4f2f 2976 b32f 4e7e e52e cc98 412e
00000050: 9bad 0230 907a 9e30 0825 0d2f 4c25 0430
00000060: 0e05 3530 8bc6 f02d 6e31 f02d 2da7 602e
00000070: c5fd d12e 23a8 202f cf29 112e 8f1e 852e
00000080: 023e 9a2f ac52 1f2f 7314 df32 48f8 492e
00000090: b516 1831 ccca 442f 69ba f82e 817b 052f
000000a0: 938b 952f 3088 3e2e 8271 3b31 b134 0231
000000b0: d41d 9730 437b a42f e365 2d2f 335b 5d2f
000000c0: 1f6d d82e 8861 b12f 5b67 372f c7ae b82e
000000d0: 4359 e72f 9d63 942e b8f8 4e30 a4fc d82e
000000e0: 40e1 a62f bc7a 2d31 3e57 2431 945e c731
000000f0: 5850 c22e caa0 862f f739 1930 3cbc 6e2f
00000100: 3169 fc2f 5885 842f 25ce 0e2f 01fd 482f
00000110: 8f15 a02e 91f0 e02d e48b 4730 325d db31
00000120: 9ab8 2c30 6de6 462e a7eb b92f b937 2f2f
00000130: 78f2 ce2d 96bf 1f31 6d95 9730 29cf 9a2e
00000140: 4d0b 0c2f 5463 962f e722 932e 0f7b 0e2e
00000150: adf8 b12f 38aa 2830 7a32 d92e 3290 902f
00000160: a771 2430 647f bf2d 7437 852d dd02 a82d
00000170: 4c1b 972e cbd9 162f b05b b82d ebd1 a72d
00000180: bfdf 502f 6dfe 552f 8a64 df32 2506 c42d
00000190: 00eb 8d30 1012 0c2f 0f9a 292e 11da be2e
000001a0: 539d 1a2f d17e 032e 0324 1231 8dc9 ae30
000001b0: a24e 3830 a2ff 942f d028 292f b6b6 222f
000001c0: 578d 7a2e bad7 8a2f 776b c52e 6056 632e
000001d0: 700e 9e2f 5199 272e 5097 1b30 d08b b12e
000001e0: d88f 302f 3a6e aa30 9469 0931 7278 8e31
000001f0: e986 ba2e 2df5 6f2f 9bb7 f32f a1de 822f
00000200: f783 3e35 3c57 3d34 45be 8f33 5ade ca33
00000210: 9bda 0235 7ebc 4d33 ae6d 6435 e021 7b35
00000220: 7151 2e34 a388 2634 1951 1134 1ec6 a834
00000230: c74f 6434 0955 0635 331e 6735 a80e d733
00000240: 6598 0134 14d8 e034 187b b433 b2c6 1e34
00000250: 0c27 e933 5379 2735 fa5e 7434 0341 2134
00000260: 44dd de34 9e5d ae33 39c9 d833 a7d5 e733
00000270: ef7c 4634 a82d 9034 b2eb 1e33 4fdc 3c33
00000280: 011d 5f34 b9e7 9334 130b e335 af5c 2133
00000290: 66b9 ec34 490b b634 ddfc 5634 ddea 3b33
000002a0: 9c0d f433 ac97 e033 1eea 4135 ee4a bf34
000002b0: 6ddc 0c35 bc17 0c35 a151 d632 db06 0535
000002c0: e573 c934 d70b a234 6f47 2434 e02c 8b33
000002d0: 2ca9 f132 4e97 7c34 7e39 1535 e0d5 2334
000002e0: 2cb6 8334 cfd3 c334 68ae 6435 14ef 4635
000002f0: 578b b034 5eea 7935 db8f 2835 0fc3 6234
00000300: 3522 0030 ca10 df2f aa07 352f f695 a72f
00000310: 5096 372f 2bda 752e 78c0 ac30 30a2 ea31
00000320: 071d c030 8f79 a32e aac4 bd2f f057 cb2f
00000330: 721a 522e 41d4 6731 cb4b ab30 ced4 ce2e
00000340: 2452 4d2f 80f8 912f 8287 f22e 332c 3e2e
00000350: bf45 e22f 77db 8f30 1a0a 1f2f 3c87 c82f
00000360: 2679 5d30 c49c 082e 4786 f92d 5a58 472e
00000370: c25c f12e 1e66 502f 59f8 f02d 1687 7b2e
00000380: abf5 692f 046f 292f 53c9 5233 cca6 3c2e
00000390: b8be 2731 ef66 292f c83c dc2e c29c e92e
000003a0: 37e2 452f 0786 892e c446 1f31 5fac d330
000003b0: a289 8130 88e1 b42f c3c7 8d2f 564e 632f
000003c0: 60de 0d2f 66be 992f d29d 222f d2ab b62e
000003d0: d891 2830 763e aa2e a704 8230 1a52 e12e
000003e0: bb10 982f 3f5a db30 e2ef 3231 e7a2 ef31
000003f0: 2497 9c2e 7bef 732f 1014 0930 1926 8e2f

exp_avg f4 [256]
-2.1021135e-05 -2.632859e-06 -8.722985e-08 -1.0178925e-06 -3.481878e-06 -1.3598981e-06 -1.0920583e-05 -1.9868141e-05
-6.159138e-06 -6.3657094e-06 -2.830522e-06 1.2636922e-06 -2.5176774e-07 4.2844563e-06 1.6335137e-07 -3.7366374e-06
-1.4972356e-05 -1.916082e-05 -1.3354885e-06 2.1496983e-07 5.0484596e-07 -3.3714766e-06 -1.1833948e-05 -6.3450234e-06
-5.0640156e-06 -1.1272902e-07 -7.3896206e-07 -5.355707e-06 -9.372418e-06 -1.8715655e-05 -2.0659188e-07 1.0205684e-06
-1.0510812e-06 -7.575069e-06 2.0671874e-05 -4.2913828e-07 8.417535e-06 -2.7017466e-06 -8.617457e-06 -1.7055388e-06
-4.3174678e-06 -2.1040883e-06 -6.922116e-07 4.4186613e-06 -5.730151e-06 -2.6177268e-05 -2.6208303e-07 -5.1802594e-06
-1.736106e-07 -7.9584515e-06 1.3202708e-07 -3.0203057e-07 3.232559e-07 -8.61993e-06 -6.4245755e-06 -2.4383266e-06
-2.5311483e-06 9.348611e-06 1.9440015e-05 3.036925e-06 -6.3844586e-06 -5.97841e-06 -2.8029952e-05 -1.0682491e-05
-2.0330457e-05 -1.1769399e-06 -7.2474964e-09 -6.999753e-08 -2.6230296e-06 -3.6741324e-07 -4.726346e-06 -1.1023439e-05
-4.304444e-06 -5.408622e-06 -1.8463323e-06 1.2755078e-06 1.0343512e-07 6.990949e-06 5.349899e-06 -3.4264342e-06
-1.2265274e-05 -1.5472173e-05 -1.091107e-06 7.8658934e-07 5.002644e-07 -1.1749834e-06 -9.637397e-06 -1.9461897e-06
-2.7927429e-06 1.8113938e-07 -1.5558048e-07 -2.3141774e-06 -4.8828024e-06 -1.6461048e-05 -3.2973878e-07 3.725516e-07
4.322463e-07 -7.303177e-06 2.236754e-05 -4.979697e-07 7.560253e-06 -1.4616336e-07 -5.112602e-06 -1.3910688e-06
-9.153054e-07 -2.0068974e-06 3.4315795e-07 5.355659e-06 -3.535626e-06 -2.3146318e-05 -4.7339388e-08 -3.7924317e-06
1.7854272e-07 -5.0869276e-06 1.7225771e-07 3.0179084e-08 -1.4273878e-07 -5.6117656e-06 -2.0073774e-06 -9.666151e-07
-1.2541117e-06 6.4279e-06 1.6021015e-05 6.286616e-06 -6.118904e-06 -7.964027e-07 -2.4694133e-05 -1.04259225e-05
-0.0010238114 0.0002709763 2.5223573e-05 0.00016858797 0.00040461766 2.2272901e-05 0.0005617043 -0.00016055319
-0.00025456797 0.00035389073 -0.00025680452 -0.00033932723 0.00036540054 0.00014624879 0.00080763944 9.727562e-05
0.00037899066 -0.0007171749 -0.00013847674 -0.00020833926 -3.5709858e-05 -2.8816969e-05 0.0005688602 0.00019255852
-0.00033203786 -5.4580025e-05 6.946851e-05 0.0003579075 0.00054065767 -0.0007131527 3.8168364e-06 -0.00010766303
-0.00035065482 -0.00028514236 -0.00028312855 1.1807708e-05 0.00039245695 -5.3024705e-05 -0.00030945468 0.000110816836
-8.5975065e-05 -0.00028147426 -7.066144e-05 -0.00016223908 -0.00015310496 -0.00085874315 7.1306135e-06 -0.0004949981
-0.00038131437 0.00029454645 -1.3874216e-05 0.00018585834 4.872849e-05 -0.00059071934 -0.00011483365 -0.00018372592
-0.00038183684 -0.00016264534 0.00045608223 -0.0001317986 -0.0005928539 -0.00017751503 -0.001047646 -0.00023797993
-2.113924e-05 -2.3674259e-06 -9.2454165e-08 -1.0173807e-06 -3.6761048e-06 -1.4184881e-06 -1.1257318e-05 -1.5220982e-05
-7.0329133e-06 -5.8594505e-06 -2.738884e-06 1.3208186e-06 -1.9675022e-07 4.98176e-06 1.8657558e-07 -3.9715223e-06
-1.49587495e-05 -1.6353903e-05 -1.3388506e-06 1.7567417e-07 4.6495845e-07 -3.220416e-06 -1.2156387e-05 -5.5299656e-06
-5.3972285e-06 -1.2295413e-07 -7.312786e-07 -5.0710437e-06 -1.0138965e-05 -2.1444612e-05 -1.8599053e-07 9.793227e-07
-9.3392583e-07 -7.659394e-06 2.5012323e-05 -4.3047547e-07 9.45812e-06 -2.5262616e-06 -8.111217e-06 -1.5839827e-06
-3.453873e-06 -2.4939893e-06 -6.5501575e-07 3.7827028e-06 -5.320145e-06 -2.718128e-05 -3.2475396e-07 -5.2527885e-06
-1.9609675e-07 -7.1952636e-06 1.2831205e-07 -3.1052835e-07 3.6566018e-07 -9.1901775e-06 -7.253581e-06 -2.4026676e-06
-2.4685792e-06 7.4071495e-06 1.955901e-05 2.8844356e-06 -5.644346e-06 -5.6937797e-06 -2.6013291e-05 -1.1431819e-05
00000000: 8b56 b0b7 2cb0 30b6 1e53 bbb3 859e 88b5
00000010: 35aa 69b6 be85 b6b5 8c37 37b7 82aa a6b7
00000020: 98aa ceb6 0799 d5b6 fff3 3db6 229c a935
00000030: b22a 87b4 33c3 8f36 af65 2f34 f1c2 7ab6
00000040: c831 7bb7 8cbb a0b7 093f b3b5 75d2 6634
00000050: c084 0735 8741 62b6 6b8a 46b7 56e7 d4b6
00000060: 90eb a9b6 6f15 f2b3 165d 46b5 2cb5 b3b6
00000070: 3b3e 1db7 90ff 9cb7 8bd3 5db4 77fa 8835
00000080: e012 8db5 592d feb6 8368 ad37 5164 e6b4
00000090: 0a39 0d37 a74f 35b6 b293 10b7 dee9 e4b5
000000a0: c4de 90b6 f633 0db6 6bd0 39b5 0344 9436
000000b0: 9f45 c0b6 4197 dbb7 6bb4 8cb4 17d2 adb6
000000c0: b869 3ab4 4a85 05b7 54c3 0d34 c426 a2b4
000000d0: f48b ad34 519e 10b7 af92 d7b6 22a2 23b6
000000e0: ccdc 29b6 fad7 1c37 1d13 a337 f9cd 4b36
000000f0: 153a d6b6 279a c8b6 dd21 ebb7 f338 33b7
00000100: 538b aab7 59f7 9db5 a705 f9b1 8d51 96b3
00000110: 4e07 30b6 e440 c5b4 0197 9eb6 4ff1 38b7
00000120: e46e 90b6 b67b b5b6 7fcf f7b5 1d32 ab35
00000130: 0f20 de33 cb93 ea36 4883 b336 b1f1 65b6
00000140: f3c6 4db7 3dca 81b7 2772 92b5 0226 5335
00000150: e849 0635 1fb4 9db5 4eb0 21b7 499b 02b6
00000160: f56a 3bb6 377f 4234 a30d 27b4 444d 1bb6
00000170: f4d6 a3b6 d515 8ab7 f406 b1b4 1a03 c834
00000180: 7b0f e834 d00d f5b6 eda1 bb37 38ac 05b5
00000190: 14ae fd36 14f1 1cb4 eb8c abb6 c3b4 bab5
000001a0: 4fb3 75b5 3cae 06b6 453b b834 c3b4 b336
000001b0: 9845 6db6 572a c2b7 3552 4bb3 7b81 7eb6
000001c0: 73b5 3f34 60b0 aab6 d7f5 3834 419e 0133
000001d0: bd43 19b4 b34c bcb6 7bb6 06b6 a4bc 81b5
000001e0: f352 a8b5 3eaf d736 de64 8637 9ff1 d236
000001f0: fc50 cdb6 60c8 55b5 3f26 cfb7 ffea 2eb7
00000200: 6931 86ba d311 8e39 3697 d337 fdc6 3039
00000210: dd22 d439 b1d6 ba37 563f 133a 2b5a 28b9
00000220: 8977 85b9 698a b939 b8a3 86b9 bbe7 b1b9
00000230: 3b93 bf39 5c5a 1939 c4b7 533a 7300 cc38
00000240: 44b3 c639 cb00 3cba 1134 11b9 a575 5ab9
00000250: 2bc7 15b8 f8bb f1b7 901f 153a 89e9 4939
00000260: 5e15 aeb9 dbec 64b8 9faf 9138 88a5 bb39
00000270: ecba 0d3a def2 3aba 6012 8036 26c9 e1b8
00000280: 18d8 b7b9 297f 95b9 df70 94b9 b819 4637
00000290: aec2 cd39 d866 5eb8 4e3e a2b9 5666 e838
000002a0: 834d b4b8 d692 93b9 1230 94b8 b91e 2ab9
000002b0: cd8a 20b9 471d 61ba 8143 ef36 c3c2 01ba
000002c0: 26eb c7b9 5b6d 9a39 4ec5 68b7 f8e2 4239
000002d0: d161 4c38 81da 1aba d9d2 f0b8 8da6 40b9
000002e0: 4631 c8b9 c78b 2ab9 521e ef39 6b33 0ab9
000002f0: c069 1bba 5423 3ab9 2b51 89ba 408a 79b9
00000300: 2c54 b1b7 11e0 1eb6 378b c6b3 ef8c 88b5
00000310: 00b3 76b6 e162 beb5 d0dd 3cb7 9f5d 7fb7
00000320: 44fc ebb6 4c9c c4b6 abcd 37b6 fb46 b135
00000330: 4a42 53b4 fe28 a736 8155 4834 1e43 85b6
00000340: 57f7 7ab7 bd2f 89b7 8eb2 b3b5 f3a0 3c34
00000350: 679f f934 531e 58b6 49f3 4bb7 0b8e b9b6
00000360: d719 b5b6 6005 04b4 154d 44b5 ef27 aab6
00000370: 861a 2ab7 f4e3 b3b7 b0b4 47b4 4671 8335
00000380: e5b2 7ab5 d980 00b7 8ed1 d137 191c e7b4
00000390: 51ae 1e37 d888 29b6 6915 08b7 3b99 d4b5
000003a0: 16c9 67b6 695e 27b6 57d4 2fb5 57da 7d36
000003b0: b383 b2b6 5b03 e4b7 d859 aeb4 1c41 b0b6
000003c0: aa8e 52b4 d86e f1b6 26c6 0934 b1b6 a6b4
000003d0: f44f c434 832f 1ab7 c963 f3b6 843d 21b6
000003e0: dea9 25b6 ee8a f836 a712 a437 3a92 4136
000003f0: 9064 bdb6 320d bfb6 1e37 dab7 4acb 3fb7

exp_avg_sq f4 [256, 64]
7.89171e-13 1.1473105e-12 4.788043e-13 7.404955e-13 7.164257e-14 7.3311305e-14 5.0668665e-13 2.6934592e-12
9.981057e-13 1.6600763e-13 1.0581981e-12 9.882199e-14 3.030499e-14 1.957246e-12 1.0431069e-12 1.7858569e-13
3.1556257e-13 7.090415e-13 8.68738e-14 5.1306005e-14 8.8859166e-13 2.926118e-13 2.1522922e-13 3.8426348e-13
7.015075e-13 6.2399386e-14 4.6295202e-14 5.5535576e-14 1.9948882e-13 2.941334e-13 8.01259e-14 1.3355567e-13
2.2052386e-13 1.9543893e-13 5.5635683e-12 2.2061185e-13 7.1798486e-13 1.5249954e-13 5.861237e-14 8.227578e-13
3.8077828e-13 1.102431e-13 1.1240456e-12 1.4994426e-12 4.737125e-13 1.6718946e-13 1.9387634e-12 4.9708552e-14
2.5727184e-14 1.795206e-13 1.901118e-13 2.649922e-13 3.6892767e-12 6.9960625e-14 2.883354e-13 1.9395816e-13
1.2583191e-13 7.7907375e-13 1.7352116e-12 1.6188239e-12 1.1472075e-13 8.728848e-14 1.0190288e-12 3.021504e-13
6.3235414e-13 1.5250775e-12 8.1348817e-13 1.0586659e-12 4.91966e-14 5.3341768e-14 5.341e-13 3.1340748e-12
1.7136263e-12 1.0468579e-13 1.5163874e-12 1.884768e-13 2.7622124e-14 2.8670241e-12 1.2179723e-12 2.3979066e-13
3.6582957e-13 5.531855e-13 4.9064458e-14 5.7562895e-14 1.5782909e-12 5.237063e-13 9.287015e-14 7.003337e-13
1.2023658e-12 7.2570476e-14 4.5411686e-14 3.4978795e-14 1.3717018e-13 1.7930342e-13 1.894106e-13 4.368931e-13
3.2350498e-13 1.1281033e-13 6.0555146e-12 3.4886162e-13 9.331132e-13 1.9038484e-13 4.3323835e-14 1.3619317e-12
3.254674e-13 1.8307461e-13 1.7331409e-12 2.067732e-12 8.234351e-13 1.5032734e-13 3.1995762e-12 4.9657808e-14
2.6559984e-14 2.443788e-13 3.1702508e-13 4.1202442e-13 6.157296e-12 4.996536e-14 4.5350342e-13 2.8371657e-13
2.4497085e-13 1.1573342e-12 2.6555114e-12 2.1367827e-12 1.4416261e-13 1.2010492e-13 8.0921874e-13 2.2228824e-13
1.0653881e-13 4.0243815e-13 3.6333577e-13 2.9273944e-13 1.4626087e-14 1.1287122e-14 2.1439233e-13 1.303416e-12
7.887223e-13 1.6935168e-14 4.1686094e-13 5.025726e-14 5.8952464e-15 9.192089e-13 3.7651184e-13 1.0328041e-13
2.0437231e-13 1.1543628e-13 8.647968e-15 3.6364517e-14 7.150133e-13 1.1993396e-13 2.4912606e-14 3.2761933e-13
5.17011e-13 3.499861e-14 7.780182e-15 1.3462019e-14 2.5557644e-14 4.221741e-14 1.0311899e-13 5.3114045e-14
1.5728595e-13 2.5160878e-14 2.2587674e-12 1.03935544e-13 2.439343e-13 3.8535852e-14 1.2760999e-14 4.356862e-13
7.879902e-14 4.3736597e-14 7.8869723e-13 7.0750876e-13 1.9067414e-13 9.0293204e-14 1.3511124e-12 1.918793e-14
1.0722089e-14 1.3706477e-13 1.5782753e-13 2.0358014e-13 1.950641e-12 1.2298495e-14 1.8946369e-13 7.951048e-14
7.312585e-14 3.0553462e-13 7.7696633e-13 8.4830894e-13 5.84914e-14 1.6238858e-14 1.4802727e-13 3.8265547e-14
5.2842496e-13 1.1515079e-12 7.9480785e-13 9.202787e-13 5.0129626e-14 5.8102096e-14 4.2062572e-13 2.3406806e-12
1.6286902e-12 1.08540015e-13 1.317434e-12 1.8790351e-13 3.8975936e-14 2.1624302e-12 9.635528e-13 2.4252838e-13
4.401496e-13 4.687434e-13 8.8150787e-14 5.4524012e-14 1.5482908e-12 3.8923446e-13 1.1974742e-13 7.3281355e-13
1.2602047e-12 1.3905392e-13 5.936742e-14 4.4184054e-14 1.5209504e-13 2.3796332e-13 2.543284e-13 1.3815689e-13
2.2467398e-13 8.7581174e-14 4.6061397e-12 3.085914e-13 6.956743e-13 1.6811437e-13 3.718335e-14 1.0081587e-12
4.282444e-13 1.7648932e-13 1.4173207e-12 1.5032382e-12 6.7774215e-13 1.816426e-13 2.9896747e-12 4.951425e-14
2.5265954e-14 2.0814967e-13 3.048249e-13 3.790531e-13 5.14636e-12 5.705931e-14 2.8714973e-13 3.0798847e-13
2.480359e-13 1.0211474e-12 2.004974e-12 1.6237336e-12 1.0149854e-13 4.7708223e-14 6.989071e-13 9.923077e-14
00000000: c321 5e2b 3878 a12b 7cc5 062b 536e 502b
00000010: 2153 a129 1715 a529 9f9e 0e2b 0c89 3d2c
00000020: 8c78 8c2b 71e8 3a2a 9bed 942b 0087 de29
00000030: 467b 0829 9cba 092c e3cd 922b d211 492a
00000040: 5ca5 b12a d393 472b 569f c329 cc0f 6729
00000050: c71d 7a2b ceb9 a42a 9953 722a 3452 d82a
00000060: f174 452b cc82 8c29 bc7e 5029 291c 7a29
00000070: bd9a 602a 1795 a52a 706d b429 cd5e 162a
00000080: ad49 782a 700b 5c2a 2bc0 c32c 0963 782a
00000090: 4318 4a2b 00b3 2b2a bbfb 8329 f395 672b
000000a0: ef5b d62a d23e f829 0332 9e2b 1d07 d32b
000000b0: 9556 052b 153d 3c2a a86d 082c 0fde 5f29
000000c0: d9ba e728 4a1f 4a2a ff0b 562a 672d 952a
000000d0: 0dce 812c 8e89 9d29 8351 a22a a260 5a2a
000000e0: 94ac 0d2a 2e4a 5b2b 9635 f42b 47d4 e32b
000000f0: 012a 012a 628e c429 626a 8f2b 7618 aa2a
00000100: ebfd 312b b5a2 d62b 00fa 642b 75fe 942b
00000110: d18f 5d29 df3a 7029 f655 162b 798a 5c2c
00000120: e52b f12b 40bb eb29 9d69 d52b bd34 542a
00000130: 48cc f828 b7bf 492c 146a ab2b 7afd 862a
00000140: 99f1 cd2a 37b5 1b2b 78f7 5c29 c09e 8129
00000150: ec1f de2b 0469 132b ff1f d129 5d20 452b
00000160: cb37 a92b 086a a329 1c84 4c29 ce87 1d29
00000170: 9d70 1a2a b1e0 492a e341 552a eef2 f52a
00000180: fb1d b62a ba06 fe29 3a0f d52c 4264 c42a
00000190: f252 832b b25a 562a fb1c 4329 c3ac bf2b
000001a0: cc38 b72a aa1f 4e2a fbea f32b f380 112c
000001b0: c1c6 672b e840 292a 7126 612c 8ea3 5f29
000001c0: 273b ef28 b292 892a 2178 b22a faf2 e72a
000001d0: fea3 d82c 2306 6129 bb4c ff2a deb7 9f2a
000001e0: 05e8 892a 5ce1 a22b 71dd 3a2c db5c 162c
000001f0: 0b50 222a e339 072a 5bc6 632b 3946 7a2a
00000200: 71e7 ef29 738d e22a 348a cc2a 33cc a42a
00000210: 76bd 8328 aa54 4b28 6262 712a 8370 b72b
00000220: 6e01 5e2b d789 9828 feab ea2a ad56 6229
00000230: 0d66 d427 fe5d 812b 13f5 d32a 1a91 e829
00000240: 4f1a 662a 3ef8 012a b7c9 1b28 6fc5 2329
00000250: 2342 492b 9c08 072a 8f64 e028 ec6e b82a
00000260: 9286 112b a69e 1d29 c227 0c28 9b82 7228
00000270: ea33 e628 5c21 3e29 0d34 e829 5334 6f29
00000280: 9716 312a 09a1 e228 56f2 1e2c c30a ea29
00000290: a352 892a d08c 2d29 b8e1 6528 0045 f52a
000002a0: 8b70 b129 ddf8 4429 a0ff 5d2b 6125 472b
000002b0: 14ae 562a 7d52 cb29 f426 be2b 5bd4 ac28
000002c0: e826 4128 3b52 1a2a b0b2 312a fb35 652a
000002d0: a043 092c cc8c 5d28 3151 552a ac0a b329
000002e0: 2faa a429 2e00 ac2a 53b2 5a2b 1ac7 6e2b
000002f0: ffb5 8329 4244 9228 f5a9 262a 2c55 2c29
00000300: 08bd 142b 720f a22b f1b7 5f2b 8984 812b
00000310: 86c3 6129 94d5 8229 8eca ec2a f4b5 242c
00000320: c037 e52b 0f69 f429 9069 b92b 808f 532a
00000330: 3288 2f29 e12a 182c a69b 872b 0688 882a
00000340: 3ec8 f72a 86f0 032b 787f c629 e88d 7529
00000350: 0ee7 d92b 991e db2a d8d2 062a c844 4e2b
00000360: a95b b12b 908f 1c2a fdae 8529 bffc 4629
00000370: 693e 2b2a 21f6 852a 962c 8f2a 038d 1b2a
00000380: def5 7c2a 1c37 c529 6b10 a22c b5b8 ad2a
00000390: 9ed0 432b ab47 3d2a 7c75 2729 bfe2 8d2b
000003a0: 8614 f12a 95b5 462a 5c78 c72b dd8f d32b
000003b0: 78c4 3e2b ea82 4c2a 3161 522c 0bfe 5e29
000003c0: 5393 e328 0f5b 6a2a e699 ab2a 4f63 d52a
000003d0: 4a12 b52c 747c 8029 a3a6 a12a d161 ad2a
000003e0: bea1 8b2a b6b6 8f2b 6716 0d2c 2b85 e42b
000003f0: ed8d e429 d6db 5629 90b9 442b a572 df29

exp_avg f4 [256, 64]
-4.861625e-07 7.990891e-08 5.468762e-09 5.9083746e-08 1.2521794e-07 1.1999991e-07 2.1667988e-07 -1.4851934e-06
-2.8752646e-07 2.6080704e-07 -1.5550482e-07 5.267743e-08 2.2515202e-08 -8.5576687e-07 -1.3186884e-07 3.8702996e-07
6.485195e-07 -5.2293365e-07 -1.2577837e-07 1.456664e-09 9.693154e-08 -4.3718546e-07 3.5080518e-07 1.5641147e-07
-1.9004013e-07 3.56552e-08 2.2571712e-08 1.0898516e-07 2.579755e-07 -5.3129764e-07 9.7626526e-08 7.564535e-08
5.507551e-09 -5.649486e-07 2.0302377e-06 1.7369466e-07 -2.8429864e-07 1.0100569e-08 -2.3720358e-07 2.4523223e-07
3.5166618e-08 -1.28844e-07 1.0079014e-08 5.552454e-07 -3.4958575e-07 -5.891174e-07 1.5868008e-07 -1.13255226e-07
1.0939071e-08 3.8013425e-07 7.298604e-08 1.0625582e-08 -5.3202786e-08 -2.3015053e-07 -1.7722958e-07 -1.4444596e-07
-5.8446638e-08 4.3467517e-07 -6.1542175e-07 9.7302e-07 -2.5697375e-07 -4.1149523e-08 -6.418438e-07 -7.146397e-07
-5.732296e-08 7.557014e-09 2.6968852e-10 8.107503e-09 1.4157057e-08 1.2353939e-08 2.5222064e-08 -1.8475559e-07
-3.5866996e-08 2.9814647e-08 -2.0236396e-08 7.673511e-09 3.7238446e-09 -1.0572326e-07 -1.8759286e-08 4.1781128e-08
8.052363e-08 -6.187987e-08 -1.54501e-08 -2.3203428e-09 1.3539507e-08 -5.7085998e-08 4.3176065e-08 1.9456852e-08
-2.2599751e-08 3.806063e-09 3.6606316e-09 1.3323823e-08 3.1834574e-08 -6.25813e-08 1.46207695e-08 9.915997e-09
4.8981735e-10 -6.581413e-08 2.558718e-07 1.8080508e-08 -3.591658e-08 -3.0837857e-10 -2.8873117e-08 3.0194652e-08
9.276046e-10 -1.4680143e-08 -3.770621e-11 6.954171e-08 -4.5717655e-08 -7.296867e-08 1.848483e-08 -1.128799e-08
2.7979403e-09 4.859225e-08 7.870978e-09 1.4479676e-09 -6.243606e-09 -2.8467213e-08 -1.9901663e-08 -1.86252e-08
-6.921864e-09 5.475556e-08 -7.8605815e-08 1.212805e-07 -2.9847484e-08 -2.959352e-09 -7.761673e-08 -8.2280515e-08
-2.6648888e-09 5.706906e-10 -2.8270558e-10 -5.28939e-10 8.367342e-10 1.4356564e-09 -1.6928325e-10 -1.4293257e-08
-1.9141246e-09 1.271269e-09 -9.360429e-10 2.3161775e-10 -4.1325213e-10 -8.3202405e-09 -3.1317149e-09 2.9524097e-09
3.3870415e-09 -3.2344476e-09 -8.5576696e-10 4.5515447e-10 6.5911465e-10 -3.2280318e-09 2.1551447e-09 -5.3816264e-11
-1.4138755e-10 5.905829e-10 -3.8508738e-11 4.9787518e-11 -5.869769e-11 -2.9357234e-09 5.6139104e-10 7.416384e-10
4.3459844e-10 -5.229134e-09 1.9138158e-08 1.277346e-09 -3.4607357e-09 6.9996003e-10 -1.2104173e-09 1.6338598e-09
1.4885565e-09 -4.7512494e-10 9.82877e-10 5.6754814e-09 -2.3905664e-09 -3.3276197e-09 1.4424194e-09 -1.0164257e-09
1.0205401e-10 2.0914455e-09 6.668903e-10 -3.8181752e-10 -1.3158356e-09 -1.0446111e-09 -2.3428932e-09 -2.0408782e-11
3.4678452e-10 3.9764907e-09 -5.5708442e-09 9.521628e-09 -1.5750572e-09 -1.4524505e-09 -3.1433114e-09 -5.6816702e-09
-2.1689063e-08 8.6898e-09 -1.5958245e-09 -1.3153264e-09 7.562743e-09 7.916168e-09 8.7911034e-10 -8.210885e-08
-1.2528845e-08 8.9592405e-09 -8.841991e-09 -5.852141e-10 5.409507e-10 -4.5232962e-08 -1.2221819e-08 1.5753663e-08
1.9149086e-08 -2.385681e-08 -6.363783e-09 6.421878e-10 2.5178934e-09 -1.5772029e-08 1.7026672e-08 1.4781038e-10
-1.8542093e-09 1.6339806e-09 1.7585583e-10 3.1614662e-09 4.724046e-09 -2.1552712e-08 -3.718861e-10 2.552939e-09
-4.3190812e-10 -3.111447e-08 1.06320684e-07 5.8923333e-09 -1.8895753e-08 3.468466e-09 -7.095366e-09 1.1480384e-08
9.19488e-09 -5.473839e-09 6.659113e-09 3.0844284e-08 -1.2091758e-08 -2.07831e-08 9.7939e-09 -8.070274e-09
-1.4176235e-09 1.1890941e-08 3.728327e-09 7.142175e-10 -4.4767985e-09 -1.1282616e-08 -1.47907455e-08 -2.7664013e-09
-6.530174e-10 2.0748057e-08 -2.6307646e-08 5.2344866e-08 -1.4230898e-08 -7.2927286e-09 -2.5195993e-08 -3.332232e-08
00000000: d580 02b5 639a ab33 bde7 bb31 44c3 7d33
00000010: a573 0634 53d9 0034 83a8 6834 db56 c7b5
00000020: 565d 9ab4 0c05 8c34 d7f8 26b4 723f 6233
00000030: 7467 c132 dab7 65b5 d597 0db4 fec8 cf34
00000040: ec15 2e35 ba5f 0cb5 b20d 07b4 cf33 c830
00000050: ad28 d033 50b6 eab4 4c56 bc34 0ff2 2734
00000060: d50d 4cb4 4f23 1933 b8e3 c132 3a0b ea33
00000070: e27f 8a34 7f9e 0eb5 c0a6 d133 7972 a233
00000080: ee3c bd31 f9a6 17b5 383f 0836 d380 3a34
00000090: b5a1 98b4 c686 2d32 06b2 7eb4 76a8 8334
000000a0: 1b0a 1733 5e58 0ab4 f927 2d32 2c0c 1535
000000b0: b3ae bbb4 d723 1eb5 a661 2a34 b836 f3b3
000000c0: 8bee 3b32 4115 cc34 80bc 9c33 ce8b 3632
000000d0: 1581 64b3 4c1f 77b4 7f4c 3eb4 0119 1bb4
000000e0: c206 7bb3 4d5d e934 7633 25b5 b698 8235
000000f0: 34f6 89b4 61bc 30b3 2c4b 2cb5 abd5 3fb5
00000100: 4333 76b3 19d4 0132 4943 942f 2d49 0b32
00000110: 6537 7332 333d 5432 e8a7 d832 3b61 46b4
00000120: 2e0c 1ab3 8d0d 0033 4ed4 adb2 75d4 0332
00000130: 91e6 7f31 fa09 e3b3 1b24 a1b2 d672 3333
00000140: 55ec ac33 d1e2 84b3 21b7 84b2 e773 1fb1
00000150: 629b 6832 b82e 75b3 9670 3933 1222 a732
00000160: 6121 c2b2 7cc6 8231 838e 7b31 cbe6 6432
00000170: 7cba 0833 6f64 86b3 d32e 7b32 045b 2a32
00000180: d5a3 0630 b355 8db3 c15e 8934 754f 9b32
00000190: b342 1ab3 6d88 a9af a804 f8b2 5faf 0133
000001a0: 5ffa 7e30 f433 7cb2 6bd5 25ae f656 9533
000001b0: 185b 44b3 f3b2 9cb3 92c8 9e32 1bed 41b2
000001c0: e345 4031 beb3 5033 ed38 0732 d501 c730
000001d0: 5787 d6b1 1088 f4b2 38f4 aab2 3ffd 9fb2
000001e0: 5cd5 edb1 602c 6b33 01ce a8b3 5439 0234
000001f0: a831 00b3 795d 4bb1 40ae a6b3 31b2 b0b3
00000200: 3821 37b1 c8de 1c30 466b 9baf c664 11b0
00000210: efff 6530 ab50 c530 0021 3aaf 698e 75b2
00000220: a389 03b1 cdb8 ae30 15a6 80b0 9aaa 7e2f
00000230: 1130 e3af cef0 0eb2 b635 57b1 57e3 4a31
00000240: 77c1 6831 0145 5eb1 3f3b 6bb0 4c39 fa2f
00000250: 122d 3530 23d4 5db1 b519 1431 baaf 6cae
00000260: 0f75 1baf 9456 2230 fc5c 29ae c3f7 5a2e
00000270: dd13 81ae cbbd 49b1 6250 1a30 2adc 4b30
00000280: 4bec ee2f f3ab b3b1 4165 a432 9e8e af30
00000290: e8d1 6db1 4f67 4030 c65b a6b0 558e e030
000002a0: ed95 cc30 f299 02b0 e915 8730 1002 c331
000002b0: 4a47 24b1 1bac 64b1 9f3e c630 4db2 8bb0
000002c0: 4d6b e02e 19b9 0f31 3c50 3730 0ae8 d1af
000002d0: d9d8 b4b0 fc91 8fb0 9d00 21b1 7e84 b3ad
000002e0: 95a5 be2f 95a1 8831 aa69 bfb1 9094 2332
000002f0: 6679 d8b0 8f9f c7b0 b801 58b1 8038 c3b1
00000300: c14e bab2 254a 1532 1554 dbb0 efc6 b4b0
00000310: 4ced 0132 adff 0732 e4a5 7130 d153 b0b3
00000320: 713e 57b2 28eb 1932 7de7 17b2 c8dc 20b0
00000330: 05b2 1430 2b46 42b3 21f8 51b2 ac52 8732
00000340: 497d a432 aeed ccb2 6da8 dab1 f385 3030
00000350: 4007 2d31 0f7b 87b2 0c42 9232 ec84 222f
00000360: 31d7 feb0 9592 e030 045b 412f 1a41 5931
00000370: 2651 a231 ea22 b9b2 5172 ccaf c76f 2f31
00000380: aa71 edaf b9a2 05b3 6a52 e433 8375 ca31
00000390: 3350 a2b2 e659 6e31 80cb f3b1 433b 4532
000003a0: 83f7 1d32 6614 bcb1 2dce e431 a679 0433
000003b0: 1dbc 4fb2 8586 b2b2 0742 2832 71a5 0ab2
000003c0: 31d6 c2b0 e948 4c32 b61a 8031 9752 4430
000003d0: 56d2 99b1 78d5 41b2 631a 7eb2 0c1b 3eb1
000003e0: 0480 33b0 7639 b232 20fb e1b2 cad1 6033
000003f0: 277c 74b2 8593 fab1 936e d8b2 471e 0fb3

exp_avg_sq f4 [256]
4.757071e-10 4.798304e-10 1.5133039e-10 3.2376687e-10 1.5613645e-10 5.1517637e-11 1.1199693e-09 1.0279828e-08
9.926557e-10 8.1930566e-11 4.2941922e-10 3.155708e-10 7.098282e-11 3.7373358e-09 1.3595697e-09 8.466096e-11
1.8917463e-10 3.2643868e-10 1.04361506e-10 4.401883e-11 4.754043e-10 1.1530846e-09 1.2837031e-10 4.807432e-10
6.58546e-10 2.7373008e-11 2.7306796e-11 5.108018e-11 9.549298e-11 1.461165e-10 3.3006316e-11 6.053568e-11
2.8056493e-10 1.4490338e-10 2.5969916e-08 4.5922627e-11 2.2131819e-09 1.7898144e-10 1.1310846e-10 1.2140156e-10
2.7202118e-10 4.3321957e-11 2.72766e-09 1.8947437e-09 1.0995174e-09 2.9919012e-10 1.5770456e-10 2.0132235e-10
9.8419266e-11 3.2265413e-10 1.6680478e-10 8.398398e-11 4.208208e-10 6.7479564e-11 7.5295814e-10 9.867421e-11
3.0355274e-10 2.5244578e-09 2.3914732e-09 5.802415e-09 8.83637e-11 2.4488706e-10 5.574344e-10 2.1712848e-10
4.5913276e-10 2.4105407e-10 1.2988062e-10 1.8279779e-10 7.279788e-11 2.5572683e-11 7.2594575e-10 6.384334e-09
6.283557e-10 4.5224643e-11 3.3818745e-10 1.5935951e-10 2.3527168e-11 2.324645e-09 1.1029165e-09 7.0399075e-11
1.2736942e-10 2.7355412e-10 6.690986e-11 3.2396356e-11 3.2372802e-10 6.135994e-10 9.8769846e-11 2.6295902e-10
5.982436e-10 2.1770759e-11 1.5144976e-11 1.910066e-11 6.871533e-11 1.3719796e-10 2.0959092e-11 1.9078924e-11
1.899698e-10 1.9462626e-10 2.6006338e-08 2.2285349e-11 1.0325891e-09 1.2739343e-10 3.8562986e-11 8.678937e-11
1.4062111e-10 2.9898587e-11 2.1266267e-09 1.271745e-09 6.7050554e-10 2.710268e-10 1.538496e-10 1.4798726e-10
5.6968954e-11 2.525534e-10 8.9776124e-11 5.169054e-11 2.875029e-10 3.8107576e-11 5.6603694e-10 8.073864e-11
1.605821e-10 1.2400456e-09 1.9996138e-09 4.146437e-09 8.4822656e-11 2.1824027e-10 4.4331902e-10 2.380505e-10
7.097255e-07 1.7633732e-07 6.693566e-08 9.446805e-08 4.874688e-07 4.7901715e-08 8.5096224e-07 9.3554075e-07
1.6234641e-07 1.5509661e-07 1.353368e-07 3.1436588e-07 2.1263176e-07 5.004264e-07 8.609816e-07 1.0014384e-07
1.2069502e-07 4.188047e-07 8.404294e-08 1.4787182e-07 1.08570106e-07 6.238889e-07 2.2758822e-07 1.5017945e-07
4.1511717e-07 8.119535e-08 1.0094886e-07 1.07956396e-07 1.8485638e-07 2.685531e-07 3.7001605e-08 4.397253e-08
2.0779045e-07 2.7549484e-07 1.6916042e-06 3.7570025e-08 4.4093323e-07 3.3908353e-07 2.0022293e-07 4.3752937e-08
1.1364612e-07 1.0458402e-07 7.223879e-07 3.563104e-07 5.2474826e-07 5.2188597e-07 2.4949996e-08 4.955634e-07
3.7523492e-07 3.0183463e-07 1.5299678e-07 6.480855e-08 2.8133023e-08 2.3524375e-07 5.559049e-07 1.5258364e-07
2.4533196e-07 3.6475691e-07 8.519042e-07 7.410865e-07 3.2883935e-07 9.310078e-07 6.2794214e-07 2.1118852e-07
4.6614745e-10 4.0575393e-10 1.6464578e-10 3.0483682e-10 1.6697155e-10 5.5900323e-11 1.2569351e-09 6.828735e-09
1.3978089e-09 7.433974e-11 3.4518638e-10 3.6987968e-10 4.777196e-11 3.3735579e-09 1.2463428e-09 9.405597e-11
1.8673824e-10 2.6551916e-10 1.1028957e-10 4.3240255e-11 4.1158724e-10 1.0466995e-09 1.4464556e-10 3.6475878e-10
8.0571494e-10 3.1062056e-11 2.8367654e-11 4.5325833e-11 1.0975889e-10 1.8953769e-10 2.739513e-11 5.7190773e-11
2.1278504e-10 1.5409901e-10 4.907754e-08 4.2894396e-11 2.441011e-09 1.5407028e-10 1.00152386e-10 1.06234604e-10
1.799741e-10 6.253847e-11 2.3177766e-09 1.5401261e-09 9.425103e-10 3.2902062e-10 2.578969e-10 2.0673362e-10
1.2902879e-10 2.7965819e-10 1.4789883e-10 8.306924e-11 6.13253e-10 7.7418e-11 9.460067e-10 1.02463996e-10
2.7660527e-10 1.5959996e-09 2.6038764e-09 6.9743353e-09 7.120906e-11 2.2185802e-10 4.986882e-10 2.585672e-10
00000000: e9c2 0230 10e5 0330 b863 262f 23fe b12f
00000010: 81ac 2b2f b493 622e 6bed 9930 299b 3032
00000020: f86d 8830 cf2a b42e 6213 ec2f a47c ad2f
00000030: c617 9c2e f469 8031 9bdb ba30 e22b ba2e
00000040: edff 4f2f 2976 b32f 4e7e e52e cc98 412e
00000050: 9bad 0230 8f7a 9e30 0825 0d2f 4c25 0430
00000060: 0e05 3530 89c6 f02d 7031 f02d 2ba7 602e
00000070: c5fd d12e 23a8 202f cf29 112e 8f1e 852e
00000080: 013e 9a2f ad52 1f2f 7314 df32 48f8 492e
00000090: b516 1831 ccca 442f 67ba f82e 807b 052f
000000a0: 948b 952f 3088 3e2e 8171 3b31 af34 0231
000000b0: d41d 9730 447b a42f e365 2d2f 345b 5d2f
000000c0: 1f6d d82e 8861 b12f 5f67 372f c7ae b82e
000000d0: 4359 e72f 9e63 942e b8f8 4e30 a4fc d82e
000000e0: 40e1 a62f bb7a 2d31 3e57 2431 955e c731
000000f0: 5750 c22e caa0 862f f539 1930 3cbc 6e2f
00000100: 3169 fc2f 5885 842f 25ce 0e2f 01fd 482f
00000110: 9015 a02e 90f0 e02d e48b 4730 325d db31
00000120: 9ab8 2c30 6ce6 462e a7eb b92f b737 2f2f
00000130: 79f2 ce2d 96bf 1f31 6d95 9730 28cf 9a2e
00000140: 4e0b 0c2f 5263 962f e722 932e 0e7b 0e2e
00000150: abf8 b12f 38aa 2830 7b32 d92e 3190 902f
00000160: a771 2430 647f bf2d 7437 852d dd02 a82d
00000170: 4b1b 972e cbd9 162f ae5b b82d ebd1 a72d
00000180: bfdf 502f 6cfe 552f 8b64 df32 2506 c42d
00000190: 00eb 8d30 1012 0c2f 109a 292e 12da be2e
000001a0: 539d 1a2f d17e 032e 0324 1231 8dc9 ae30
000001b0: a24e 3830 a2ff 942f d028 292f b6b6 222f
000001c0: 578d 7a2e bbd7 8a2f 776b c52e 6056 632e
000001d0: 700e 9e2f 5199 272e 4f97 1b30 d08b b12e
000001e0: d88f 302f 3a6e aa30 9469 0931 7278 8e31
000001f0: e986 ba2e 2df5 6f2f 9bb7 f32f a1de 822f
00000200: f783 3e35 3c57 3d34 45be 8f33 5cde ca33
00000210: 9ada 0235 7ebc 4d33 ae6d 6435 df21 7b35
00000220: 7151 2e34 a288 2634 1951 1134 1ec6 a834
00000230: c64f 6434 0a55 0635 341e 6735 a90e d733
00000240: 6598 0134 14d8 e034 187b b433 b2c6 1e34
00000250: 0c27 e933 5279 2735 f95e 7434 0341 2134
00000260: 45dd de34 9e5d ae33 39c9 d833 a8d5 e733
00000270: ef7c 4634 a82d 9034 b2eb 1e33 4fdc 3c33
00000280: 011d 5f34 b9e7 9334 140b e335 ae5c 2133
00000290: 67b9 ec34 490b b634 dcfc 5634 ddea 3b33
000002a0: 9d0d f433 ac97 e033 1eea 4135 ee4a bf34
000002b0: 6ddc 0c35 bb17 0c35 9f51 d632 dc06 0535
000002c0: e573 c934 d60b a234 6f47 2434 e12c 8b33
000002d0: 2ca9 f132 4f97 7c34 7e39 1535 dfd5 2334
000002e0: 2bb6 8334 cfd3 c334 69ae 6435 14ef 4635
000002f0: 568b b034 5eea 7935 db8f 2835 0fc3 6234
00000300: 3622 0030 ca10 df2f ab07 352f f895 a72f
00000310: 5096 372f 2bda 752e 79c0 ac30 30a2 ea31
00000320: 071d c030 8e79 a32e aac4 bd2f f057 cb2f
00000330: 721a 522e 42d4 6731 ca4b ab30 ced4 ce2e
00000340: 2452 4d2f 80f8 912f 8287 f22e 332c 3e2e
00000350: c145 e22f 77db 8f30 1b0a 1f2f 3c87 c82f
00000360: 2679 5d30 c49c 082e 4786 f92d 5a58 472e
00000370: c35c f12e 1e66 502f 59f8 f02d 1687 7b2e
00000380: aaf5 692f 046f 292f 53c9 5233 cca6 3c2e
00000390: b8be 2731 ee66 292f c83c dc2e c49c e92e
000003a0: 35e2 452f 0786 892e c246 1f31 5fac d330
000003b0: a289 8130 89e1 b42f c3c7 8d2f 574e 632f
000003c0: 60de 0d2f 64be 992f d29d 222f d3ab b62e
000003d0: d891 2830 763e aa2e a704 8230 1a52 e12e
000003e0: bb10 982f 3e5a db30 e1ef 3231 e7a2 ef31
000003f0: 2397 9c2e 7bef 732f 1014 0930 1926 8e2f
